IndexNetwork.pt (torch, 849903 bytes, 96 tensors)

token_embedding_table.weight f4 [39, 64]
000000 82 64 9d 3c e5 dd b3 bc 7e dd 10 bc 1b 21 d2 bb
       0.019212965 -0.021956393 -0.00884187 -0.006412638
000010 f7 60 1c 3c 0a 22 35 3b 84 62 07 3d 5b 39 d7 3b
       0.009544603 0.0027638697 0.033052936 0.0065681166
000020 ff ac 30 3c 7b 1d f7 3b 1e 83 b8 3c 74 a0 54 3d
       0.010783433 0.007541356 0.022523459 0.051910833
000030 56 36 1e 3c d2 02 db bc 88 cb 09 bd db 74 0d 3b
       0.009656509 -0.026734743 -0.03364137 0.0021584544
000040 1c 96 14 bc 75 38 ae 3c 70 3e 6c 3c 93 45 ac 3c
       -0.009068992 0.021267155 0.014419183 0.02102927
000050 b0 c3 18 bc 6c 23 38 bc 05 77 bf 39 6d 4e b1 bc
       -0.009323999 -0.011238914 0.00036519035 -0.021643842
000060 20 d9 e9 3c 7c 7a 88 bb 79 b4 0a 3d 2b 54 af bb
       0.028545916 -0.004164992 0.03386352 -0.00535061
000070 43 6c 0c 3b 4d 81 3b 3c b8 0d 26 3b 67 0d 12 3d
       0.0021426834 0.011444402 0.0025337767 0.035657313
000080 37 c9 9e 3c 82 dc 24 3c d5 b6 64 3c 49 c5 8a 3c
       0.019383056 0.010062339 0.013959606 0.016939776
000090 29 a8 de 3c 2e 45 a2 3c 38 6e 79 bc e1 88 a8 bb
       0.027179794 0.019808378 -0.015224032 -0.0051432704
0000a0 cb d1 d0 3c 32 88 fe 3c 3a 3b 9b 3b c3 86 4b 3b
       0.025490662 0.031070802 0.004737285 0.0031055666
0000b0 cf 4e a8 3a 38 08 27 3b 10 3c eb b9 50 d0 55 bc
       0.001284087 0.0025487076 -0.00044867443 -0.013050154
0000c0 98 bb b9 bc 9d 73 3f 3c f8 14 d0 3b ee 6d b2 3c
       -0.02267246 0.011685279 0.006350156 0.021780934
0000d0 4e 1d af 3c 5d 92 35 bd 28 0c 68 bc 7f 22 df bc
       0.021376278 -0.044329036 -0.0141630545 -0.027238129
0000e0 fa ad f8 3c f8 92 e0 bb b4 83 88 3c 72 88 ad ba
       0.030356396 -0.0068534575 0.016664363 -0.0013239516
0000f0 49 1b dd bc 3a 70 62 3c e1 2a f6 bb bb 99 24 3c
       -0.02699055 0.013820702 -0.007512436 0.010046418
000100 65 24 88 bc 42 1a 2d 3d b4 bd c1 3c 68 bf 61 bc
       -0.016618917 0.04226137 0.023650028 -0.013778545
000110 1f 42 b8 3b 50 7d 68 bc 41 dc a0 3c 5e b5 f8 bc
       0.0056231166 -0.014190033 0.019636275 -0.03035992
000120 4d 55 15 bb a5 73 bc bc 8d d1 6c 3d 56 fe 6c bc
       -0.002278644 -0.023004362 0.05781703 -0.014464935
000130 e7 63 20 bc 68 bb 0d 3d 49 b3 0a bd 3b cb 91 bc
       -0.009789444 0.034602553 -0.033862386 -0.017797103
000140 17 c0 b2 3c 8b 76 ee ba 0b 7c 88 3c f4 b9 12 3b
       0.021820111 -0.0018193288 0.01666071 0.0022388669
000150 35 3c ba bc 13 44 6c 3c 20 fc 1f 3c 06 b0 b2 bc
       -0.022733787 0.014420527 0.009764701 -0.02181245
000160 ca 25 59 bc a6 47 25 3c df c5 76 bc d1 1d 82 3b
       -0.0132536385 0.010087883 -0.015061825 0.0039708395
000170 36 13 de bc 9d d7 83 3b 1c 80 e7 bc 33 fa 00 3c
       -0.02710877 0.004023506 -0.02825933 0.007872152
000180 3c ef 7d bc 04 53 c4 3c b7 bb 53 bc 0a f1 b2 bc
       -0.015498932 0.023965366 -0.012923173 -0.021843452
000190 73 0e 03 3b c6 62 7d 3b ea 53 ff 3a 24 11 3d bc
       0.0019997626 0.003866361 0.0019479964 -0.011539731
0001a0 f5 3c 7c 3b 62 85 ef 3c 90 b2 19 b8 27 52 36 3b
       0.0038488482 0.029238407 -3.6644342e-05 0.0027819963
0001b0 56 ac aa 3b fb 74 9f b9 dc f8 09 bc e8 74 be 3c
       0.0052085323 -0.00030414 -0.008421149 0.023249105
0001c0 32 b5 b0 3c 9a 77 94 bc 3e c9 43 3d b3 ce 37 bd
       0.021570776 -0.018123437 0.04779934 -0.044874858
0001d0 c6 f5 7d bc 54 d4 8c 3c ed b0 af bc 3c 4f 86 3a
       -0.0155004915 0.01719109 -0.02144667 0.0010247002
0001e0 98 2f 51 3c 74 e2 b6 bc 00 9c 47 bd de 1f 71 ba
       0.012767695 -0.022324778 -0.048732758 -0.0009198169
0001f0 f0 14 dc 3b a7 ad 5c 3d 16 ed 9e bb 41 b5 85 3b
       0.006716363 0.053876545 -0.00485004 0.004080445
000200 45 92 b5 bb 57 20 a1 ba 4b 34 48 bc c4 99 73 3b
       -0.0055411183 -0.0012292963 -0.012219499 0.003717051
000210 22 08 2a 3c 25 fa ad bc e9 df 8f 3c c1 61 f9 3c
       0.010377916 -0.021237442 0.017562823 0.03044212
000220 73 9d 1e 3c 7f d4 49 bc 07 61 52 3c 39 36 09 3c
       0.0096810935 -0.012318729 0.012840516 0.008374744
000230 78 b3 ab 3c f4 8e 22 bc 37 cf 94 ba de be 49 39
       0.0209596 -0.009921778 -0.0011353259 0.00019239957
000240 dc 63 2b 3c f7 ee 96 3c 4b 27 03 bd e4 d2 29 bd
       0.01046082 0.018424494 -0.032019895 -0.041460887
000250 b2 bc 6e bc d0 98 ff bb 50 12 c3 bb 94 66 db 3b
       -0.014571356 -0.007800199 -0.0059531108 0.006695578
000260 33 82 d8 3c f1 08 31 bb d9 9e 5a bc 75 ad ba bc
       0.026429271 -0.0027013386 -0.013343536 -0.022787789
000270 bb d4 e9 3b 37 39 17 bc cb b3 eb bc ff 76 e5 3c
       0.007135955 -0.00922995 -0.028772255 0.028010843
000280 46 4c dc 3c 4f 71 0d 3d 64 8f 17 bd 78 6e 99 bc
       0.026891839 0.034531888 -0.037001982 -0.018729433
000290 05 bc ae 3c 59 45 ca bc 91 87 9b 3b 11 e6 ec bc
       0.02132989 -0.02469127 0.0047463854 -0.028918298
0002a0 59 b3 9f bc 46 5f e3 bb 5f 42 15 bc 26 6f f2 3a
       -0.0194947 -0.0069388477 -0.009110062 0.001849626
0002b0 d3 5e eb bc 54 64 16 bd b4 fe ea 3b 5c e0 f4 bc
       -0.02873174 -0.036716774 0.0071714763 -0.02989214
0002c0 7f c3 87 3c 59 51 ac bb 7b 6d 11 bc ab 9b 83 bc
       0.016572712 -0.005258721 -0.0088762 -0.01606544
0002d0 89 ee 53 bd e2 e9 c1 bb 13 bd 08 3a b0 b1 cf 3c
       -0.051741157 -0.0059177736 0.00052161625 0.025353283
0002e0 5c a4 0f 3c 99 0d 13 3c 4f 7f b5 3c 8c e2 84 ba
       0.008767214 0.00897541 0.022155432 -0.0010138317
0002f0 01 ab 2a 3c 00 95 f6 bc ad 7d 25 bd 0f 03 7c 37
       0.010416747 -0.030100346 -0.040403057 1.5021083e-05
000300 9a 95 5d 3c f7 bb b3 3c f5 9e 02 3c 61 06 f0 3c
       0.013524437 0.021940215 0.007972469 0.029299917
000310 9c 31 69 3b 42 f3 d6 ba 67 02 00 bd ee 55 b0 3b
       0.0035582548 -0.0016399401 -0.03125229 0.0053813374
000320 52 a5 0e 3c 5a 0c 75 bb c5 7c 8e bc 84 06 64 bc
       0.008706408 -0.0037391395 -0.01739348 -0.013917569
000330 05 48 99 3c 19 8e 32 3c 0e 15 55 bc 17 7c 76 3a
       0.0187111 0.0108981365 -0.013005508 0.0009402646
000340 d2 bf 21 3d f0 c1 9c bc 18 d6 bf bc eb be 86 bc
       0.039489575 -0.019135445 -0.023417518 -0.016448459
000350 1f cb 81 bc 40 cc 7b bd 80 43 69 3c 77 65 82 3c
       -0.015843926 -0.061474085 0.014237285 0.015917523
000360 e9 60 b0 3b 72 ad a5 3c 67 c0 23 3c 00 3b 81 bc
       0.0053826463 0.020224307 0.009994603 -0.015775204
000370 91 4f b2 3c 0c 65 a3 bb 95 66 84 bc e2 b2 81 bc
       0.021766456 -0.004986411 -0.016162196 -0.015832368
000380 47 bb 4d bd 5e 1c aa bc ea e5 1b 3d 0f 60 fa 3c
       -0.05022743 -0.02076548 0.03806106 0.030563382
000390 f1 db 8c 3b 6a 2a 03 3c fa db b7 bc cc ea a9 bc
       0.00429868 0.008005718 -0.02244376 -0.020741843
0003a0 6a 93 74 bc 30 79 64 bc ac b0 82 bb c4 63 b2 3b
       -0.014927724 -0.013944909 -0.003988346 0.005444022
0003b0 4b bb b9 bb 32 84 60 39 f0 7b b9 bb 82 61 05 3d
       -0.005668079 0.00021411551 -0.0056605265 0.032563694
0003c0 a6 0f ae 3a 2b a0 d3 3b 58 2d 8d bc d6 ee 9d bc
       0.001327981 0.0064583025 -0.017233536 -0.019278925
0003d0 74 83 9f bb 0a 9a c0 3b 46 fd 2f bc 6a 76 20 bc
       -0.0048679654 0.005877738 -0.010741537 -0.009793857
0003e0 24 0a 93 3c fc ff e2 39 85 88 12 bd d6 5e f6 3a
       0.017949171 0.00043296802 -0.035774726 0.0018796574
0003f0 56 4b cf bc ec c1 69 3c a8 78 ae bc 13 fc ae 3c
       -0.025304478 0.014267426 -0.021297768 0.021360433

position_embedding_table.weight f4 [16, 64]
000000 a1 85 8e 3a c6 8b 21 3c 8b de 38 bc df 03 59 bc
       0.0010873565 0.009859985 -0.011283527 -0.013245552
000010 24 6d a3 bc 44 bf 24 3b 9e 39 5e bc 98 1c 82 bb
       -0.019949503 0.0025138417 -0.013563542 -0.003970694
000020 a9 76 ac 3b 6d 2a 89 bc 2f 66 d7 bc 0e cc b5 bc
       0.005263169 -0.016743863 -0.026293842 -0.022192027
000030 cb 0e 36 bc f9 71 8e 3c 03 81 81 3b 12 c6 02 bd
       -0.011111925 0.01738833 0.003952147 -0.031927176
000040 23 3d 96 3c 21 fe ae 3c 36 d2 fc 3a a8 f6 93 3c
       0.0183397 0.021361412 0.0019288722 0.01806195
000050 3e 6c 8c 3c e0 df 68 bb 18 7b fc bb a8 bb 6f 3b
       0.017141458 -0.003553383 -0.0077051036 0.0036580358
000060 36 94 22 3c 3e c9 37 bc d3 cb 8b bc b8 de 9b 3c
       0.009923032 -0.0112174135 -0.017064964 0.019027099
000070 e7 5c d4 bc 30 3a bd bb 16 8e 0d bc 18 29 00 3c
       -0.025923206 -0.0057747588 -0.008639833 0.0078222975
000080 4d de 8b 3b 59 d0 09 3b 99 b5 b4 3b 5d 4a dc bc
       0.0042684437 0.0021028726 0.005514812 -0.026890928
000090 82 ca b4 bb 63 4b b2 bc 82 83 82 3c d0 ce 6f bc
       -0.005517305 -0.021764463 0.015931848 -0.01463671
0000a0 3f bd 42 bc 24 8c 4a ba 57 67 0b bd e7 9f 85 3c
       -0.01188594 -0.0007726571 -0.0340341 0.016311599
0000b0 a9 06 9f 3c 7a d0 06 bd c2 b2 cb 3c f0 60 be bb
       0.019412355 -0.032913662 0.024865512 -0.0058098957
0000c0 ca 82 98 3c 33 6e 24 bc 7f ff aa 3c 80 d0 47 3c
       0.018617053 -0.010036039 0.020873783 0.012195706
0000d0 01 b8 e4 3c 8b d7 42 bc 56 28 c4 3b 06 ac 8e bc
       0.027919771 -0.01189221 0.0059862537 -0.017416012
0000e0 63 d7 33 bc 02 4f 4f bb 10 cf af 3c 76 ef ca bb
       -0.010976645 -0.0031632786 0.02146104 -0.0061930967
0000f0 0f 5c 82 3b 94 56 b3 3c 15 4a 00 bc c1 f2 4f bb
       0.0039782594 0.02189187 -0.0078301625 -0.0031730386
000100 f5 92 79 3b 52 82 94 3c 0d a8 ef bb 96 4c 03 bd
       0.0038081978 0.018128548 -0.0073137344 -0.03205546
000110 b6 9d 04 bd ec d8 ff 3c 7e 56 6f bb f9 57 c7 3c
       -0.032376967 0.031231366 -0.003652006 0.02433394
000120 63 ea b1 bc 2d 4c 81 3c 37 00 19 3b 4f e3 51 bd
       -0.02171821 0.015783394 0.0023346075 -0.05124217
000130 2e 11 d7 b9 21 7c 9f 3b 47 c7 70 3c 23 67 a4 bc
       -0.00041020795 0.0048670922 0.014695949 -0.02006871
000140 c8 08 07 3d 92 93 5b bc 9d 90 b4 3c cc a0 2f 3d
       0.03296736 -0.013401883 0.022041613 0.042877957
000150 a8 44 a8 3c c4 85 a0 3a bb 8f 15 bc a7 95 42 bd
       0.02054055 0.0012246897 -0.009128506 -0.047506
000160 cc 7c 8a bb f7 69 f0 3c 24 4c 8a bc 81 8c 27 3d
       -0.0042263027 0.029347403 -0.01688201 0.04090548
000170 f8 e3 e3 3c a2 72 c6 3b ce a8 e0 bc 4c c2 ff 3b
       0.027818665 0.0060561458 -0.027424242 0.0078051444
000180 07 2a 93 3b fe b5 3a 3c 62 82 1b bc 13 e2 a5 3c
       0.004491094 0.011395929 -0.009491535 0.020249402
000190 54 b4 2b 3a c6 11 1a 3d 6d cc 9b bb 41 11 00 3c
       0.00065500033 0.037614606 -0.004754594 0.007816614
0001a0 b2 0f b8 3c 20 13 0b bd dd c7 2d bc 5d ec 17 bd
       0.022468422 -0.033953786 -0.010606733 -0.037090648
0001b0 1a 5a 9e 3c d6 b9 d2 bc f1 3c 91 3c 83 92 9f bc
       0.019330073 -0.02572338 0.017729254 -0.019479042
0001c0 5a bd 1a 3d 46 32 19 3d 38 63 62 bc a4 70 a2 bc
       0.037778236 0.03740146 -0.013817601 -0.019829102
0001d0 32 6b 0c bc 58 35 53 3b 4e 38 1c bc 5f 3f 5c bc
       -0.008570479 0.003222784 -0.009534908 -0.013442843
0001e0 47 fb 95 bb 4b e3 66 bc e1 9e 85 3b 72 ad 77 3c
       -0.0045770737 -0.014092277 0.0040777777 0.015117036
0001f0 33 5e 8c 3b e1 87 7e ba 90 12 65 39 71 04 c0 3c
       0.0042836904 -0.00097095786 0.00021846057 0.023439618
000200 e4 00 14 bc 55 c0 46 3c 2d 15 97 3b 42 b2 8f bc
       -0.0090334155 0.0121308165 0.0046106786 -0.017541055
000210 a8 7b 7d bc 46 1b ce 3b 58 2e 11 3d 17 8a 40 bc
       -0.0154713765 0.0062898723 0.035444587 -0.011751673
000220 04 25 e6 3c f0 f7 0b bd 09 10 ee 3c bc 84 a1 3c
       0.028093822 -0.034172 0.02906038 0.019716613
000230 4e 37 d8 3c b6 b6 1e 3d 96 56 96 3c 52 53 53 3b
       0.026393559 0.038748465 0.018351834 0.0032245708
000240 2f 3b 49 bc 65 57 7b 3c d0 6b 11 3c e4 e1 81 bb
       -0.012282177 0.015340661 0.008875802 -0.003963696
000250 ae bf d2 bc ac 59 b3 bc 84 d1 e7 bb a1 b3 95 b8
       -0.025726166 -0.021893345 -0.0070745368 -7.138332e-05
000260 34 5d 95 3c 7d 50 83 3c 08 2d ad bc 76 ac ef bc
       0.01823292 0.01602959 -0.021139637 -0.02925704
000270 4f e9 3e 3c 74 54 96 3c 2b 0e be bb 93 4f 15 3c
       0.011652305 0.018350817 -0.005800029 0.00911321
000280 3a 98 8c 3a 80 45 be 3c ef b3 77 3c 11 8a 1f bc
       0.0010726519 0.0232265 0.015118583 -0.009737507
000290 c6 2d 53 bc e3 77 39 bc c5 e0 31 b9 49 79 92 3c
       -0.012889331 -0.011320087 -0.00016963769 0.017880099
0002a0 5a eb ee bc 83 6c 82 bc d3 6c b1 3c 9f 5e 19 3c
       -0.029164959 -0.015920883 0.021658337 0.009360938
0002b0 fc 8f d5 39 b2 1a ac 3c 11 df e7 bc e4 84 a1 bb
       0.00040733803 0.021008823 -0.028304609 -0.004929172
0002c0 a6 1f 09 bd ac 08 07 3b 06 3b 75 3b d3 7b 27 3b
       -0.033477448 0.0020604534 0.0037419214 0.0025555983
0002d0 3c 8a c7 3c 6e 0f a4 3c 6f 67 0d 3d 57 95 c3 3c
       0.024357907 0.020026889 0.03452247 0.023874922
0002e0 f9 09 83 bb c7 de 83 bc 35 cc cf 3b 4d 79 49 bc
       -0.0039989916 -0.01609744 0.006341482 -0.012296987
0002f0 f3 fd d2 3c 65 48 f8 bb 16 c4 a8 bc 71 f8 f1 3c
       0.025755858 -0.0075769895 -0.020601314 0.029537411
000300 be 1b e8 bb 37 34 fc ba 3e 7f ac bb 73 52 eb 3b
       -0.0070833853 -0.0019241635 -0.005264192 0.0071814596
000310 82 0a 24 bc d8 7a c1 3b 52 7a d7 3c 43 9b 49 bc
       -0.010012271 0.0059045367 0.026303444 -0.012305084
000320 f5 f6 91 3b 60 33 d2 bc 23 25 85 3c d8 fb 46 3b
       0.0044544884 -0.025659263 0.01625306 0.0030362513
000330 27 51 44 bd f1 41 8e bc ef f4 4f 3c 53 06 06 3d
       -0.047928955 -0.017365428 0.012692674 0.032720875
000340 45 2d c9 3c a4 1e 2f bc 07 cc 0d bd 3b 0a 05 3b
       0.024557719 -0.010688458 -0.034618404 0.0020300287
000350 2e 0c 9d 3c 80 2b 90 bb ae 1f 03 bc d8 57 43 bc
       0.019170847 -0.004399717 -0.0080031585 -0.011922799
000360 f0 92 05 3b b8 58 31 bc 8b 9b 5d ba 8f fa ef bc
       0.002038177 -0.010824375 -0.00084536587 -0.02929428
000370 f9 c1 ba bc c4 a2 49 3c 3c 67 62 3c 9a 90 a0 bb
       -0.022797571 0.012306873 0.013818558 -0.0049000503
000380 f0 89 8f bb c8 08 df 3b 89 4a 37 bd 63 f0 25 bc
       -0.004380457 0.0068064667 -0.044748817 -0.010128113
000390 6d ca 5f bb 4f e6 c3 bc 97 da e6 3c 27 47 4e bb
       -0.0034147755 -0.02391353 0.028180404 -0.0031475516
0003a0 d3 40 8b bc 7e 2b 8c bc 98 74 16 3c ef 49 8e 3b
       -0.016998684 -0.017110582 0.009183072 0.0043423097
0003b0 c5 f0 0b 3d 97 23 ab 3c b7 98 db 3c e3 b2 91 3c
       0.034165163 0.020890994 0.026806219 0.017785495
0003c0 71 56 3e 3c 14 3c a6 bb b0 c6 bd 3a e1 16 eb bc
       0.011617289 -0.00507308 0.0014478769 -0.028697433
0003d0 0c 71 96 3c f8 08 d9 3b 7b 3e 29 bc bb 2b a5 bb
       0.018364452 0.0066233836 -0.010329838 -0.0050406135
0003e0 22 ea 2c bc d6 7b 37 3b 7d 1b 30 3c f3 bb e7 3c
       -0.0105538685 0.0027997396 0.010748741 0.028287863
0003f0 c9 d2 40 3c f4 ad 68 3c 8e 69 9e 3c 7f 62 77 bc
       0.011769005 0.01420163 0.019337442 -0.015099167

type_head.weight f4 [64, 1]
000000 39 8d a3 3c ca fc d1 ba 68 72 87 ba c0 4d 04 bd
       0.019964801 -0.0016020772 -0.0010333778 -0.03230071
000010 93 09 8e b9 d2 fa 05 3d 50 7f 4d bc a6 0d 0e 3c
       -0.00027091484 0.032709904 -0.012542561 0.008670246
000020 17 b0 16 3c bc df 00 3b 75 fd f5 bc 28 85 05 bd
       0.0091972565 0.0019664606 -0.030028084 -0.03259769
000030 c9 29 10 bd 19 4c 27 3d a6 86 0e bc 00 ae ea 3c
       -0.0351961 0.040844057 -0.008699095 0.028647423
000040 45 1b 3d 3b 84 a7 20 3d 57 7a a6 3c 5c 99 47 bc
       0.0028855365 0.039222255 0.020322008 -0.01218256
000050 1a 48 5a bd be 56 c5 bb 03 2c 97 bc 94 02 22 3c
       -0.053291418 -0.0060223034 -0.018453604 0.00988831
000060 0f 47 85 ba ac 36 f9 3b 91 e9 95 3c 75 6c f2 bb
       -0.0010168272 0.0076053943 0.01829985 -0.007398183
000070 f8 d5 7f 3c 5d 91 a2 3c 70 35 ae 3c ff 7b a7 3b
       0.015614979 0.019844705 0.021265715 0.005111217
000080 0a 5a a2 3c 67 4f 06 3c 7a d5 19 bc f2 7d 04 bd
       0.019818325 0.008197642 -0.009389276 -0.032346673
000090 ce f2 8b bc 17 62 09 bb e4 1f 1a 3c 7f ca d6 3b
       -0.017083552 -0.0020963007 0.009407017 0.006554901
0000a0 60 16 19 3d 66 81 a8 bb 47 1d 23 bd c3 de c1 3c
       0.037374854 -0.0051423786 -0.039822843 0.023665791
0000b0 7d 8b 17 3d da 3c bc 3c c5 54 89 3b 52 86 da bc
       0.03699826 0.022978235 0.0041910135 -0.026675377
0000c0 f2 c3 85 bc 94 9a 51 bc 1b c0 bd bb 47 e6 a5 bc
       -0.016328786 -0.012793202 -0.005790723 -0.020251406
0000d0 8a 45 48 bc f7 ad fa 3c 3e a8 b2 bc b1 22 a1 bc
       -0.012223611 0.030600531 -0.02180874 -0.019669862
0000e0 54 0d 7f bc 9e 71 b4 bc 9d 5a 90 3b 1a 48 37 3c
       -0.0155671425 -0.022026833 0.004405333 0.011186624
0000f0 53 f3 5c 3b b1 59 dd bc 21 50 47 bc dc 1e 8d 3c
       0.0033714368 -0.027020307 -0.0121651 0.017226629

type_head.bias f4 [64]
000000 a9 67 a4 ba 6c 04 05 ba a4 11 08 bb 38 0a 92 3a
       -0.00125431 -0.0005074206 -0.0020762468 0.0011141961
000010 b8 29 2d bb e9 ee f1 ba f4 80 f8 3a 1b d5 18 ba
       -0.0026422571 -0.0018458042 0.001895933 -0.0005830095
000020 2d 45 af b8 ea 54 17 bb e8 f2 38 3a d9 dd ad b9
       -8.357535e-05 -0.0023091384 0.0007055239 -0.0003316242
000030 78 a2 3b 3a e5 e9 d3 ba fe 4b a4 ba fb e1 ae b9
       0.00071576936 -0.0016167728 -0.0012534854 -0.00033356235
000040 de fb 85 36 c1 87 c8 39 b3 02 0e 3a fd 85 80 b9
       3.99303e-06 0.00038248117 0.00054172723 -0.00024513892
000050 2f 4a 9c ba a1 70 95 3a 29 51 97 3a 3a 55 d6 b9
       -0.0011923964 0.0011401364 0.0011544573 -0.0004088076
000060 22 0f c4 ba d1 5c af 3a a9 72 6b ba ea c3 53 3a
       -0.0014958123 0.0013379102 -0.0008981624 0.00080782047
000070 ef d3 dd b9 1a c0 05 39 54 83 dc b9 67 d2 22 bb
       -0.00042310308 0.00012755432 -0.00042059517 -0.0024844648
000080 b7 6b 91 ba 42 50 9c ba 6c 96 82 ba 15 7d ae b8
       -0.0011094724 -0.0011925774 -0.0009963042 -8.320265e-05
000090 b2 b8 fb 38 76 df 37 ba c9 b3 1a 3a 3c 92 c2 38
       0.00012003015 -0.0007014194 0.0005901424 9.277879e-05
0000a0 5a 4d b3 b9 cd 7a 82 3a cc 2b 42 3a 76 7e 01 ba
       -0.00034199172 0.000995481 0.0007407039 -0.00049398036
0000b0 08 8d 0b bb b9 b6 24 ba c1 40 78 3a 3d f8 e8 38
       -0.0021293778 -0.00062833313 0.00094700983 0.0001110886
0000c0 78 4b 0f 3b ed 3b 16 bb 3a 91 46 ba db 8c 71 ba
       0.0021865051 -0.0022923902 -0.0007574741 -0.00092144095
0000d0 06 91 2e ba 56 2a c4 ba 11 4f 83 3a 16 19 0a 3b
       -0.00066591834 -0.001496623 0.001001807 0.0021072081
0000e0 84 f2 11 bb 66 02 f9 3a b7 a3 85 3a fb 4c 17 39
       -0.0022269795 0.0018997907 0.0010195886 0.0001442916
0000f0 1d 94 c8 3a d0 0d 6a 3b 91 16 8b b8 12 60 ce 3a
       0.001530293 0.00357138 -6.63224e-05 0.0015745184

first_block.sa.heads.0.key.weight f4 [16, 64]
000000 a1 5c 3a 3d 22 44 ae 3c 31 fa 46 bd 4f 07 d7 bc
       0.045498494 0.021272723 -0.048578445 -0.026248602
000010 df 57 c2 bb 0d f6 36 bc b8 17 3d bc 9d b0 26 bd
       -0.005930885 -0.0111670615 -0.0115412995 -0.040695775
000020 64 b0 29 3d 99 cc 0c 3d 8e 04 03 3c bb df b2 3c
       0.041427985 0.034374807 0.007996691 0.021835199
000030 3b 96 90 3c 5b 6b a7 3b a8 5a 9f bd 4e 3f 0a 3d
       0.01764976 0.0051092333 -0.07780963 0.03375178
000040 97 28 61 bd b1 9e 9b 3b ea 36 45 bd de 4f 4e bc
       -0.05497035 0.004749142 -0.048148073 -0.012592284
000050 1c c8 9a bc 0f 15 07 bd 77 61 28 3d 80 be a2 bc
       -0.018894248 -0.032979067 0.041108575 -0.019866228
000060 95 56 5a 3c 6a 47 e9 3b 61 ea 28 3d 0b 4f bf bb
       0.013326307 0.007119109 0.041239146 -0.00583828
000070 db 63 4f bb 84 cf 1b 3b a1 cd 08 3c 9c 36 3b 3c
       -0.0031645212 0.0023774812 0.008349807 0.011426594
000080 08 b0 87 3c e4 f3 23 3d 9a ee 8a 3d 5c bf e0 3c
       0.01656343 0.040027514 0.06783791 0.027434997
000090 e9 1e d5 bc 0b df a5 3c c7 59 3b bc c6 28 49 ba
       -0.026015716 0.020247957 -0.011434979 -0.0007673617
0000a0 fe 89 85 bc ea 90 57 3c 74 20 66 3c b7 fb 40 bc
       -0.016301151 0.013157109 0.014045823 -0.0117787635
0000b0 cb 55 59 3b 4c 32 c8 bc bf 5d 8f bd 4a 40 28 bc
       0.003316271 -0.024438046 -0.070003025 -0.010269234
0000c0 e5 4a 96 bc 7a ff 20 3d 85 ff bd 3c c5 74 53 3c
       -0.01834626 0.03930614 0.02319313 0.012906258
0000d0 4c 5c 71 bd a5 08 c1 bc c6 6f 08 3d 2c b8 e3 bc
       -0.05892591 -0.023563692 0.03330972 -0.02779778
0000e0 d5 e4 cb 3c 5d 5b 31 bc 21 ee 65 3c 20 ae 19 3d
       0.024889389 -0.010825005 0.014033825 0.037519574
0000f0 1e e3 0c bd cc 0e b2 bc a0 e4 a6 bb 14 5d 99 3c
       -0.034396283 -0.021735571 -0.005093172 0.01872114
000100 e5 51 b5 bc 15 fb 4b bd dd 69 a5 3c e3 0d 22 3c
       -0.022133777 -0.049799997 0.020192081 0.009891006
000110 df 4c 4e bc ff 8b 79 bb b3 c9 d3 bc 52 36 45 bc
       -0.01259157 -0.003807783 -0.025853014 -0.012036877
000120 e4 3d 5b bd 85 80 ba 3c d6 38 6a bc e0 d7 da 3b
       -0.05352582 0.022766361 -0.014295777 0.0066785663
000130 40 16 d0 bc 73 52 00 bc b4 27 21 3c 12 b2 66 bc
       -0.025401235 -0.007832157 0.009836126 -0.014080541
000140 9c a6 2d 3c 24 3e b1 bc c6 1f c7 3c fe 72 33 bb
       0.010598805 -0.021636076 0.024307143 -0.0027381773
000150 bd aa b2 3c 14 c6 3e bc c3 78 0d bc 85 2a 0d 3b
       0.02180993 -0.011643905 -0.008634749 0.0021540236
000160 07 1c 93 bc 5a aa ae bc 89 7f c2 bc cd d9 22 bc
       -0.0179577 -0.021321464 -0.023742454 -0.009939623
000170 6f bd b2 bc 8e b7 ad 3b 79 fd e3 bc b0 a1 99 bc
       -0.021818845 0.0053014224 -0.027830826 -0.018753856
000180 1f 5b 9f 3b 6c a6 8e bc c3 d6 db 3b 50 05 3f bd
       0.0048631574 -0.01741334 0.006708951 -0.046635926
000190 a9 cf c1 3c 66 b4 e5 bc 5c 9e 0b 3c 9b cf a9 bc
       0.02365859 -0.028040122 0.008521643 -0.020728877
0001a0 2e df 63 3d 22 1e 85 bc e6 57 4f 3b 39 bb ae bc
       0.055632763 -0.01624972 0.0031638085 -0.02132951
0001b0 dc 65 0a 3d 51 ec af 3c a4 2e ce 3c 9b 1f 82 bb
       0.033788547 0.02147499 0.025168724 -0.003971053
0001c0 33 1f aa 3c 98 62 08 bd 16 32 e2 3b f5 6d 92 bc
       0.02076683 -0.03329715 0.0069029434 -0.017874697
0001d0 78 22 fb 3c 5f e2 70 bc 30 6c 4d 3c b4 9b 45 3c
       0.030656084 -0.014702409 0.012538001 0.012061048
0001e0 5c c2 a8 bc b6 af 30 3d 7a c2 40 bd 0d a8 2e 3d
       -0.02060049 0.04313632 -0.047060467 0.042640734
0001f0 4f e3 fe 3c 2c 21 e1 3b 09 8f 7b 3a 23 84 73 bc
       0.031114249 0.0068704095 0.0009596204 -0.014863047
000200 ef c5 fe bb 90 86 cd bc 3a 3c ea bc bc b7 b9 bc
       -0.0077750604 -0.025088578 -0.028593171 -0.02267062
000210 d7 4f a0 bb 88 44 49 bc bc 11 01 b9 7c b0 bd bb
       -0.00489233 -0.0122844055 -0.00012309005 -0.005788861
000220 e7 49 61 3c 4b f4 33 3d 73 ed bc 3a 65 06 80 3c
       0.01375053 0.043934148 0.0014414027 0.01562805
000230 15 08 6c 3b fa c4 b2 3b 07 de 9c bc ea e7 ba 3c
       0.003601556 0.0054556103 -0.01914884 0.022815663
000240 99 2b 3b bd 84 50 fd 3b eb 1c 62 3b bf a5 54 bd
       -0.045695875 0.0077305455 0.00345021 -0.05191588
000250 e0 1a 10 bd a2 90 8d bc e7 bb d3 3c 10 84 45 bc
       -0.03518188 -0.01728088 0.025846435 -0.012055412
000260 e5 90 e4 3b 54 a9 0c bc 9b c5 0f 3d 2d 14 de bb
       0.0069752806 -0.008585293 0.03510056 -0.0067773075
000270 fe e1 b7 3c fa a4 84 3c 2b bf 12 bd e1 7b c5 3c
       0.022446629 0.016191948 -0.035826843 0.024106922
000280 b3 65 af 3c cb e8 f7 3c 38 1a 26 3d c8 da 96 bc
       0.021410799 0.030262372 0.040552348 -0.01841487
000290 89 ac 20 bd e3 65 3d 3b cc e0 27 3c d4 f8 bc ba
       -0.039227042 0.002889984 0.010246467 -0.0014417418
0002a0 9d 83 8a bc a2 ba 53 3c 15 05 18 bc 16 e1 08 3c
       -0.016908461 0.012922915 -0.009278555 0.008354446
0002b0 11 90 ac 3c 87 e7 12 bd 7a 6f 20 bd 68 75 08 3d
       0.02106479 -0.035865333 -0.039168812 0.033315092
0002c0 c8 2d 5d bd aa 0b 99 3c 7a 6d 20 3d 95 4c dd 3c
       -0.05399874 0.01868232 0.039166905 0.027014056
0002d0 c3 d9 4d 39 1a b4 8c bc 6b fd ec 3c 3f f6 f0 bc
       0.00019631446 -0.017175723 0.028929433 -0.029414294
0002e0 c8 0b f6 3c 2d d7 22 bd ce c7 a7 bc 49 0e 2b bd
       0.030034915 -0.03975599 -0.020481016 -0.04176167
0002f0 dd 40 7c bc 82 10 6f bd 79 9c 84 3c 0c 02 1c 3d
       -0.015396324 -0.058365352 0.016187893 0.03808789
000300 4f 29 16 3d 3b 7b b1 bb 76 89 2c bc ae 7c a3 3c
       0.03666049 -0.0054163015 -0.01053082 0.019956913
000310 f4 eb ce bc 3c 66 39 3c 7c ad cc bc 01 af 5f bd
       -0.025258996 0.0113158785 -0.024985068 -0.054610256
000320 01 c5 8b 3c dc 5c c2 3b 60 c9 51 bc fd c9 39 3c
       0.017061712 0.00593148 -0.012804359 0.011339662
000330 5e 6d 62 3d 9c 8c 95 3c bb 99 2c bc b5 7e cc bb
       0.055280082 0.018255524 -0.010534699 -0.0062406906
000340 01 f4 14 bd 71 be be 3b b3 11 b3 3b 2c 4d 80 bc
       -0.036365513 0.005821042 0.0054647564 -0.015661798
000350 79 4f 71 bd 44 54 80 3c e4 ff 37 bc e7 52 b1 bc
       -0.05891368 0.015665181 -0.011230443 -0.021645976
000360 24 86 15 3d 1d e6 bc 3b 23 92 11 3d 0e 6a f1 bc
       0.03650488 0.0057647363 0.035539757 -0.029469516
000370 87 57 d1 3c b1 40 31 ba 6a b7 41 3c fb ca de 3c
       0.025554432 -0.0006761654 0.0118235145 0.027196398
000380 89 ae 8e 3c f7 c5 1c bc d9 9d c5 3c 16 1e 92 3c
       0.01741721 -0.009568683 0.02412312 0.017836612
000390 02 73 39 bd eb e5 80 3c 38 82 e7 bc 44 b2 26 bd
       -0.045275696 0.015734633 -0.028260335 -0.04069735
0003a0 05 ed ed 3b 57 df 3d 3d cf 32 4c 3b d4 ee 84 3c
       0.007260921 0.04635557 0.0031158214 0.016227163
0003b0 e7 f7 ad bb 7a 5e a2 bb b4 2c b3 bc 75 65 32 bd
       -0.0053090933 -0.00495511 -0.021871902 -0.04355379
0003c0 90 9d 4a bd fb d6 ed bc 54 33 aa bc a1 24 57 bc
       -0.04946667 -0.029033175 -0.020776428 -0.013131292
0003d0 0c 43 4a bd 1c f8 0c 3c 09 ba d4 3c d6 82 2e bd
       -0.049380347 0.008604076 0.025967615 -0.042605244
0003e0 d1 63 48 3d c4 b2 d6 bb 7e a2 ee 3c fa 6e f9 3c
       0.048923317 -0.0065520722 0.029130217 0.030448426
0003f0 2d 0e 63 bc 9f 0d 6b 3c d5 04 c1 bc 63 b2 25 3d
       -0.01385836 0.014346509 -0.023561874 0.040453326

first_block.sa.heads.0.query.weight f4 [16, 64]
000000 f9 3d eb 3c 0c da 41 3d 5c 15 67 bc 4f d1 58 3c
       0.028716074 0.047327086 -0.014104214 0.013233497
000010 f1 23 2a bc fd b3 56 bc 5f c8 38 bd 33 5a 02 bd
       -0.010384546 -0.013104436 -0.045112964 -0.031824302
000020 0b a9 0c bc a9 9d 1c 3c 98 0a d8 bc e1 7d 4c bd
       -0.008585225 0.0095590735 -0.026372239 -0.049924735
000030 34 3b d7 38 b2 bb 8a 3b 27 86 10 3d b3 b1 1a 3c
       0.00010263026 0.004233801 0.035284188 0.009441781
000040 85 ec 1e bc 24 cf 29 bd 8a f8 eb bc d3 63 2e bc
       -0.009699945 -0.04145731 -0.028805036 -0.010643917
000050 3c 01 22 3d ec d1 48 3c 62 86 73 bc 67 ee 2d 3d
       0.03955196 0.0122570805 -0.014863582 0.042463686
000060 4e b4 4b bb d9 aa 07 3d d1 25 0e bd b3 6f 9a 3c
       -0.0031082812 0.033121917 -0.034704033 0.01885209
000070 95 56 aa bc f8 5a b2 3c ec 1f 9c 3c 7d ef 1f bd
       -0.020793239 0.021771893 0.01905819 -0.039046753
000080 26 92 51 bb ec 1d 97 bc 01 80 d9 bc 57 e5 49 bd
       -0.003197798 -0.018446885 -0.026550295 -0.04929098
000090 b3 0e 68 bc 29 a7 e9 bb 08 f6 46 3c 45 40 8b bc
       -0.014163661 -0.0071305227 0.012143619 -0.01699842
0000a0 56 39 ed bc 86 66 2b bc 1c 3a a8 bb de a1 f8 3c
       -0.028958004 -0.010461455 -0.0051338803 0.030350622
0000b0 98 94 5f 3c 5b 9d af 3c aa 75 ca 3b ec c5 cd bb
       0.013646267 0.021437338 0.0061785774 -0.0062796976
0000c0 cf 52 82 3b fc f4 f2 bc 64 f3 03 bd 4e c3 3f 3c
       0.0039771567 -0.029657833 -0.032214537 0.011704279
0000d0 73 46 1c bb e0 5c 76 3d df 9d c3 bb e1 d2 58 3c
       -0.0023845702 0.060147166 -0.0059697474 0.013233871
0000e0 b7 e0 44 bd fa 7a a5 3c c6 02 8d bb 7b 20 21 3d
       -0.048065867 0.020200241 -0.004303309 0.039337616
0000f0 4e 8b ce 3b 2c 2e d8 bc 64 01 8c 3d 71 c6 09 bc
       0.0063032275 -0.026389204 0.06836203 -0.0084091285
000100 96 11 e3 3c e3 c9 0f bd a1 58 a4 bc ff fd 58 3c
       0.027718347 -0.035104644 -0.020061793 0.013244151
000110 c2 e2 8a 3c 29 14 1e bb 58 b4 20 3d df 86 09 3d
       0.01695383 -0.0024120903 0.03923449 0.03357589
000120 4b 80 0c bc aa 1e bc ba 94 5a 9a 3c 81 7e aa 3c
       -0.008575509 -0.00143524 0.01884202 0.020812275
000130 7d 52 f2 3c 34 ad 24 bd 79 c9 a9 bc 72 86 e9 3b
       0.02958035 -0.040204242 -0.020725952 0.007126623
000140 4b 5f c3 bc 5c be 77 3c c8 4b 97 bc a2 01 43 bb
       -0.02384915 0.015121069 -0.018468753 -0.0029755612
000150 23 2a 04 bd 99 17 00 3c 16 9d eb 3c 0b cd 72 bd
       -0.032266747 0.007818126 0.028761428 -0.059277575
000160 4c bc 88 3c 74 e0 c8 bc 66 9e 1b 3c c8 ba 00 bd
       0.01669135 -0.02452109 0.009498214 -0.03142813
000170 91 09 88 bc 4b b9 d5 3c 0b 25 1b 3d 4a cd ac 3c
       -0.016606124 0.026089331 0.037877124 0.021093983
000180 c0 2e a2 3c 98 f4 39 3d c0 d1 9f bb 14 35 39 bb
       0.019797683 0.04539928 -0.004877299 -0.0028260397
000190 ef a2 d9 3c b1 07 10 3d 2d 4e e9 3b 45 d8 99 3c
       0.02656695 0.035163585 0.007119915 0.018779883
0001a0 d8 53 a0 bc 63 5f 07 3d 8c f4 cf bc 0f 68 2c 3c
       -0.01957123 0.033049952 -0.025385164 0.010522856
0001b0 cc f0 00 bc 94 84 98 3c dd 90 d8 3c c0 33 c9 bc
       -0.00786991 0.018617906 0.026436264 -0.02456081
0001c0 e8 f7 5b bc 9e 32 19 3c 2e 94 de 3b 8d 0b 6b bc
       -0.013425805 0.009350447 0.0067925667 -0.014346016
0001d0 c0 55 ac 3c 68 90 26 bb a1 5e 67 3c 2f 1a 6e ba
       0.021036983 -0.0025415663 0.014121682 -0.0009082881
0001e0 a6 f9 3f 3d 50 46 a3 bc 24 bb 38 3c 9a 1a 0a bd
       0.046868943 -0.019930989 0.011275087 -0.033716775
0001f0 f3 5b 72 bc fa ad b9 3b ef 0b cb 3b ea 70 46 bc
       -0.01479243 0.0056664916 0.006196491 -0.012111882
000200 16 91 47 3c b9 98 ac 39 0c 39 51 bc ab 69 99 3b
       0.012180587 0.00032920184 -0.012769949 0.004681786
000210 6d 35 53 bb eb ec b0 bb 85 66 e6 bb d6 c5 df bc
       -0.003222789 -0.0053993366 -0.0070312642 -0.027316015
000220 f2 3b 08 3d c6 43 50 3c 14 fd 67 3b d8 06 24 bd
       0.033260293 0.012711471 0.003539865 -0.04004559
000230 7e 0a 6f bc 0d ae e7 ba 01 30 3a 3d 45 83 f6 3a
       -0.014589904 -0.0017675773 0.045455936 0.0018807432
000240 db 78 91 bc fb 92 fc bc 53 2e 51 39 78 3d af bc
       -0.017757824 -0.030831804 0.0001994905 -0.021391615
000250 10 ae 83 3c dc 5f a2 3c 97 e2 92 bc bd f1 61 ba
       0.01607421 0.0198211 -0.017930312 -0.00086190907
000260 b2 61 30 bd a2 eb cd 3c 49 6b f0 3c 99 f7 0d 3d
       -0.04306192 0.025136773 0.029348033 0.034659956
000270 aa 95 41 bc 15 e6 a5 3c 9c 0c 93 bc 1b 49 43 bc
       -0.011815468 0.020251313 -0.017950349 -0.011919285
000280 16 d9 f8 bb 99 b3 ca 3b e7 5b 5b bc 68 8b 71 bd
       -0.007594238 0.0061859605 -0.01338861 -0.05897084
000290 d7 18 7b bb 86 6d 35 bd a5 b4 96 3c 2c f7 ac 3b
       -0.0038314366 -0.044293903 0.018396685 0.0052784886
0002a0 8b 73 c9 b9 4e a0 cd 3c c1 51 15 3c 37 43 89 bb
       -0.00038423794 0.025100853 0.00911373 -0.004188921
0002b0 dd fd b1 3c b0 81 f9 bc 01 06 89 3c e3 90 9c ba
       0.021727497 -0.030457348 0.016726496 -0.0011945035
0002c0 ec f7 2e 3b 56 33 d8 3b ba 8a 2a bd 6e d3 27 3a
       0.0026698066 0.0065979166 -0.041636206 0.000640205
0002d0 52 d4 35 3c 36 c0 c0 3c a1 0f a5 bc 48 31 23 3c
       0.011097984 0.023529153 -0.020149054 0.00996048
0002e0 ed 01 cb bc 64 2b d9 39 e6 9f 20 bc 2d bd 00 3d
       -0.024781192 0.00041421794 -0.009803748 0.031430412
0002f0 ce 48 b6 3c ab ec a9 bc 33 6b 96 3c 58 4c 67 3b
       0.022251513 -0.020742735 0.018361663 0.0035293307
000300 da 52 48 bc de ef e7 3b 9b 9f 0e 3c bf 45 f8 3b
       -0.012226785 0.007078155 0.008705045 0.0075766738
000310 61 ed a5 3c cc 96 0c bb 0a 71 d4 bc 7e 71 11 bd
       0.020254793 -0.0021452187 -0.025932807 -0.035508625
000320 7b c4 d2 3c ea 72 26 bc c2 7e 90 bc ce c9 80 bc
       0.025728455 -0.010159234 -0.017638568 -0.015721228
000330 d1 60 b4 bc 3b 57 8c bc f3 cc 3a 3d 69 44 c9 3b
       -0.022018822 -0.017131438 0.04560561 0.0061421883
000340 ab 1c a4 bc e9 6d 3d bd 59 60 d4 3a 8d ad 26 bd
       -0.020033201 -0.046247397 0.001620303 -0.040692855
000350 99 64 67 bc 28 b5 6f 3b 60 c6 24 3c 36 39 0f 3c
       -0.014123105 0.0036576483 0.010057062 0.0087416675
000360 3d b8 94 bd 92 5a 0c bc b8 aa 2b bc 6b a8 8a 3d
       -0.07261703 -0.0085665155 -0.010477714 0.067704044
000370 2a ff 04 bc 7b 24 06 3d 9d 14 63 3d b9 28 95 bc
       -0.0081174765 0.032749634 0.05543958 -0.018207895
000380 5e a0 1b bc fe 2a 9a b9 bf c0 12 bd 8b 69 24 bd
       -0.009498684 -0.000294052 -0.03582835 -0.040139716
000390 c1 a6 df bc a7 69 ac bb b8 73 cf 3c e8 0f f8 3b
       -0.027301194 -0.005261618 0.025323734 0.0075702555
0003a0 a6 93 e5 bc e8 ca 10 bd 47 c7 cb b9 6d b9 7b 3a
       -0.028024506 -0.035349756 -0.0003886765 0.0009602521
0003b0 7e c1 0e bc cf 55 f9 bc d1 68 12 bb 01 ef a8 bb
       -0.008713124 -0.030436425 -0.0022340307 -0.0051554446
0003c0 40 a7 45 ba 9a a2 e5 bc a9 0e 98 bc 0c b2 62 3c
       -0.0007539876 -0.028031636 -0.018561678 0.013836395
0003d0 67 0d 90 bc 76 b2 a7 3c 49 76 18 3d 93 f8 e1 3b
       -0.017584516 0.020470839 0.03722218 0.0068960874
0003e0 06 39 68 bd da f2 42 3c b3 46 c0 3b 47 71 fc 3c
       -0.056695007 0.011898721 0.005867803 0.030815734
0003f0 8a 26 e2 ba 83 c2 c6 3c c0 22 22 3d 2e 3e 62 bc
       -0.0017253917 0.024262672 0.03958392 -0.01380877

first_block.sa.heads.0.value.weight f4 [16, 64]
000000 a9 69 38 bc 68 b7 33 bc 8f 0c 1d 3c 1e b1 38 3c
       -0.01125566 -0.01096902 0.009585514 0.011272697
000010 b7 56 a7 3c 23 1d 4b 3d 03 89 12 bc cf 7f a1 3a
       0.020427091 0.049588334 -0.008943799 0.0012321415
000020 40 4a 73 bb ac f1 41 bc bc f2 ea bc 86 97 c0 bc
       -0.0037123114 -0.011837404 -0.028680198 -0.023509752
000030 b6 f5 8b bc 1b bf 18 3d c8 fc 07 3c bf 88 06 bd
       -0.017084938 0.037291627 0.008300014 -0.032845255
000040 b2 67 88 3a 62 1c 93 3c 5a 64 16 3c ea 53 f8 3c
       0.001040688 0.01795787 0.009179199 0.03031345
000050 c8 4e 94 bc df 94 ba 3c 5d 78 a1 bc 60 7a e5 bb
       -0.018103972 0.022776065 -0.019710714 -0.0070031136
000060 c0 73 1f bc 44 ad 04 3d 15 8a 78 bb 61 fa 39 3c
       -0.009732187 0.0323918 -0.00379241 0.011351199
000070 cd 42 ba bb 79 94 2a bc e5 78 3b 3c 30 83 3d bc
       -0.005684233 -0.010411375 0.011442398 -0.011566922
000080 97 72 3f bc 73 97 dc 3c 30 73 e2 3c 2f 2a bd 3c
       -0.011685035 0.026927685 0.027642816 0.023091404
000090 a9 a3 84 bc cd 7f 8b 3c e5 89 5e 3b 5e 28 9f bc
       -0.01619132 0.017028714 0.0033956703 -0.019428428
0000a0 7e 5b 38 bc 12 4c 51 bb 5b ee 29 bc 78 77 69 3c
       -0.011252282 -0.003193621 -0.01037177 0.014249675
0000b0 a2 c8 49 bc 7c 34 cb bc e1 12 46 bc c5 1c 6c bc
       -0.012315901 -0.0248053 -0.012089462 -0.014411156
0000c0 f0 85 ad 3c 99 62 51 bd 5e 8f 69 bc f8 14 28 3d
       0.02118203 -0.05111942 -0.014255373 0.041035622
0000d0 62 6e 10 3d 88 60 84 3c 76 70 09 bd 74 81 cc 3c
       0.03526152 0.016159311 -0.033554517 0.024964072
0000e0 27 3e 04 3d 3b 51 49 3b c4 bf 23 3d 5d e7 8d bd
       0.032285836 0.0030718583 0.039977804 -0.06928895
0000f0 86 7a a4 ba 89 42 61 bc 99 0b 40 bc 3b 2f 86 3c
       -0.0012548722 -0.013748773 -0.011721515 0.016379943
000100 5d b2 39 bc 28 5b 8e bc d1 ef a2 bb 05 8f 19 bd
       -0.011334029 -0.017377451 -0.004972436 -0.03748991
000110 0a 3c c0 3c 27 07 3a 3d 7c 70 ae bc 2e d7 7f bc
       0.023466129 0.045416977 -0.021293871 -0.015615268
000120 b8 45 b8 bc 49 91 be 3c c5 25 9c 3c 31 07 1a 3d
       -0.022494182 0.023262637 0.019060979 0.037604515
000130 2e a0 bb 3c db dd 71 bb c9 c7 ee 3b 8e 5d 0e 3c
       0.022903528 -0.0036905918 0.007287 0.008689297
000140 e0 29 94 bb 20 f8 83 bc 19 17 69 3c 9f a5 4f ba
       -0.0045215935 -0.016109526 0.014226698 -0.0007921103
000150 f8 b7 7d bb a3 68 d5 bc 68 cc 2f ba bc 04 62 bb
       -0.003871439 -0.026050871 -0.0006706179 -0.0034487685
000160 80 54 9e bc 79 54 95 3b e9 4c 08 3c e2 b1 e9 bc
       -0.019327402 0.004557189 0.008319118 -0.028527204
000170 25 70 6c bb c0 ca 03 bd 68 31 65 ba db a2 5d 3c
       -0.0036077586 -0.03217578 -0.0008743019 0.013527597
000180 62 20 c6 bc c4 95 73 bd 61 ba 76 3c 7c 7a b0 bc
       -0.024185363 -0.059469 0.015059085 -0.02154278
000190 67 0a 0e 3d 68 9d 93 bb 02 77 5c 3d c4 33 3d 3b
       0.03467789 -0.0045048483 0.053824432 0.0028869966
0001a0 1b 80 a7 3b 05 69 4a bc 4e a3 57 bd 9c 55 a5 39
       0.005111707 -0.01235414 -0.052645974 0.00031535036
0001b0 08 6f 54 3d c6 d6 25 3b 76 9b 50 3c a6 60 73 3c
       0.0518637 0.0025305017 0.012732377 0.014854586
0001c0 c3 14 45 ba 64 8f 78 3c db 3b 32 bc ea 36 45 3c
       -0.00075180474 0.015170906 -0.0108785285 0.012037018
0001d0 60 63 5f 3c 56 5b 83 bc 20 c0 99 3c 29 f2 a6 bc
       0.013634533 -0.016034763 0.01876837 -0.020379143
0001e0 5a c0 67 bb a2 c5 19 3d f6 94 16 bc 91 c3 03 3c
       -0.0035362453 0.037541993 -0.0091907885 0.008042232
0001f0 ed 6f b5 3c 11 35 46 3b 6c 79 89 3c 10 48 32 3a
       0.022148097 0.0030244032 0.016781531 0.0006800899
000200 99 a9 c4 3c 13 c4 d2 38 62 6b b7 bc 05 28 79 3b
       0.024006652 0.00010050102 -0.022390071 0.0038018238
000210 39 77 ad 3c ac ed 99 bb 89 8e 8a bc c3 dd 95 bc
       0.021175014 -0.004697522 -0.01691367 -0.01829422
000220 97 cf e7 bc 7a 8b fb 3c a2 d5 51 3b ff 90 8f bc
       -0.028297229 0.030706156 0.0032018204 -0.017525194
000230 ed 24 77 3a 3d 59 b2 3c c2 6b 0f bb 7b 27 20 bd
       0.00094278046 0.021771068 -0.0021884297 -0.03910015
000240 82 4a 9d bc 15 63 1e 3d 94 d0 69 3c 76 98 8e 3c
       -0.019200567 0.03866871 0.01427092 0.017406683
000250 97 ae 44 3c e0 98 bb 3b 52 fb e7 3b 4c be a5 bb
       0.012004516 0.005725011 0.0070795203 -0.0050580855
000260 97 59 78 bc 71 d5 96 bc 42 23 b1 3c b1 ea 91 3c
       -0.015158079 -0.018412324 0.021623258 0.017812105
000270 e6 8b 26 bc ca eb 03 bc 7d b4 de 3a 87 a7 d9 3b
       -0.01016519 -0.008051822 0.0016991046 0.0066422853
000280 c2 26 50 bd 64 be a6 3c ce f4 ef bb 19 6a 46 3d
       -0.050818212 0.020354457 -0.007322884 0.048441026
000290 be b1 a5 bb 03 94 e8 3a f0 bf 09 bd a5 90 82 3b
       -0.005056589 0.0017744306 -0.03363031 0.003984528
0002a0 91 36 3b 3d 45 97 1d ba 3d 65 4f 3d f3 22 eb bb
       0.045706335 -0.00060116156 0.050633658 -0.007175797
0002b0 0b b4 3f 3c cf e8 39 b9 65 8b 95 3c 46 96 10 bc
       0.01170064 -0.00017729703 0.018254945 -0.0088248905
0002c0 53 b2 95 3c a4 2f a2 bb 16 28 d8 3b 06 07 26 bc
       0.018273508 -0.004949527 0.0065965755 -0.01013351
0002d0 d5 30 c7 3b 92 df d5 bb df 26 dc 3c cd 2a 82 3c
       0.0060788193 -0.006526896 0.026874004 0.01588955
0002e0 93 ab a9 3b db d7 d7 bc c1 f7 b1 bb 83 6f 1d 3d
       0.005177924 -0.026348045 -0.005431146 0.038436424
0002f0 44 7a c2 ba 63 93 8d 3c 52 57 ba 3b 89 11 a3 bb
       -0.0014837463 0.017282194 0.005686679 -0.0049764556
000300 05 f3 a0 bb f3 c0 34 bc b7 19 dd bb a0 d0 9c bc
       -0.0049117827 -0.011032331 -0.00674745 -0.019142449
000310 0a 9c 2e 3b 9b 44 ad 3c f9 cb d1 3b 21 a8 50 b8
       0.00266433 0.021150878 0.0064024893 -4.9747647e-05
000320 e9 ec 74 3c 9f fe c6 3c 22 7d 20 bc fb a6 e0 3b
       0.014949062 0.024291335 -0.009795459 0.006855843
000330 7c 64 af bb ff 8a a7 bc 84 39 d5 bb 83 08 a8 bc
       -0.005352555 -0.02045202 -0.0065071005 -0.020511871
000340 e0 fb 56 3b e4 da f4 bc 55 25 22 bd 90 22 dc 3c
       0.0032803938 -0.029889531 -0.039586384 0.02687195
000350 61 9d 85 bc a1 ee 93 bc 42 66 e7 3b 6e 05 d3 3b
       -0.016310396 -0.018058123 0.0070617506 0.0064398563
000360 62 d5 f0 3a e7 ed a4 3c f2 a2 44 3d fb 87 50 bc
       0.001837414 0.020132972 0.04800696 -0.012727733
000370 aa d8 98 3c 19 26 14 3d 7c 95 86 bb 26 b8 a8 3b
       0.018658001 0.036169145 -0.0041071754 0.0051489053
000380 27 f1 36 3c 17 54 51 3c 4f d0 b9 bc 6c 5c b6 3c
       0.011165894 0.012776396 -0.022682337 0.022260867
000390 7b 40 4c bc 54 dc 37 3a ca 77 91 3c 6b 2f 76 bc
       -0.012466545 0.00070137274 0.017757315 -0.015025954
0003a0 42 e7 81 3c 3e 90 0e 3c 84 e5 9b 3c c8 49 42 3d
       0.015857343 0.008701382 0.01903034 0.047433645
0003b0 5e 76 60 3c 08 91 d4 3b dc 36 b0 3b 81 dc de 3c
       0.013700096 0.0064870156 0.0053776335 0.027204754
0003c0 bb c6 b2 3c 27 ab 95 bc a5 9d 2d bb a8 e2 5a bb
       0.021823278 -0.018270088 -0.0026491669 -0.0033399258
0003d0 e0 dc b6 3c dd 64 79 ba 52 d1 0e bd 8a 7e b8 ba
       0.022322118 -0.0009513626 -0.034867592 -0.0014075798
0003e0 cb c5 92 bc 5e 90 54 3d 4e df ad bc bb 0c c9 3c
       -0.01791658 0.05189549 -0.021224644 0.024542203
0003f0 76 b3 32 bc 8c 38 63 3c 7c 9c c7 bc 7d d3 ca ba
       -0.010907045 0.013868462 -0.02436661 -0.0015474405

first_block.sa.heads.1.key.weight f4 [16, 64]
000000 c6 8e 29 bd 14 8f b1 bc 4e 9b 49 3c f4 43 c2 3b
       -0.041395925 -0.02167467 0.012305094 0.005928511
000010 5e c8 d8 3c 1e bb 88 3c 76 3c 03 3c 9b 1f 14 3d
       0.02646273 0.016690787 0.0080100205 0.036162954
000020 c1 fd fa bc 98 6b 32 3d 71 94 cb 3c b6 6f a0 ba
       -0.030638577 0.04355964 0.024851056 -0.0012240324
000030 52 2d 77 3c 18 61 a8 3c f7 74 e9 bc 56 d1 91 3c
       0.015086489 0.02055411 -0.028498156 0.017800014
000040 22 96 bc 3c c2 b1 6d bc b2 44 f4 bb 1a 7a a3 3b
       0.023020808 -0.014507713 -0.007454478 0.004988921
000050 b3 65 9a bd d1 05 35 bd 45 ad 67 3c 11 20 ed 3c
       -0.07538929 -0.044195 0.014140432 0.028945955
000060 85 f0 1f 3c 53 56 a5 3c b3 b8 1f bd 2f d9 cb 3c
       0.009761934 0.020182764 -0.038994502 0.024883835
000070 ba be 34 3d 88 11 22 bd 3f 2b 86 bb 52 48 f1 3c
       0.044127204 -0.0395675 -0.004094511 0.02945343
000080 09 31 50 3b ce 86 1b ba e6 a1 c5 bc 41 fd 3f 3c
       0.0031767508 -0.0005932868 -0.02412505 0.011718095
000090 3f 51 81 bc 26 34 f6 3b 45 d9 88 3b 33 ea 77 bd
       -0.015785811 0.007513541 0.004176291 -0.060526084
0000a0 54 ae 00 bd 21 92 06 bd 69 be 79 3d ce 24 fe 3c
       -0.031416252 -0.032854203 0.060972605 0.03102341
0000b0 1b 4f 2f 3c 90 0f c5 3b bc a1 58 3c da 63 8b bb
       0.010700013 0.006013818 0.013222154 -0.0042538466
0000c0 fe 07 c9 bc ff a9 1f bb 58 1b 83 3b 3b 4c f2 bc
       -0.024539944 -0.00243628 0.0040010624 -0.029577365
0000d0 d2 a0 0d bd c4 46 65 3c ce 5e d3 3c 5e 9a 0a 3c
       -0.0345772 0.013993923 0.025802042 0.008459656
0000e0 bb 0e f1 3c f2 2c 36 3c 2d 4f 1e bd 54 45 1f 3c
       0.02942597 0.011119114 -0.038649727 0.009721119
0000f0 f5 02 95 3c 93 1a 02 3d 49 b2 70 3a 0e 0e 20 3d
       0.018189887 0.031763624 0.000918184 0.039075904
000100 3f 3b 0d bd 74 4a 20 bb 72 17 e1 3c 99 95 e0 bc
       -0.03448033 -0.002445844 0.027477 -0.027415084
000110 68 60 3e bc d7 1a 7d b9 98 59 3d bc 40 84 a5 bc
       -0.011619665 -0.00024137959 -0.011557005 -0.020204663
000120 4a f8 9b 3c 07 85 ad bc af c7 6f bb 71 82 9c bc
       0.019039292 -0.021181596 -0.0036587527 -0.019105168
000130 7a a6 86 bc cb 80 03 3d 5a 69 8c 3b f1 a4 c1 3c
       -0.016436804 0.03210525 0.00428502 0.02363822
000140 08 61 8c bc 3e 35 46 bc 57 0a 84 bc 1c 09 6f ba
       -0.017136112 -0.012097655 -0.016118212 -0.0009118484
000150 d8 28 f3 3c 31 16 03 3c e1 bb 9b 3c 92 49 9d 3c
       0.029682562 0.008000896 0.019010486 0.01920012
000160 50 86 bc 3b b8 f2 80 bd 2d bb eb bc 45 0f b1 3c
       0.005753316 -0.06296295 -0.028775776 0.021613726
000170 e3 b3 ea bc bf f2 cd ba 62 a9 b0 3c c3 e1 88 bb
       -0.02865023 -0.0015712603 0.021565143 -0.0041773035
000180 14 cd a0 bc 2b 57 e5 bc f8 fe bf bc aa fc 1f bd
       -0.019629039 -0.027995666 -0.023437008 -0.03905932
000190 a8 27 c0 bb 22 5d 4a bc 12 fb 2c bc f2 9c 09 bc
       -0.0058641024 -0.012351306 -0.010557907 -0.008399235
0001a0 d5 4e 86 3c 1e 7b 10 3c ae 29 48 bc ae 1d 27 bc
       0.016395012 0.008818416 -0.012216968 -0.010199947
0001b0 1a 11 fc 3c b4 ff 05 bd 22 dc 17 bc 91 b6 55 3c
       0.030769873 -0.03271456 -0.009268792 0.0130440155
0001c0 ff 4b 64 bb c2 8b 62 3b ab 36 ee bc 8d bf b8 bb
       -0.0034835336 0.0034568165 -0.029078802 -0.005638069
0001d0 ea d5 fa bb a4 41 2f 3b 02 26 27 3c f3 c8 9c bc
       -0.007654895 0.0026742006 0.010201933 -0.019138789
0001e0 38 b4 00 bd b0 3e 17 bc 8e 8b 83 bc 05 b0 99 3c
       -0.03142187 -0.009231254 -0.016057756 0.01876069
0001f0 5d 5b c0 3b dd b1 b4 bc 6b 90 20 3c e8 a4 12 bd
       0.0058702664 -0.022057468 0.009800057 -0.035801798
000200 31 be ef bc ea 0d 9c 3a 03 e6 a5 3c e2 19 94 bd
       -0.029265495 0.0011906002 0.02025128 -0.07231499
000210 ea be 2c bd e9 e5 9b 3c ac e3 09 3d d9 f2 1c bd
       -0.042174257 0.019030528 0.03366439 -0.038317535
000220 f5 14 3b 3b 87 46 7b ba ea 85 83 bc 12 23 14 bc
       0.0028546427 -0.00095853995 -0.016055066 -0.009041565
000230 30 61 01 3c 4e 48 11 3d 13 2c 95 3c 8e ff 53 3d
       0.007896706 0.035469346 0.018209493 0.051757388
000240 44 a4 63 3b f1 c7 cf 3c 16 41 23 bd 9a e2 8d 3b
       0.003473536 0.025363894 -0.039856993 0.0043299915
000250 b4 ca d7 3b 9d a3 db 3c 24 c5 de 3b a2 ee 45 3c
       0.0065854434 0.026811415 0.0067984033 0.01208082
000260 12 ed 5b 3b d0 12 80 bc 22 0a 20 bc 86 17 af bc
       0.0033558053 -0.01563397 -0.009768041 -0.021373522
000270 01 54 12 bc 72 c4 2e bd 77 a8 57 bc d1 ed 1b bd
       -0.008931161 -0.042667814 -0.013162724 -0.038068596
000280 c8 94 a6 3c 71 4a ad bc d9 a3 87 bc c5 16 7f bc
       0.020334616 -0.02115366 -0.01655762 -0.0155693935
000290 a8 fd 92 bb 34 c3 bd 3c f0 31 42 3d 0d 82 f7 3c
       -0.0044858046 0.02316437 0.047410905 0.03021338
0002a0 ae 2f 26 3d ac e2 e0 3c 3f e6 4f 3d 10 5a 9a bc
       0.040572815 0.027451836 0.05075669 -0.018841773
0002b0 53 f8 88 3c d1 e7 b1 bc ab c4 c5 39 f0 3d 45 3c
       0.016719973 -0.021716984 0.00037721297 0.012038693
0002c0 13 f2 15 bc 0e 78 ee bc 86 01 02 3d fc a7 df 3b
       -0.009151953 -0.02910998 0.031739734 0.006825445
0002d0 51 c4 0d bd 80 16 23 bc 00 63 34 bc fe 54 28 bd
       -0.03461105 -0.009954095 -0.011009932 -0.04109668
0002e0 bf 5c ba 3c 09 53 15 3c 68 ca d1 3c ab 54 a1 3b
       0.022749303 0.009114035 0.02560921 0.0049234233
0002f0 e8 f5 e8 3c fe c1 9b bb 4b 6f 10 3d 45 bb f1 bb
       0.02843757 -0.0047533503 0.035262387 -0.0073770606
000300 3a 8d 9b bd 0d 50 8b bc 65 c3 85 3c 85 c3 ad bc
       -0.07595296 -0.017005945 0.016328523 -0.021211395
000310 18 98 31 bc d8 86 06 bd cc bc f5 bc 53 ed 5d bc
       -0.010839485 -0.03284344 -0.029997252 -0.013545352
000320 f1 f9 50 bc db d7 64 3d 5e 8f 27 bc a3 2a 6c 3a
       -0.012754903 0.05586992 -0.0102270525 0.0009009039
000330 20 f9 bc 3b ea 50 a0 3c 47 7b 57 bc 0f a7 59 3c
       0.0057670027 0.019569833 -0.01315195 0.013284459
000340 63 71 28 bc fb 7e 79 b8 20 e9 40 bd b6 bc 83 bc
       -0.01028094 -5.9484486e-05 -0.047097325 -0.016081195
000350 a5 d5 39 bd ba 80 a8 3b e4 96 08 bb 49 8c 8c 3b
       -0.045369763 0.0051422985 -0.002084189 0.004289184
000360 f8 db c5 bc 6c fa e3 b9 23 de 48 3c 84 6e bf bb
       -0.02415274 -0.00043483393 0.012259993 -0.005842032
000370 91 f1 92 3c 36 11 41 bd 99 5e 66 bc ee 8a fe 3b
       0.017937453 -0.047135554 -0.01406064 0.0077680266
000380 76 67 40 bd 45 37 84 3c b9 53 fd bc 66 9d 18 bc
       -0.046973668 0.016139636 -0.030923711 -0.00931487
000390 0a 38 8d bc 9f ea 2c 3d b2 6b 99 3d 66 7d af 3c
       -0.017238636 0.04221594 0.074912444 0.0214221
0003a0 08 f0 64 3b e2 a0 83 3c eb b1 4f 3d c0 54 2e 3c
       0.003493311 0.016067926 0.050706785 0.010640323
0003b0 42 1b df bc 3d d8 66 3d 0b 2c 90 bc 2f 0e 80 3c
       -0.027234677 0.056358565 -0.017599126 0.015631763
0003c0 35 f8 3d 3c 45 d0 11 bc 7b 02 0e 3d e0 6b ab bc
       0.011594822 -0.008899753 0.034670334 -0.020925462
0003d0 fa 85 3f bd 6d 84 1b bb 20 0a 92 3c 3d 3d 20 bc
       -0.04675863 -0.0023730055 0.017827094 -0.009780225
0003e0 8f 59 8c bc 40 87 05 bd 18 1d f1 bc fd a3 57 3c
       -0.017132549 -0.032599688 -0.029432818 0.013161656
0003f0 ef d8 8d ba 25 59 a3 39 ff 09 85 3b 50 fa 0f 3d
       -0.0010822098 0.000311562 0.0040600295 0.035150826
