IndexNetwork.pt (torch, 849903 bytes, 96 tensors)

token_embedding_table.weight f4 [39, 64]
0.020670213 -0.022861699 -0.010513741 -0.007382512 0.009167208 0.0010941024 0.033584483 0.0067140576
0.0104271285 0.0059076296 0.02181564 0.054165233 0.0098001 -0.027599834 -0.033615153 0.0018736571
-0.008688771 0.022223879 0.014838856 0.020684829 -0.011124415 -0.010916276 -0.00031349302 -0.025279986
0.028107263 -0.005804998 0.033415683 -0.0062524155 0.0031916478 0.01258615 0.0033658661 0.034540128
0.020314759 0.010434132 0.015008532 0.017537763 0.028196577 0.0213162 -0.015479688 -0.0046722274
0.02518751 0.031654365 0.005523733 0.0017720447 0.0018209411 0.0010894594 -0.00075276603 -0.0130895395
-0.026140468 0.012900613 0.009043013 0.020288164 0.022088155 -0.04469367 -0.014540621 -0.028850948
0.032441113 -0.007305747 0.01520909 -0.0009783829 -0.027008966 0.014374371 -0.007531622 0.01119775
-0.016568525 0.042134456 0.023579106 -0.013737485 0.0056063193 -0.01414804 0.019578418 -0.030269366
-0.0022718783 -0.022935307 0.057645325 -0.014422009 -0.009760515 0.034498036 -0.033761602 -0.017744845
0.021754788 -0.0018139007 0.016610319 0.0022321013 -0.022666598 0.0143776005 0.009735772 -0.021747127
-0.013214445 0.010058021 -0.015017032 0.0039591747 -0.027028516 0.0040113744 -0.028175343 0.0078488225
-0.015452602 0.023894444 -0.012884912 -0.021778129 0.001993697 0.0038549295 0.001942164 -0.011505203
0.0038374166 0.029150687 -3.6534984e-05 0.0027735976 0.005193135 -0.00030323598 -0.008395953 0.023180049
0.021507083 -0.018069312 0.047657497 -0.04474048 -0.01545413 0.01714057 -0.021383213 0.0010216674
0.012729434 -0.022257589 -0.04858718 -0.00091707567 0.0066962996 0.053716037 -0.004835576 0.0040683136
-0.0055247876 -0.0012256802 -0.012183105 0.0037059584 0.01034712 -0.021173986 0.017510565 0.030350668
0.009652165 -0.012282335 0.012802255 0.008349548 0.02089736 -0.009891916 -0.0011319431 0.00019183091
0.010430025 0.01837037 -0.031922843 -0.041337706 -0.014527575 -0.0077768695 -0.0059353802 0.0066755144
0.026350884 -0.0026932342 -0.013303409 -0.0227206 0.007114492 -0.009202514 -0.028686402 0.027926857
0.026811585 0.03442737 -0.03689 -0.018673442 0.021266432 -0.024618387 0.0047323876 -0.028832445
-0.019436842 -0.0069183176 -0.009083 0.0018441435 -0.028645886 -0.036608525 0.007150013 -0.029802553
0.016523806 -0.0052428567 -0.008850071 -0.016016914 -0.051588114 -0.005900043 0.0005200415 0.025277631
0.0087410845 0.0089483475 0.022090109 -0.0010107988 0.010385952 -0.03001076 -0.04028361 1.4976428e-05
0.015903585 0.024263456 0.014079205 0.030616196 0.0021755083 0.0020664122 -0.035514563 0.003549549
0.006843494 8.7940585e-05 -0.021885097 -0.018572843 0.01429077 0.007574121 -0.017322116 0.0046502897
0.034941506 -0.018031893 -0.02520932 -0.016032701 -0.018305488 -0.06573231 0.012522145 0.016625933
0.0029846663 0.021402787 0.009332017 -0.016769731 0.020632323 -0.0027390462 -0.017778719 -0.0116920015
-0.049242485 -0.021118598 0.04068806 0.028300943 0.0059671784 0.009183229 -0.020352347 -0.024040721
-0.018192844 -0.009404426 -0.0044625974 0.0019118584 -0.0047748075 -0.0047295587 -0.0046311654 0.03243042
0.0038975806 0.009831186 -0.016665218 -0.021120349 -0.003924563 0.0073198657 -0.010132766 -0.014791161
0.019033438 0.0027494691 -0.033392716 0.002640952 -0.02231327 0.014166894 -0.019275246 0.02317923
00000000: 9454 a93c 7548 bbbc d341 2cbc 00e9 f1bb
00000010: 0f32 163c fc67 8f3a e28f 093d 9901 dc3b
00000020: 8cd6 2a3c ca94 c13b b7b6 b23c 5ddc 5d3d
00000030: 9990 203c 0c19 e2bc 0bb0 09bd 8095 f53a
00000040: 595b 0ebc da0e b63c ac1e 733c 3b73 a93c
00000050: 2e43 36bc 2eda 32bc 525c a4b9 f917 cfbc
00000060: 3441 e63c da37 bebb e2de 083d 10e1 ccbb
00000070: f72a 513b 2436 4e3c dd95 5c3b f379 0d3d
00000080: 236b a63c ecf3 2a3c 59e6 753c 5bab 8f3c
00000090: 82fc e63c 509f ae3c 849e 7dbc 7c19 99bb
000000a0: 0956 ce3c 02a8 013d 6e00 b53b f443 e83a
000000b0: a5ac ee3a 31cc 8e3a 4655 45ba 8275 56bc
000000c0: 8924 d6bc 185d 533c 2529 143c 5d33 a63c
000000d0: 38f2 b43c b610 37bd c93b 6ebc d358 ecbc
000000e0: f9e0 043d 0c65 efbb 8c2f 793c 153d 80ba
000000f0: e841 ddbc 7b82 6b3c d3cb f6bb c576 373c
00000100: b7ba 87bc 2e95 2c3d f828 c13c 3013 61bc
00000110: 37b5 b73b 2ecd 67bc eb62 a03c 76f7 f7bc
00000120: cbe3 14bb d3e2 bbbc 811d 6c3d 4a4a 6cbc
00000130: 91ea 1fbc d04d 0d3d 9b49 0abd a35d 91bc
00000140: 1937 b23c 68c0 edba 5d12 883c 7248 123b
00000150: 4daf b9bc 0790 6b3c ca82 1f3c 0827 b2bc
00000160: 6681 58bc 66ca 243c ff09 76bc f7bb 813b
00000170: e86a ddbc d971 833b facf e6bc 5998 003c
00000180: e92c 7dbc 48be c33c 3d1b 53bc 0c68 b2bc
00000190: afa8 023b fca2 7c3b 3690 fe3a 5280 3cbc
000001a0: 2b7d 7b3b 6ccd ee3c 243d 19b8 3fc5 353b
000001b0: 2c2b aa3b a5fb 9eb9 2e8f 09bc 16e4 bd3c
000001c0: 9f2f b03c 1806 94bc 8234 433d cb41 37bd
000001d0: 5233 7dbc 616a 8c3c d92b afbc 78e9 853a
000001e0: 1e8f 503c 8c55 b6bc 5a03 47bd e867 70ba
000001f0: a26c db3b 5905 5c3d c073 9ebb 7d4f 853b
00000200: 4709 b5bb 01a7 a0ba a59b 47bc aadf 723b
00000210: f886 293c 1175 adbc 5172 8f3c f7a1 f83c
00000220: 1d24 1e3c d93b 49bc 8dc0 513c 8bcc 083c
00000230: f130 ab3c b411 22bc b55d 94ba 3826 4939
00000240: b2e2 2a3c 757d 963c 87c1 02bd ba51 29bd
00000250: 1105 6ebc 1cd5 febb 947d c2bb 46be da3b
00000260: cfdd d73c f980 30bb 8bf6 59bc 8d20 babc
00000270: af20 e93b 24c6 16bc bfff eabc ddc6 e43c
00000280: f8a3 db3c b703 0d3d f819 17bd 0cf9 98bc
00000290: f136 ae3c 80ac c9bc 2512 9b3b 0532 ecbc
000002a0: 033a 9fbc 0eb3 e2bb ddd0 14bc 30b7 f13a
000002b0: c7aa eabc d2f2 15bd a84a ea3b 7c24 f4bc
000002c0: ef5c 873c 45cc abbb e3ff 10bc e735 83bc
000002d0: 0f4e 53bd 2655 c1bb 6553 083a 0913 cf3c
000002e0: c436 0f3c 179c 123c 51f6 b43c c87c 84ba
000002f0: d729 2a3c 20d9 f5bc 6d00 25bd 4543 7b37
00000300: 3c48 823c 28c4 c63c 77ac 663c d1ce fa3c
00000310: f992 0e3b a56c 073b b877 11bd 8d9f 683b
00000320: 633f e03b be6c b838 6048 b3bc 1326 98bc
00000330: d523 6a3c 5530 f83b 1ce7 8dbc 7561 983b
00000340: d31e 0f3d 9fb7 93bc c783 cebc 0357 83bc
00000350: 64f5 95bc a99e 86bd af29 4d3c 1c33 883c
00000360: 649a 433b e654 af3c 51e5 183c ad60 89bc
00000370: 1e05 a93c 9281 33bb ada4 91bc cf8f 3fbc
00000380: 7db2 49bd e900 adbc 86a8 263d 61d7 e73c
00000390: 5288 c33b 4175 163c f7b9 a6bc 0cf1 c4bc
000003a0: 2909 95bc 0615 1abc fb3a 92bb 5397 fa3a
000003b0: fd75 9cbb 6afa 9abb 08c1 97bb c3d5 043d
000003c0: 8d6e 7f3b fc12 213c 7f85 88bc 9504 adbc
000003d0: 9f99 80bb 7cdb ef3b e703 26bc a056 72bc
000003e0: 03ec 9b3c 7030 343b cdc6 08bd d213 2d3b
000003f0: 52ca b6bc 431c 683c 1fe7 9dbc 5ee2 bd3c

position_embedding_table.weight f4 [16, 64]
4.4137152e-05 0.0090743 -0.011479845 -0.014248499 -0.023420671 0.0016927723 -0.014451536 -0.0026102024
0.007618905 -0.017580383 -0.026013764 -0.020618292 -0.010106133 0.018107451 0.0034426001 -0.030746257
0.019106494 0.018580858 0.00023482826 0.015530698 0.017300908 -0.0020918106 -0.009931184 0.0075447885
0.008689453 -0.012107855 -0.019106302 0.016250359 -0.026947634 -0.0074558696 -0.008017952 0.006080182
0.0069683036 0.0018118906 0.00532698 -0.026978126 -0.006880365 -0.018901939 0.01593643 -0.013507459
-0.012432421 -0.0009645074 -0.032596026 0.018035393 0.020583304 -0.028448256 0.026596094 -0.004785905
0.018246388 -0.009227739 0.020687629 0.011630796 0.031237865 -0.010941942 0.007486775 -0.017690795
-0.014773723 -0.0014825325 0.020515712 -0.0069126906 0.008575859 0.022138055 -0.012200881 -0.005145151
0.004153003 0.01697724 -0.008779015 -0.034008835 -0.035042737 0.030525638 -0.003276983 0.020990204
-0.018050572 0.0153491255 0.0024737343 -0.047163233 -0.0020634343 0.0040624193 0.014998185 -0.019580357
0.029251928 -0.010828736 0.020305205 0.04321466 0.019193716 0.0024442323 -0.009186537 -0.048120182
-0.0015625447 0.028902149 -0.017519822 0.040553536 0.025964743 0.006559464 -0.023697177 0.0076528084
0.008542171 0.011615257 -0.00840802 0.020002197 -0.0014019714 0.03691051 -0.004650333 0.0073129013
0.022510955 -0.03233989 -0.011514148 -0.036264677 0.020099236 -0.022903178 0.018496899 -0.020133656
0.033372752 0.035741605 -0.010276934 -0.02080643 -0.009305625 0.0035640073 -0.01015985 -0.014118928
-0.003715588 -0.014513391 0.00468194 0.015653353 0.004253383 -0.0025270416 0.0009461932 0.021883426
-0.009492885 0.011932623 -0.0021150273 -0.018414898 -0.015251131 0.0037351607 0.036831755 -0.011239303
0.031790398 -0.035634916 0.030959211 0.023452973 0.027025402 0.03761872 0.019222634 0.0036812418
-0.013770355 0.015506831 0.009472053 -0.005561878 -0.025709081 -0.020481654 -0.0096182 -0.0047098175
0.017385276 0.0151626915 -0.021490345 -0.029181702 0.011087404 0.018247662 -0.0041979034 0.009307083
0.004927903 0.024425631 0.014452677 -0.010513385 -0.013734993 -0.013344288 -0.0013861284 0.019477751
-0.02932459 -0.016729392 0.022669904 0.0071300277 0.0014039102 0.023751227 -0.023509571 -0.0048600575
-0.036967102 0.0020650863 0.0020641906 0.0027682153 0.02640553 0.019420637 0.03460567 0.025497383
-0.005530801 -0.014997855 0.0064817746 -0.009508284 0.028129118 -0.008948781 -0.025682034 0.03038981
-0.00520897 -0.0033880624 -0.010833924 0.0054128678 -0.010120228 0.0027228163 0.0274509 -0.013999906
0.00568318 -0.025175618 0.016321246 0.007588748 -0.047129527 -0.017765377 0.011976505 0.03487323
0.025339413 -0.008836906 -0.03700676 0.0021415227 0.018608311 -0.0028533216 -0.010649069 -0.014459611
0.002027061 -0.013122431 -0.0006171673 -0.03184008 -0.022293927 0.014141844 0.01474978 -0.006541971
-0.0041878987 0.0072700563 -0.045267668 -0.0104302345 -0.0021084915 -0.028908327 0.028134426 -0.0024135266
-0.01766203 -0.015916144 0.010763804 0.0021838043 0.036511417 0.0208219 0.028964186 0.021148397
0.007699863 -0.0034876782 0.0019516828 -0.029727202 0.018358136 0.004848768 -0.0087270215 -0.0077293366
-0.011733571 0.002988951 0.010459605 0.029939214 0.011311557 0.016210852 0.01967591 -0.014539218
00000000: e81f 3938 5fac 143c f615 3cbc 8972 69bc
00000010: b5dc bfbc 03e0 dd3a 23c6 6cbc ee0f 2bbb
00000020: 02a8 f93b bc04 90bc d11a d5bc b1e7 a8bc
00000030: 3294 25bc 1456 943c 3f9d 613b 93df fbbc
00000040: 3985 9c3c e236 983c 3b3c 7639 7874 7e3c
00000050: a2ba 8d3c c216 09bb 68b6 22bc 463a f73b
00000060: 355e 0e3c 0660 46bc d284 9cbc 791f 853c
00000070: 49c1 dcbc 5e50 f4bb ba5d 03bc 433c c73b
00000080: 5e56 e43b f67c ed3a f28d ae3b 3b01 ddbc
00000090: af74 e1bb 3dd8 9abc 1e8d 823c 644e 5dbc
000000a0: 5ab1 4bbc ffd6 7cba 6983 05bd f6be 933c
000000b0: 519e a83c 510c e9bc 0de0 d93c 15d3 9cbb
000000c0: 7379 953c f12f 17bc 1a79 a93c 188f 3e3c
000000d0: 8de6 ff3c d545 33bc 9f53 f53b 49ec 90bc
000000e0: 7c0d 72bc 8951 c2ba 9110 a83c da83 e2bb
000000f0: c281 0c3c de5a b53c 34e6 47bc a898 a8bb
00000100: ea15 883b da13 8b3c dcd5 0fbc d94c 0bbd
00000110: f988 0fbd e710 fa3c a7c2 56bb a6f3 ab3c
00000120: cbde 93bc e67a 7b3c 601e 223b 3c2e 41bd
00000130: af3a 07bb 0b1e 853b f3ba 753c fc66 a0bc
00000140: bda1 ef3c 036b 31bc 1a57 a63c db01 313d
00000150: 243c 9d3c 6a2f 203b 2183 16bc ab19 45bd
00000160: 4dce ccba 33c4 ec3c bb85 8fbc 771b 263d
00000170: 03b4 d43c c6f0 d63b 9520 c2bc 69c4 fa3b
00000180: 76f4 0b3c eb4d 3e3c cbc1 09bc a6db a33c
00000190: 5bc2 b7ba 7a2f 173d d261 98bb 10a1 ef3b
000001a0: e568 b83c d576 04bd d6a5 3cbc 458a 14bd
000001b0: 27a7 a43c 729f bbbc cf86 973c 56ef a4bc
000001c0: deb1 083d ca65 123d 9660 28bc 3f72 aabc
000001d0: 9f76 18bc 1f92 693b 8075 26bc 1453 67bc
000001e0: 3981 73bb 93c9 6dbc f66a 993b 763b 803c
000001f0: f65f 8b3b b99c 25bb f309 783a df44 b33c
00000200: 0c88 1bbc 0c81 433c 459c 0abb d7da 96bc
00000210: e1df 79bc 99c9 743b e5dc 163d 0e25 38bc
00000220: a636 023d ebf5 11bd 2c9e fd3c 7320 c03c
00000230: 6064 dd3c 1616 1a3d c978 9d3c fd40 713b
00000240: 0e9d 61bc 5d10 7e3c ab30 1b3c 6a40 b6bb
00000250: da9b d2bc 24c9 a7bc a895 1dbc d054 9abb
00000260: 916b 8e3c f06c 783c 850c b0bc 770e efbc
00000270: f1a7 353c 1f7c 953c 918e 89bb bc7c 183c
00000280: 3f7a a13b 4318 c83c ecca 6c3c 5540 2cbc
00000290: bc08 61bc 00a2 5abc c0ae b5ba ce8f 9f3c
000002a0: 1f3a f0bc 140c 89bc 3cb6 b93c 02a3 e93b
000002b0: 6903 b83a ef91 c23c 2597 c0bc 1e41 9fbb
000002c0: d16a 17bd 6656 073b 5f47 073b f26a 353b
000002d0: 6950 d83c 0718 9f3c adbe 0d3d e3df d03c
000002e0: b93b b5bb 90b9 75bc 1165 d43b a2c8 1bbc
000002f0: 096f e63c e89d 12bc 2163 d2bc 0df4 f83c
00000300: 02b0 aabb 410a 5ebb c580 31bc 6d5e b13b
00000310: 50cf 25bc 4771 323b b6e0 e03c dd5f 65bc
00000320: f839 ba3b 193d cebc 22b4 853c 08ab f83b
00000330: e40a 41bd b288 91bc 1a39 443c 3bd7 0e3d
00000340: 9a94 cf3c acc8 10bc 6694 17bd ca58 0c3b
00000350: 7570 983c cbfe 3abb 6f79 2ebc 01e8 6cbc
00000360: 71d8 043b 77ff 56bc 65c9 21ba be6a 02bd
00000370: c1a1 b6bc 31b3 673c 10a9 713c 085e d6bb
00000380: a43a 89bb a739 ee3b 976a 39bd 93e3 2abc
00000390: 9e2e 0abb 28d1 ecbc 2b7a e63c 422c 1ebb
000003a0: f6af 90bc 9362 82bc ab5a 303c 281e 0f3b
000003b0: ff8c 153d b092 aa3c 4d46 ed3c 673f ad3c
000003c0: 224f fc3b 8891 64bb 9ccf ff3a 7686 f3bc
000003d0: cd63 963c 6ae2 9e3b c8fb 0ebc 6046 fdbb
000003e0: 2a3e 40bc 47e2 433b c35e 2b3c 1543 f53c
000003f0: 1c54 393c 9fcc 843c 602f a13c e635 6ebc

type_head.weight f4 [64, 1]
0.02137513 -7.278445e-05 -0.002066181 -0.03877085 -0.0033770592 0.038294885 -0.014644449 0.010680101
0.01206589 0.0083492035 -0.02925447 -0.036093835 -0.037662186 0.04443498 -0.009884597 0.029806918
0.0016429854 0.040953573 0.024116082 -0.014221382 -0.054059893 -0.008443016 -0.008223195 0.012220312
0.0013517572 0.010251233 0.018046249 -0.0116029335 0.018464737 0.021983769 0.020276735 0.0042772717
0.023353785 0.008498509 -0.010962271 -0.03471988 -0.018538738 0.004040796 0.00818862 0.011810068
0.043122306 -0.0030118832 -0.0434512 0.02412863 0.03888601 0.030430054 0.0053807315 -0.032638747
-0.018047556 -0.015149007 -0.003069943 -0.021559715 -0.012258962 0.028344635 -0.024876898 -0.021408834
-0.014938093 -0.02633219 0.0047041755 0.0067615113 0.0036236565 -0.032544397 -0.010747029 0.019167015
00000000: e61a af3c dba3 98b8 c468 07bb 2fce 1ebd
00000010: a751 5dbb 19db 1c3d 45ef 6fbc 97fb 2e3c
00000020: 03b0 453c 19cb 083c 12a7 efbc 21d7 13bd
00000030: aa43 1abd 7401 363d 01f3 21bc a32d f43c
00000040: 7159 d73a efbe 273d 178f c53c cd00 69bc
00000050: e86d 5dbd 9354 0abc 94ba 06bc b437 483c
00000060: 722d b13a caf4 273c bad5 933c 3b1a 3ebc
00000070: 5c43 973c 4e17 b43c 651b a63c 5b28 8c3b
00000080: 7050 bf3c 553d 0b3c 199b 33bc 6f36 0ebd
00000090: 8dde 97bc a768 843b 9029 063c 047f 413c
000000a0: 04a1 303d 0463 45bb e3f9 31bd 68a9 c53c
000000b0: f046 1f3d 7348 f93c d950 b03b 35b0 05bd
000000c0: 78d8 93bc 8a33 78bc 1931 49bb 009e b0bc
000000d0: d0d9 48bc 0233 e83c a3ca cbbc 9461 afbc
000000e0: e7be 74bc 9bb6 d7bc 7c25 9a3b ab8f dd3b
000000f0: de7a 6d3b 464d 05bd 4f14 30bc 2504 9d3c

type_head.bias f4 [64]
-0.0008685184 -0.0011560026 -0.0009975904 -0.00037555356 -0.0029811664 -0.0023245986 0.0022896721 -0.00026002686
0.00016636803 -0.0031452647 0.0006029592 -0.00068928197 0.0012716048 0.00028862726 -0.0015032927 -5.311126e-06
0.0008923574 6.613674e-05 0.00027092622 -0.0011044429 -0.0013438059 0.0013215182 0.0008207983 -0.001921088
-0.0021033778 0.0016946158 -0.0007934169 0.00033156166 0.00028880706 0.00036973972 -0.0016931042 -0.0032147565
-2.4020208e-05 -0.0002422331 -0.0009886896 -0.0008807371 -0.0004469566 -0.00043667541 -5.2994743e-05 0.0015461323
0.0005852693 -0.00023637158 0.00020080134 -0.0012522837 -0.0017598553 -0.00073090685 -0.00089055585 -0.001110048
0.0030723359 -0.0021506257 -0.0013765155 -0.0006210816 0.00075045734 -0.001991193 -0.00035006867 0.0023939847
-0.002108321 0.002851 -7.353355e-05 0.0001640016 0.0017552089 0.0024158529 0.00040170358 0.0016622655
00000000: 48ad 63ba 0385 97ba 94c1 82ba f2e5 c4b9
00000010: ac5f 43bb 4b58 18bb 530e 163b 3754 88b9
00000020: 1473 2e39 c920 4ebb e80f 1e3a eeb0 34ba
00000030: faab a63a e552 9739 220a c5ba 3a36 b2b6
00000040: 17ed 693a e4b2 8a38 1a0b 8e39 f4c2 90ba
00000050: a522 b0ba cb36 ad3a d72a 573a 04cd fbba
00000060: d3d8 09bb df1d de3a 4ffd 4fba 74d5 ad39
00000070: 076b 9739 a0d9 c139 26eb ddba aaae 52bb
00000080: 017f c9b7 f4ff 7db9 eb96 81ba 44e1 66ba
00000090: 8055 eab9 95f1 e4b9 ac46 5eb8 97a7 ca3a
000000a0: c26c 193a 83da 77b9 338e 5239 ab23 a4ba
000000b0: f2aa e6ba 549a 3fba 3174 69ba 087f 91ba
000000c0: 3e59 493b 83f1 0cbb 326c b4ba 15d0 22ba
000000d0: 57ba 443a ad7e 02bb 6c89 b7b9 66e4 1c3b
000000e0: c22b 0abb d8d7 3a3b 0636 9ab8 d8f7 2b39
000000f0: 0a0f e63a 4953 1e3b be9b d239 60e0 d93a

first_block.sa.heads.0.key.weight f4 [16, 64]
0.053036246 0.019196963 -0.04747104 -0.027565483 -0.0061345343 -0.017583797 -0.0066209515 -0.033145417
0.04123912 0.035435442 0.011639609 0.025517963 0.025868135 -0.0024895314 -0.08821314 0.03383236
-0.058890473 -0.00022272301 -0.043152325 -0.017026812 -0.024766132 -0.036952853 0.041892104 -0.022475196
0.017873619 0.008877052 0.0455363 -0.0067050415 0.0013480325 0.0067657284 0.004475336 0.0151752
0.023527844 0.043692693 0.07555378 0.029607607 -0.023627356 0.024363592 -0.017849933 -0.0009070752
-0.013992459 0.01821199 0.018523863 -0.017762829 -0.0017201203 -0.017434714 -0.082404405 -0.010562738
-0.03168265 0.04059702 0.022690373 0.017074388 -0.06746439 -0.026595512 0.034227062 -0.02560259
0.031964596 -0.011735303 0.012212477 0.03585271 -0.038222056 -0.027493294 -0.011140628 0.016339522
-0.028852532 -0.0487989 0.02174378 0.011664846 -0.010437531 0.003201846 -0.030395702 -0.01845509
-0.06026741 0.02419557 -0.02064999 0.0029071432 -0.035485707 -0.002043114 0.019497301 -0.013023808
0.011786973 -0.014422958 0.021458047 0.0034903488 0.029676994 -0.0043960237 -0.006949393 0.0059962934
-0.02241677 -0.028714575 -0.025963908 -0.007050629 -0.030941833 -0.0008623257 -0.020829635 -0.021422353
0.0041403295 -0.022170411 -0.004498735 -0.047983497 0.026043523 -0.030016769 0.016724711 -0.01971054
0.056533124 -0.018292036 -0.0018255592 -0.015940549 0.03859367 0.01399867 0.034665257 -0.0037908994
0.032467715 -0.03555518 0.008680523 -0.018203247 0.039298125 -0.014287682 0.01047993 0.008600141
-0.030491238 0.04200999 -0.041085225 0.043774676 0.03321593 0.012968267 0.008781675 -0.015636679
-0.0036021746 -0.02923701 -0.028846947 -0.02539439 -0.005369736 -0.018535193 0.0044963793 0.003329415
0.013175381 0.045144234 0.0062575275 0.01802354 0.010414409 -0.0011469044 -0.031865582 0.022794664
-0.051045787 0.0013993486 0.009274421 -0.0595196 -0.039678935 -0.019568939 0.025531853 -0.0124787595
0.0107049495 -0.0076805553 0.03818044 -0.0070956745 0.02869559 0.019144041 -0.040012203 0.029804425
0.028204877 0.033723276 0.047171533 -0.01819304 -0.037115876 0.0048827566 0.0068516834 -0.00029226125
-0.015146813 0.01770304 -0.0050608017 0.0018230351 0.01699491 -0.03118457 -0.05109048 0.03394635
-0.0663119 0.019803513 0.042035062 0.0318297 -0.0070706345 -0.01876258 0.029318945 -0.028666953
0.033694517 -0.038986217 -0.022298431 -0.04090199 -0.018111723 -0.06227919 0.010404984 0.03753015
0.041835677 -0.009451458 -0.008950063 0.018694453 -0.026624791 0.0062947283 -0.019117108 -0.04428308
0.015955824 0.007113455 -0.008903288 0.013837984 0.063547924 0.0105045345 -0.02267195 -0.0062103122
-0.039753262 0.00022920805 0.009740814 -0.020753158 -0.064511284 0.011934272 -0.009425728 -0.023428429
0.04224902 0.0075793746 0.03926738 -0.031085689 0.030192219 0.0026973 0.007671722 0.03283257
0.027543074 -0.0067661293 0.032318186 0.01839357 -0.042899862 0.02080427 -0.03304091 -0.04063655
0.008941444 0.049410976 0.00613951 0.010443475 -0.010249826 0.002592052 -0.036778014 -0.043185297
-0.060061138 -0.02676179 -0.021599347 -0.009447365 -0.058482923 0.0062663937 0.02613042 -0.041536145
0.05445783 -0.0064945607 0.025934642 0.03031492 -0.01701859 0.007267125 -0.029229125 0.03867177
00000000: 893c 593d f342 9d3c fe70 42bd 02d1 e1bc
00000010: 3404 c9bb e50b 90bc 91f4 d8bb 7dc3 07bd
00000020: 5aea 283d c124 113d 0fb4 3e3c 0c0b d13c
00000030: 69e9 d33c 6827 23bb 17a9 b4bd cd93 0a3d
00000040: 2337 71bd c18a 69b9 7ec0 30bd d07b 8bbc
00000050: 58e2 cabc e05b 17bd 0e97 2b3d e71d b8bc
00000060: b26b 923c 0e71 113c 4584 3a3d f7b5 dbbb
00000070: 77b0 b03a 0bb3 dd3b d7a5 923b 67a1 783c
00000080: 77bd c03c 1cf7 323d f1bb 9a3d a78b f23c
00000090: 288e c1bc 2896 c73c 063a 92bc c9c8 6dba
000000a0: a040 65bc 5031 953c 5bbf 973c 5a83 91bc
000000b0: a975 e1ba 3fd3 8ebc a4c3 a8bd 560f 2dbc
000000c0: abc5 01bd 1049 263d 29e1 b93c 96df 8b3c
000000d0: c52a 8abd d5de d9bc ad31 0c3d 86bc d1bc
000000e0: 4fed 023d 6e45 40bc d716 483c 4bda 123d
000000f0: bb8e 1cbd 9e39 e1bc 2e87 36bc 76da 853c
00000100: 255c ecbc 5be1 47bd 0320 b23c e91d 3f3c
00000110: 2e02 2bbc 10d6 513b 6800 f9bc 212f 97bc
00000120: f6da 76bd ca35 c63c 2b2a a9bc c585 3e3b
00000130: 7659 11bd c4e5 05bb ceb8 9f3c cf61 55bc
00000140: 261e 413c 454e 6cbc c9c8 af3c 56be 643b
00000150: 2b1d f33c 850c 90bb bcb7 e3bb 8e7c c43b
00000160: 60a3 b7bc d43a ebbc 43b2 d4bc f608 e7bb
00000170: ba79 fdbc b30d 62ba e9a2 aabc ee7d afbc
00000180: 9aab 873b b99e b5bc 206a 93bb 588a 44bd
00000190: 3a59 d53c bae5 f5bc 4302 893c 0078 a1bc
000001a0: 478f 673d 2ed9 95bc 9a47 efba c195 82bc
000001b0: 6514 1e3d ad5a 653c 28fd 0d3d bd70 78bb
000001c0: defc 043d 4fa2 11bd c138 0e3c fa1e 95bc
000001d0: 12f7 203d e216 6abc 03b4 2b3c 9be7 0c3c
000001e0: c3c8 f9bc ab12 2c3d fb48 28bd 134d 333d
000001f0: 6d0d 083d db78 543c 04e1 0f3c 7e18 80bc
00000200: 7612 6cbb 7482 efbc 6f50 ecbc e507 d0bc
00000210: 9cf4 afbb 1ed7 97bc 5d56 933b 5132 5a3b
00000220: 8edd 573c 29e9 383d f20b cd3b 1aa6 933c
00000230: 33a1 2a3c ba53 96ba 7c85 02bd e0bb ba3c
00000240: 6315 51bd 596a b73a bef3 173c d3ca 73bd
00000250: 6186 22bd 0a4f a0bc 2d28 d13c b673 4cbc
00000260: d063 2f3c 2bad fbbb 1863 1c3d d582 e8bb
00000270: 0413 eb3c f7d3 9c3c d6e3 23bd 6928 f43c
00000280: ea0d e73c 6b21 0a3d f036 413d 9209 95bc
00000290: d106 18bd 88ff 9f3b 1684 e03b a43a 99b9
000002a0: 572a 78bc f705 913c 15d5 a5bb e8f2 ee3a
000002b0: e938 8b3c c976 ffbc 4044 51bd 540b 0b3d
000002c0: 89ce 87bd fa3a a23c f52c 2c3d dc5f 023d
000002d0: c8b0 e7bb fbb3 99bc 492e f03c f5d6 eabc
000002e0: 4303 0a3d 03b0 1fbd 33ab b6bc d888 27bd
000002f0: 095f 94bc 7718 7fbd aa79 2a3c 37b9 193d
00000300: e35b 2b3d 4ada 1abc 49a3 12bc 1c25 993c
00000310: 3c1c dabc 0244 ce3b 7b9b 9cbc 2d62 35bd
00000320: cab5 823c fc17 e93b 19df 11bc b6b8 623c
00000330: 6a25 823d 361b 2c3c 86ba b9bc e07f cbbb
00000340: 51d4 22bd 9157 7039 ef97 1f3c 8702 aabc
00000350: 7e1e 84bd f787 433c 5e6e 1abc faec bfbc
00000360: 4f0d 2d3d 675c f83b d5d6 203d 6aa7 febc
00000370: ac55 f73c 2fc5 303b 1263 fb3b 727b 063d
00000380: 03a2 e13c 68b6 ddbb 1360 043d 1dae 963c
00000390: c4b7 2fbd b76d aa3c e855 07bd 8372 26bd
000003a0: 227f 123c 2a63 4a3d f12d c93b 1c1b 2b3c
000003b0: e3ee 27bc 6bdf 293b 8ba4 16bd 11e3 30bd
000003c0: ab02 76bd 8b3b dbbc 1df1 b0bc 1fc9 1abc
000003d0: ca8b 6fbd 5256 cd3b 760f d63c ce21 2abd
000003e0: 2c0f 5f3d 53d0 d4bb e374 d43c ff56 f83c
000003f0: 926a 8bbc 1021 ee3b eb71 efbc 4a66 1e3d

first_block.sa.heads.0.query.weight f4 [16, 64]
0.02250983 0.057202738 -0.015518674 0.022594424 -0.007169327 -0.00525584 -0.059660684 -0.035240836
-0.00928711 0.010339537 -0.03353177 -0.058640424 -0.0018765529 0.00994551 0.043329906 0.0052685533
-0.005407437 -0.047909953 -0.035962816 -0.018836983 0.047232416 0.012515388 -0.01103365 0.053317893
-0.013581723 0.04355444 -0.04055134 0.023320394 -0.01822013 0.018793708 0.013101361 -0.044871926
-0.014065952 -0.021561788 -0.032929935 -0.05038839 -0.016832912 -0.012934112 0.015237926 -0.019700136
-0.04203587 -0.011112273 -0.0024235512 0.03693256 0.015663557 0.0138454065 0.01026071 -0.004149489
0.012808368 -0.02709995 -0.03085788 -0.0007329226 -0.021009699 0.070243865 -0.0011471807 0.019818453
-0.054009415 0.019774312 -0.0085338475 0.04869591 0.008401064 -0.024689592 0.07811503 -0.005364279
0.028505638 -0.045040365 -0.021875111 0.0044663586 0.012088654 -0.01224349 0.054659285 0.03004542
-0.0057693254 -0.002758161 0.024732621 0.028451493 0.029079499 -0.044078402 -0.026664222 0.012347336
-0.02974123 0.019472593 -0.014569341 0.0040401304 -0.038413174 0.010180802 0.025251148 -0.07004885
0.025272554 -0.03378384 0.011092054 -0.033833962 -0.018197838 0.031107202 0.045016296 0.02510151
0.030976828 0.04935235 -0.0040917583 -0.0047613517 0.02945677 0.037425987 0.004838118 0.02388101
-0.009347506 0.03595677 -0.030082108 0.006075647 -0.0048105055 0.024554508 0.02585377 -0.028665077
-0.020489285 0.009267217 0.008427944 -0.0048097507 0.037542302 -0.010986278 0.009685942 -0.008186096
0.053789727 -0.020628238 0.01505507 -0.04072738 -0.013326663 0.008751661 -0.0015867022 -0.016179519
0.004796254 0.010781362 -0.0151427 0.014312973 -0.0004994507 0.0016116416 -0.019374844 -0.032490604
0.032146256 0.012875099 0.0027605968 -0.04828573 -0.013401827 0.0024162405 0.051570576 0.0029511277
-0.017792152 -0.03940703 -0.0033567518 -0.031234574 0.02204983 0.017900584 -0.013079474 0.0069972626
-0.052537166 0.035877496 0.024413913 0.034355342 -0.007661709 0.020752626 -0.021415371 -0.015588821
-0.016713027 0.0065648034 -0.018249808 -0.06295625 -0.0059757275 -0.05459895 0.018686326 0.005354467
-0.012219501 0.024342898 0.013852135 0.0012317508 0.021007957 -0.034400288 0.019471202 0.0026820472
0.010780156 0.015353289 -0.0389442 -0.013406518 -0.0027977405 0.032279845 -0.016626101 0.019041145
-0.030771945 -0.0013506365 -0.014001673 0.041182145 0.023730274 -0.016964333 0.026926167 0.007982968
-0.011095785 0.016415711 0.004723222 0.01299619 0.026344571 0.0059932163 -0.039372653 -0.03587669
0.028596802 -0.016126707 -0.023834705 -0.022282936 -0.019285863 -0.011100238 0.05514559 0.0015521998
-0.010199749 -0.048682846 -0.0013342196 -0.04413471 -0.010039284 0.0046014213 0.017981898 0.019119006
-0.0793878 -0.0016586831 -0.009864743 0.072229065 -0.011357901 0.029526733 0.04933529 -0.024482349
-0.019068208 -0.0042284145 -0.034559377 -0.041890536 -0.03145401 -0.010922455 0.023731777 -0.0024410286
-0.037011843 -0.03644717 0.003935543 0.0019694585 -0.010730387 -0.03906943 0.00019761572 -0.0012056936
0.004308639 -0.02868057 -0.02078604 0.0092317015 -0.03286838 0.02730519 0.042864997 0.008955982
-0.063719295 0.013070381 0.00740899 0.03684176 -0.00022822454 0.021439929 0.051778115 -0.015977943
00000000: 8966 b83c 6b4d 6a3d 0942 7ebc f117 b93c
00000010: acec eabb 2e39 acbb c35e 74bd b258 10bd
00000020: f628 18bc 2967 293c 9c58 09bd f130 70bd
00000030: abf6 f5ba 7ef2 223c b37a 313d d4a3 ac3b
00000040: df30 b1bb 3a3d 44bd bf4d 13bd 0450 9abc
00000050: c776 413d 580d 4d3c 7bc6 34bc dd63 5a3d
00000060: e085 5ebc 2466 323d 2919 26bd 690a bf3c
00000070: 6242 95bc 43f5 993c 17a7 563c a0cb 37bd
00000080: e174 66bc 59a2 b0bc 8ae1 06bd 0e64 4ebd
00000090: 2de5 89bc 99e9 53bc 7ea8 793c 2e62 a1bc
000000a0: ce2d 2cbd 4010 36bc 71d4 1ebb 9946 173d
000000b0: dc50 803c d8d7 623c 891c 283c 70f8 87bb
000000c0: 30da 513c b700 debc aac9 fcbc 9a21 40ba
000000d0: 881c acbc 04dc 8f3d ff5c 96ba 4f5a a23c
000000e0: fa38 5dbd bdfd a13c 8dd1 0bbc 5d75 473d
000000f0: 9ea4 093c d441 cabc c6fa 9f3d d5c6 afbb
00000100: a884 e93c 3f7c 38bd 6f33 b3bc 885a 923b
00000110: 7d0f 463c eb98 48bc 6ae2 5f3d d021 f63c
00000120: 9c0c bdbb 43c2 34bb 119c ca3c 1b13 e93c
00000130: 2138 ee3c 8e8b 34bd ed6e dabc 7b4c 4a3c
00000140: e1a3 f3bc fd84 9f3c 3fb4 6ebc 1263 843b
00000150: 2257 1dbd 61cd 263c 7fdb ce3c c575 8fbd
00000160: 6308 cf3c ec60 0abd 72bb 353c 7b95 0abd
00000170: a213 95bc 88d4 fe3c 0263 383d afa1 cd3c
00000180: 1ec3 fd3c b125 4a3d 2814 86bb 1d05 9cbb
00000190: 534f f13c fe4b 193d 1389 9e3b 1ca2 c33c
000001a0: 4826 19bc 6847 133d c16e f6bc 3916 c73b
000001b0: 72a1 9dbb 8926 c93c 49cb d33c 06d3 eabc
000001c0: 25d9 a7bc 86d5 173c 5c15 0a3c 1d9b 9dbb
000001d0: f5c5 193d caff 33bc c9b1 1e3c fa1e 06bc
000001e0: 9e52 5c3d 8dfc a8bc 8aa9 763c c1d1 26bd
000001f0: 1358 5abc 2063 0f3c e4f8 cfba e98a 84bc
00000200: e529 9d3b 4fa4 303c 1619 78bc f680 6a3c
00000210: 92ed 02ba b83d d33a feb7 9ebc de14 05bd
00000220: cbab 033d 14f2 523c 21eb 343b 42c7 45bd
00000230: 5693 5bbc ca59 1e3b ab3b 533d b567 413b
00000240: d9c0 91bc 4469 21bd f3fc 5bbb a6df ffbc
00000250: d8a1 b43c 3fa4 923c 4a4b 56bc 4b49 e53b
00000260: 3631 57bd 48f4 123d b0ff c73c 30b8 0c3d
00000270: 130f fbbb 6901 aa3c 4a6f afbc 4168 7fbc
00000280: c2e9 88bc 901d d73b 9f80 95bc 35ef 80bd
00000290: 09d0 c3bb 26a3 5fbd 1114 993c 8674 af3b
000002a0: 4d34 48bc c26a c73c 11f4 623c b372 a13a
000002b0: e118 ac3c 51e7 0cbd 1282 9f3c 49c5 2f3b
000002c0: 409f 303c 5d8c 7b3c f483 1fbd 03a7 5bbc
000002d0: 4c5a 37bb df37 043d 7633 88bc 2dfc 9b3c
000002e0: 7215 fcbc d707 b1ba 4667 65bc 9cae 283d
000002f0: fe65 c23c c9f8 8abc 4494 dc3c ffca 023c
00000300: 18cb 35bc 3e7a 863c 42c5 9a3b f9ed 543c
00000310: 92d0 d73c be62 c43b 3845 21bd 70f3 12bd
00000320: d743 ea3c 281c 84bc 0041 c3bc b48a b6bc
00000330: 63fd 9dbc c6dd 35bc 58e0 613d 2f73 cb3a
00000340: d91c 27bc aa67 47bd fbe0 aeba 99c6 34bd
00000350: cf7b 24bc 85c7 963b c64e 933c 769f 9c3c
00000360: 1296 a2bd 2b68 d9ba bb9f 21bc d5ec 933d
00000370: 7d16 3abc 0ce2 f13c cd13 4a3d 358f c8bc
00000380: ee34 9cbc 838e 8abb 228e 0dbd 6995 2bbd
00000390: ecd5 00bd 19f4 32bc 2569 c23c aaf9 1fbb
000003a0: bb99 17bd a149 15bd baf5 803b 0812 013b
000003b0: 81ce 2fbc 4407 20bd 1137 4f39 5d08 9eba
000003c0: 7c2f 8d3b 84f3 eabc 7c47 aabc 9040 173c
000003d0: ffa0 06bd 22af df3c 3593 2f3d 1cbc 123c
000003e0: 437f 82bd 2725 563c 1dc7 f23b 63e7 163d
000003f0: 8f4f 6fb9 caa2 af3c 4a15 543d 2de4 82bc

first_block.sa.heads.0.value.weight f4 [16, 64]
-0.0127884075 -0.011488472 0.012463858 0.01234356 0.02111577 0.050713018 -0.011906022 0.0011314695
-0.008247237 -0.010568876 -0.027920607 -0.025370348 -0.014316643 0.038737286 0.00698125 -0.03596513
0.0014289066 0.016315265 0.011920262 0.029889368 -0.017059524 0.021347184 -0.016165825 -0.0043903883
-0.0083016185 0.031695027 -0.003907538 0.01156575 -0.006733338 -0.013530656 0.009824785 -0.01123663
-0.014112176 0.023188047 0.027461153 0.025550732 -0.012585269 0.020447114 0.001990665 -0.020987596
-0.008828818 -0.004327872 -0.00989698 0.015382549 -0.017172122 -0.02309305 -0.014588113 -0.016034167
0.023090368 -0.051565476 -0.015138874 0.039844174 0.03795479 0.013452067 -0.03441909 0.02952251
0.036147445 0.0022657688 0.038952168 -0.07334837 0.00064901105 -0.01068233 -0.010591037 0.0145872105
-0.01329143 -0.016603222 -0.0061671003 -0.036620993 0.021463824 0.04796305 -0.024107719 -0.017159272
-0.022436704 0.021253038 0.017867476 0.036014058 0.024739223 -0.0016528408 0.010495501 0.005268362
-0.0024999273 -0.015363722 0.013203034 -0.0016687099 -0.005108587 -0.025311796 0.00053539965 -0.0015028362
-0.022116045 0.006927916 0.008980059 -0.02654434 -0.0028188287 -0.032658696 0.001529074 0.011564062
-0.02144715 -0.06469906 0.016853834 -0.021433111 0.03846027 -0.0007908592 0.055162076 0.004852659
0.0028317324 -0.013378904 -0.054862134 0.002636555 0.054367963 0.0026025486 0.011185735 0.013811534
0.0005332113 0.011521703 -0.011714923 0.010323415 0.0082236985 -0.015413872 0.019825272 -0.017761715
-0.003801285 0.03784825 -0.009207594 0.009334198 0.022100838 0.0026125824 0.020399855 0.006616638
0.022838749 -0.0002755675 -0.022907786 0.0035983748 0.021065874 -0.0055004694 -0.015274388 -0.020313853
-0.026474835 0.029982682 0.0053042644 -0.016241772 0.0039134943 0.020861976 -0.0027510647 -0.03667657
-0.018857233 0.036683295 0.014194426 0.017125199 0.011509129 0.0060290527 0.010399435 -0.0068725557
-0.013094467 -0.020277187 0.026119763 0.015707154 -0.009228623 -0.008074989 0.0002355288 0.0073227515
-0.0531758 0.022419853 -0.008545892 0.049775045 -0.0053048343 0.0017253486 -0.037704397 0.0069303373
0.047644403 -0.00061964063 0.052404452 -0.006700009 0.008905386 0.0015364187 0.01687096 -0.007073902
0.016211 -0.001955304 0.0077291317 -0.0112763075 0.013166174 -0.009182136 0.025905877 0.015975527
0.0048817876 -0.028245395 -0.0067140935 0.03557874 -0.0053262985 0.018292455 0.0038636094 -0.0056488486
-0.0032560914 -0.007925968 -0.005557593 -0.021734755 -0.000740734 0.021429317 0.004917575 0.0021973422
0.01303648 0.02384786 -0.010409947 0.004825499 -0.004624868 -0.020250157 -0.003367775 -0.019084115
0.0053259567 -0.030441867 -0.03806055 0.026585542 -0.016093893 -0.021202898 0.011873671 0.0053264373
0.00048697443 0.018122481 0.05254569 -0.011375675 0.01592649 0.03508434 -0.0036868688 0.0058315555
0.014617529 0.0057701827 -0.018587718 0.017767522 -0.006455078 0.0031423364 0.014773126 -0.013374845
0.015643789 0.0069345073 0.016070062 0.045972582 0.010630157 0.006033435 0.002971698 0.033594817
0.02147002 -0.01776311 -0.005488242 -0.0041528116 0.018712258 -0.00026215208 -0.03860974 0.0058925957
-0.01563485 0.0516498 -0.021112928 0.021908917 -0.013014622 0.014003209 -0.022769026 -0.0015112456
00000000: 7886 51bc 253a 3cbc 3635 4c3c a53c 4a3c
00000010: fbfa ac3c 74b8 4f3d 7a11 43bc d14d 943a
00000020: 6b1f 07bc 1429 2dbc c2b9 e4bc 7ad5 cfbc
00000030: 5a90 6abc fdaa 1e3d f8c2 e43b 2c50 13bd
00000040: 264a bb3a 97a7 853c 344d 433c 8cda f43c
00000050: 6ac0 8bbc 4ae0 ae3c 316e 84bc 3fdd 8fbb
00000060: 8303 08bc a5d2 013d ce0a 80bb 467e 3d3c
00000070: 55a3 dcbb afaf 5dbc 23f8 203c d819 38bc
00000080: c236 67bc dcf4 bd3c 36f6 e03c c54f d13c
00000090: 7232 4ebc b580 a73c d175 023b 2eee abbc
000000a0: bfa6 10bc d2d0 8dbb f126 22bc 1607 7c3c
000000b0: 8dac 8cbc a32d bdbc fb02 6fbc 165a 83bc
000000c0: 0328 bd3c 5236 53bd 0a09 78bc a533 233d
000000d0: 7b76 1b3d 0f66 5c3c 08fb 0cbd 31d9 f13c
000000e0: 580f 143d 4b7d 143b 4f8c 1f3d ac37 96bd
000000f0: 6522 2a3a f004 2fbc 0786 2dbc 32ff 6e3c
00000100: 4cc4 59bc 7b03 88bc 6315 cabb e5ff 15bd
00000110: e7d4 af3c e774 443d 8d7d c5bc 9a91 8cbc
00000120: 2ecd b7bc da1a ae3c d05e 923c 7a83 133d
00000130: e9a9 ca3c 22a4 d8ba 52f5 2b3c 39a2 ac3b
00000140: d2d5 23bb 1fb8 7bbc 8a51 583c 9db8 daba
00000150: ef65 a7bb af5a cfbc 105a 0c3a d1fa c4ba
00000160: b52c b5bc 9203 e33b 1921 133c 8473 d9bc
00000170: 19bc 38bb 20c5 05bd 366b c83a 3177 3d3c
00000180: efb1 afbc f180 84bd 0d11 8a3c 7e94 afbc
00000190: 8488 1d3d aa51 4fba a1f1 613d 0e03 9f3b
000001a0: 9694 393b 3133 5bbc 1eb7 60bd 0dca 2c3b
000001b0: f1b0 5e3d 858f 2a3b 6044 373c c649 623c
000001c0: 34c7 0b3a 86c5 3c3c f3ef 3fbc 8a23 293c
000001d0: b1bc 063c 778a 7cbc 9c68 a23c 0481 91bc
000001e0: fb1e 79bb c406 1b3d 73db 16bc 77ee 183c
000001f0: d10c b53c dc37 2b3b 991d a73c 62d0 d83b
00000200: 5418 bb3c 0b7a 90b9 1ca9 bbbc b6d2 6b3b
00000210: 5792 ac3c 483d b4bb 6d41 7abc 3d69 a6bc
00000220: c1e1 d8bc 3e9e f53c 65cf ad3b 770d 85bc
00000230: c53c 803b bce6 aa3c 354b 34bb 2c3a 16bd
00000240: 7c7a 9abc 3941 163d bd8f 683c 254a 8c3c
00000250: c990 3c3c 5c8f c53b 6462 2a3c 2d33 e1bb
00000260: 2d8a 56bc 581c a6bc 1df9 d53c 4aac 803c
00000270: a633 17bc f54c 04bc 48f8 7639 b1f3 ef3b
00000280: dece 59bd d7a9 b73c 1204 0cbc ebe0 4b3d
00000290: 2dd4 adbb 1825 e23a ed6f 1abd e217 e33b
000002a0: c726 433d 616f 22ba 0da6 563d c08b dbbb
000002b0: e5e7 113c a861 c93a f834 8a3c 31cc e7bb
000002c0: eecc 843c 8f24 00bb a844 fd3b 43c0 38bc
000002d0: f0b6 573c ab70 16bc 9038 d43c 1cdf 823c
000002e0: 67f7 9f3b e362 e7bc e601 dcbb 03bb 113d
000002f0: 3b88 aebb 0fda 953c 9c34 7d3b fa19 b9bb
00000300: 2664 55bb ebdb 01bc 781c b6bb 160d b2bc
00000310: d12d 42ba 898c af3c 9c23 a13b 4901 103b
00000320: f696 553c 965c c33c 7b8e 2abc 381f 9e3b
00000330: 348c 97bb a8e3 a5bc e3b5 5cbb 4a56 9cbc
00000340: 5d85 ae3b 3961 f9bc 61e5 1bbd ecc9 d93c
00000350: 57d7 83bc b3b1 adbc c989 423c 6589 ae3b
00000360: 9a50 ff39 9975 943c 263a 573d 0a61 3abc
00000370: 4578 823c 99b4 0f3d 659f 71bb a216 bf3b
00000380: 5c7e 6f3c cd13 bd3b 4545 98bc 328d 913c
00000390: 1e85 d3bb a8ef 4d3b fb0a 723c 2a22 5bbc
000003a0: 6727 803c dd3a e33b 5da5 833c bf4d 3c3d
000003b0: 1c2a 2e3c 1fb4 c53b d2c0 423b b89a 093d
000003c0: e5e1 af3c f183 91bc b6d6 b3bb 4f14 88bb
000003d0: 734a 993c 7571 89b9 3f25 1ebd ad16 c13b
000003e0: a814 80bc be8e 533d 05f5 acbc 547a b33c
000003f0: 483b 55bc b76d 653c 1c86 babc fd14 c6ba

first_block.sa.heads.1.key.weight f4 [16, 64]
-0.047383618 -0.031942625 0.012431286 0.0071751475 0.02841326 0.01826646 0.0099225845 0.037426922
-0.026246395 0.043756075 0.028888777 0.011487801 0.021213949 0.015814656 -0.04601183 0.02140665
0.0129970405 -0.01649219 -0.006981997 -0.00073014246 -0.08508318 -0.04224158 0.0135654565 0.030153882
0.012552265 0.02318208 -0.031008478 0.017291578 0.048148453 -0.046102975 -0.0052877716 0.036645632
0.0047828625 -0.005436178 -0.020662064 0.010008288 -0.023043212 0.007333193 0.007532403 -0.05828419
-0.027781911 -0.03421013 0.07035843 0.039058633 0.006901442 0.012376408 0.011229369 -0.004854836
-0.028943669 -0.010618404 0.014561722 -0.02638821 -0.03383357 0.011269795 0.028745255 0.005801387
0.028188797 0.017559329 -0.04166222 0.0120865675 0.02300322 0.02977959 -0.00083051214 0.03410898
-0.036362026 0.0012886884 0.02182244 -0.026999895 -0.014672432 0.0031236722 -0.014995279 -0.030324785
0.020110436 -0.03049097 -0.016059747 -0.022928832 -0.022310076 0.042856436 0.011803199 0.020302286
-0.0052444222 -0.008481426 -0.023485266 0.0050094896 0.03342379 0.013451807 0.02243213 0.018396962
0.00399409 -0.065833196 -0.032981474 0.027649375 -0.041826546 -0.007209586 0.0280394 -0.010344189
-0.023376647 -0.026842413 -0.026989866 -0.04195465 -0.0038356746 -0.010428 -0.008584672 -0.015604858
0.016637882 0.009734782 -0.018510815 -0.005732133 0.035136748 -0.04092788 -3.0517172e-05 0.011990644
0.0010711021 -0.0008710094 -0.02519962 -0.0054156277 -0.0015747423 0.00026807276 0.008053454 -0.026297014
-0.033043694 -0.0076862103 -0.012497185 0.02093289 0.0112519385 -0.01896627 0.013741248 -0.0413578
-0.032254603 -0.0018855556 0.017481754 -0.07408107 -0.044733927 0.01947605 0.03514788 -0.047504626
0.0050508273 -0.009281386 -0.026425024 -0.010342777 0.004561772 0.046816792 0.024874171 0.048417103
0.017336376 0.029372215 -0.04728842 0.011756918 0.011465059 0.034207888 0.010104988 0.011878998
0.0071177576 -0.020553298 -0.010879704 -0.019281628 -0.025997043 -0.046838537 -0.0055377753 -0.042672027
0.015731514 -0.018945798 -0.020837396 -0.02041379 -0.0018261422 0.023066755 0.0476409 0.023861438
0.04381712 0.026014693 0.043195687 -0.011288219 0.017435875 -0.027344849 0.008681594 0.010730709
-0.005243084 -0.033744194 0.039378814 0.0117105385 -0.025841251 -0.015273082 -0.017051699 -0.04701699
0.024092073 0.010787057 0.027898354 0.004765925 0.032470703 -0.0018346398 0.04048693 -0.015163802
-0.08081904 -0.022655986 0.02433899 -0.028592877 -0.010111519 -0.034231387 -0.030890606 -0.010977063
-0.011253624 0.061110545 -0.008714344 0.0063498532 0.0066724443 0.020812016 -0.02284568 0.02301631
-0.016242523 0.0015718325 -0.05211748 -0.017586453 -0.049030356 0.0064002285 -0.0004328965 0.0010001269
-0.019478356 -0.002165696 0.015182024 -0.010719149 0.013414225 -0.050255835 -0.012195179 0.012859558
-0.04698566 0.011917126 -0.025714014 -0.017876906 -0.018278955 0.041750055 0.07677007 0.018223526
0.006839988 0.014015006 0.056768116 0.011539893 -0.03521234 0.05626526 -0.020787936 0.018293526
0.008627529 -0.013794311 0.05028734 -0.017600903 -0.049474936 -0.009551803 0.01296553 -0.012595758
-0.010845983 -0.027894132 -0.029092198 0.017910225 0.005934928 -0.001591032 0.008566612 0.033589225
00000000: 5315 42bd 45d6 02bd 98ac 4b3c 801d eb3b
00000010: edc2 e83c 8ba3 953c 5692 223c f94c 193d
00000020: ae02 d7bc 9239 333d 28a8 ec3c 5437 3c3c
00000030: e0c8 ad3c bd8d 813c e776 3cbd 005d af3c
00000040: 8af1 543c a11a 87bc 3cc9 e4bb 0867 3fba
00000050: 1740 aebd 8205 2dbd a641 5e3c 4605 f73c
00000060: 04a8 4d3c 58e8 bd3c 7e05 febc 11a7 8d3c
00000070: 5037 453d 79d6 3cbd 0b45 adbb bb19 163d
00000080: 8fb9 9c3b f721 b2bb 7d43 a9bc cdf9 233c
00000090: 1ec5 bcbc 484b f03b 60d2 f63b 67bb 6ebd
000000a0: e496 e3bc ec1f 0cbd 1518 903d f2fb 1f3d
000000b0: 7e25 e23b 6bc6 4a3c 63fb 373c 5115 9fbb
000000c0: 461b edbc d0f8 2dbc 4a94 6e3c 162c d8bc
000000d0: 1295 0abd f2a4 383c 2b7b eb3c 9019 be3b
000000e0: 31ec e63c 95d8 8f3c 01a6 2abd bd06 463c
000000f0: 4071 bc3c 54f4 f33c bab6 59ba dcb5 0b3d
00000100: 59f0 14bd 35e9 a83a f9c4 b23c e22e ddbc
00000110: a464 70bc 86b6 4c3b c2ae 75bc af6b f8bc
00000120: a4be a43c 33c8 f9bc bb8f 83bc 3fd5 bbbc
00000130: 9fc3 b6bc 3b8a 2f3d 3462 413c fb50 a63c
00000140: 67d9 abbb aef5 0abc 2c64 c0bc a526 a43b
00000150: 62e7 083d f864 5c3c 96c3 b73c 3ab5 963c
00000160: dbe0 823b 8ed3 86bd 9517 07bd f180 e23c
00000170: 5052 2bbd 643e ecbb e2b2 e53c ac7a 29bc
00000180: 6280 bfbc 9fe4 dbbc da19 ddbc a4d8 2bbd
00000190: f15f 7bbb 34da 2abc b9a6 0cbc 85ab 7fbc
000001a0: 2b4c 883c a37e 1f3c fea3 97bc 9ed4 bbbb
000001b0: 8deb 0f3d fea3 27bd 21ff ffb7 6874 443c
000001c0: 3964 8c3a 7454 64ba 6f6f cebc 9475 b1bb
000001d0: 9567 ceba 1e8c 8c39 a2f2 033c d66c d7bc
000001e0: d358 07bd 9bdc fbbb fec0 4cbc 747b ab3c
000001f0: 0d5a 383c 275f 9bbc f922 613c cc66 29bd
00000200: 671d 04bd bf24 f7ba e535 8f3c d1b7 97bd
00000210: ec3a 37bd 3d8c 9f3c 39f7 0f3d 3694 42bd
00000220: 6981 a53b f410 18bc 4b79 d8bc c074 29bc
00000230: eb7a 953b f7c2 3f3d ebc4 cb3c 0351 463d
00000240: 0405 8e3c 009e f03c 81b1 41bd 17a0 403c
00000250: f1d7 3b3c 921d 0c3d 648f 253c 21a0 423c
00000260: 143c e93b 645f a8bc c940 32bc 81f4 9dbc
00000270: c0f7 d4bc c4d9 3fbd 3a76 b5bb ddc8 2ebd
00000280: 60df 803c 3834 9bbc 30b3 aabc d23a a7bc
00000290: 2a5b efba 7ef6 bc3c 1b23 433d 1079 c33c
000002a0: 9579 333d c41c d53c f6ed 303d 39f2 38bc
000002b0: aed5 8e3c 4e02 e0bc 3f3d 0e3c dbcf 2f3c
000002c0: 2dce abbb 5a37 0abd ae4b 213d 8fdd 3f3c
000002d0: 08b1 d3bc f33b 7abc 01b0 8bbc e394 40bd
000002e0: bd5c c53c 32bc 303c 178b e43c 7a2b 9c3b
000002f0: 0000 053d 4c78 f0ba a0d5 253d 9871 78bc
00000300: 7484 a5bd 0c99 b9bc 9062 c73c 9c3b eabc
00000310: c9aa 25bc 3636 0cbd 4c0e fdbc 24d9 33bc
00000320: 1f61 38bc 0d4f 7a3d 9cc6 0ebc 6e12 d03b
00000330: 85a4 da3b f67d aa3c dd26 bbbc b38c bc3c
00000340: 0a0f 85bc f205 ce3a 2479 55bd 7711 90bc
00000350: 0ed4 48bd 02b9 d13b 62f6 e2b9 b116 833a
00000360: 1391 9fbc 59ee 0dbb 06be 783c 5f9f 2fbc
00000370: 56c7 5b3c 10d9 4dbd 4ace 47bc e5b0 523c
00000380: 0974 40bd 0d40 433c 32a6 d2bc 9772 92bc
00000390: bfbd 95bc 1b02 2b3d a039 9d3d 8149 953c
000003a0: fa21 e03b 329f 653c af85 683d d211 3d3c
000003b0: d13a 10bd 6776 663d 764b aabc 4edc 953c
000003c0: 7b5a 0d3c 8901 62bc 19fa 4d3d c52f 90bc
000003d0: 3ba6 4abd 2a7f 1cbc 606d 543c 705e 4ebc
000003e0: 5ab3 31bc 3c82 e4bc c352 eebc 77b8 923c
000003f0: c979 c23b 2d8a d0ba fa5a 0c3c db94 093d

first_block.sa.heads.1.query.weight f4 [16, 64]
-0.015387539 -0.0029160264 0.013583539 -0.0030082841 0.027376175 0.012191073 0.0070916135 -0.042556845
-0.007999106 -0.014348192 0.044912808 -0.014003208 -0.023531381 0.033113346 0.017408464 0.06806606
-0.023391375 0.0057238336 0.021826725 -0.026669227 0.02745143 0.03807441 0.0044858805 -0.008014376
-0.055872735 -0.032227885 0.016479488 -0.001080762 -0.018849796 0.03937838 0.016000139 -0.01614391
0.026292272 -0.03043053 -0.05480775 -0.045857638 0.0036818518 -0.021974906 0.03192025 0.015247148
-0.045163646 0.051731985 -0.010835148 -0.041727774 -0.0034908033 -0.005817648 0.039666347 0.042863864
-0.019559529 0.048422776 0.013766346 0.013472037 0.00955122 -0.025567738 0.015287324 -0.008488109
-0.025253206 0.013442459 0.028209873 0.06130656 0.0044296226 -0.0030009102 0.03835325 0.02672088
0.006369039 -0.010271555 0.007099406 -0.06570621 0.016470643 0.009328808 -0.0056517143 0.03377469
0.038097575 0.03693456 -0.01329449 0.038946643 0.015065493 -0.00932582 -0.03392307 0.00759503
0.05134398 0.010503904 -0.033868164 0.018603949 -0.017311458 0.0101738935 0.0013390139 -0.027003398
0.07256983 -0.006297523 0.04132135 -0.027488122 0.038625967 -0.032609 0.0069346894 0.07671446
0.0045599486 0.004269269 -0.004391669 0.003216938 0.017666778 0.0039552753 -0.019651413 -0.03363177
0.012628142 0.012153467 0.046682034 -0.009622431 -0.03447319 -0.0070005725 0.035701882 -0.02459409
-0.030641085 -0.020118233 0.012152175 0.010973272 0.047682185 -0.07709328 -0.008143329 -0.02928129
-0.024565112 0.0034025034 0.009365688 0.007991319 -0.025339806 -0.013582134 -0.010125318 -0.012134339
0.028624034 -0.013317375 -0.05282225 -0.005505318 -0.0061848518 0.03905932 0.0011143374 0.013691813
0.03423443 0.017160175 0.052781496 0.0018105658 -0.01894934 -0.0268364 -0.056214467 0.014185129
0.03887044 0.047961637 -0.01383037 -0.014769361 0.01820785 -0.00466492 0.0023138532 -0.08024673
-0.0013923154 0.0069676084 0.019701164 0.0030871765 0.022525836 -0.040675964 0.0054013743 0.036293063
0.013702993 -0.001795279 0.0026463878 -0.03000413 0.018191162 0.026300047 0.012168959 -0.023808494
0.025419582 -0.011645795 0.032719735 0.041213404 -0.037295923 0.0029678126 -0.0024435353 -0.030618452
-0.011335641 0.030928444 0.008009765 0.06383448 0.044881772 0.011660469 0.0029163077 -0.026901657
0.014293221 -0.034331325 0.0010168857 0.028168445 0.016032062 0.04089101 0.0060505867 0.008639311
-0.061446022 -0.03266157 -0.031173646 -0.063531354 -0.01638263 -0.0017867915 0.014837541 -0.059023794
0.052729506 0.006803591 0.034271594 0.0042157797 -0.03658461 0.025539152 -0.02401813 0.038361806
-0.03151597 0.016667116 -0.010381774 -0.0032593017 0.010502725 0.019658044 -0.029629745 0.024412988
-0.04271591 0.016666502 -0.016693274 -0.0058436585 -0.018741723 0.011648281 0.01807429 -0.005518142
0.04142346 -0.02488163 -0.008645171 -0.0058257543 0.009251989 -0.022912916 0.00030431498 0.033515897
-0.017956628 0.011976853 -0.0072485674 0.04543302 -0.028704531 -0.038514633 0.0059069884 0.0016882822
0.01921046 0.04088501 0.008955696 0.034380402 0.01387191 -0.0101097785 -0.009202792 -0.013216753
-0.023650307 0.00550183 0.020475995 0.027740538 0.005231916 0.017794454 0.026855476 0.010040006
00000000: 041c 7cbc ce1a 3fbb 7e8d 5e3c a226 45bb
00000010: 0044 e03c 11bd 473c c460 e83b 1650 2ebd
00000020: af0e 03bc ae14 6bbc 7ef6 373d b66d 65bc
00000030: e2c4 c0bc dca1 073d 329c 8e3c 3866 8b3d
00000040: 459f bfbc ff8e bb3b f6cd b23c 6c79 dabc
00000050: d2e1 e03c eaf3 1b3d 4bfe 923b bb4e 03bc
00000060: cfda 64bd 6301 04bd feff 863c 5ba8 8dba
00000070: e36a 9abc 394b 213d b912 833c 3c40 84bc
00000080: e462 d73c 7249 f9bc 177e 60bd 38d5 3bbd
00000090: 394b 713b b804 b4bc cfbe 023d 2dcf 793c
000000a0: 84fd 38bd ebe4 533d e885 31bc beea 2abd
000000b0: f6c5 64bb f8a1 bebb 2e79 223d 0592 2f3d
000000c0: 4e3b a0bc f656 463d 3d8c 613c d2b9 5c3c
000000d0: b87c 1c3c 6f73 d1bc af77 7a3c b611 0bbc
000000e0: d0df cebc c23d 5c3c 6418 e73c 961c 7b3d
000000f0: 5e26 913b ebaa 44bb 4c18 1d3d bfe5 da3c
00000100: 5fb3 d03b 064a 28bc 22a2 e83b fa90 86bd
00000110: 71ed 863c dbd7 183c 0432 b9bb 5457 0a3d
00000120: 340c 1c3d b148 173d 22d1 59bc 8486 1f3d
00000130: 42d5 763c 53cb 18bc ebf2 0abd bbdf f83b
00000140: 114e 523d 9118 2c3c 58b9 0abd 4f67 983c
00000150: c2d0 8dbc 67b0 263c da81 af3a 3b36 ddbc
00000160: 7e9f 943d 745b cebb 9340 293d c52e e1bc
00000170: 4336 1e3d 0491 05bd 643c e33b 791c 9d3d
00000180: 9f6b 953b 39e5 8b3b fde7 8fbb 44d3 523b
00000190: ebb9 903c 419b 813b 00fc a0bc 78c1 09bd
000001a0: 44e6 4e3c 561f 473c a935 3f3d 67a7 1dbc
000001b0: c233 0dbd 0f65 e5bb 233c 123d 8c79 c9bc
000001c0: 0303 fbbc fece a4bc eb19 473c 3dc9 333c
000001d0: 654e 433d 15e3 9dbd 996b 05bc 51df efbc
000001e0: c63c c9bc 89fc 5e3b 8b72 193c 05ee 023c
000001f0: 6d95 cfbc 9987 5ebc a9e4 25bc 1bcf 46bc
00000200: f37c ea3c 1f31 5abc 255c 58bd f465 b4bb
00000210: 4caa cabb aafc 1f3d f50e 923a a053 603c
00000220: 6739 0c3d 7f93 8c3c 6931 583d 8250 ed3a
00000230: a53b 9bbc 03d8 dbbc 2441 66bd be68 683c
00000240: 9c36 1f3d 6c73 443d c798 62bc 31fb 71bc
00000250: a128 953c 2fdc 98bb 04a4 173b 6658 a4bd
00000260: 5a7e b6ba 8950 e43b 5664 a13c 3a52 4a3b
00000270: 1a88 b83c d79b 26bd 03fe b03b 09a8 143d
00000280: 8582 603c 914f ebba 056f 2d3b 39cb f5bc
00000290: a205 953c 3273 d73c 5060 473c 080a c3bc
000002a0: ba3c d03c 01ce 3ebc 2105 063d 63cf 283d
000002b0: 9cc3 18bd a27f 423b b823 20bb 8cd3 fabc
000002c0: 20b9 39bc a65d fd3c 643b 033c a7bb 823d
000002d0: f3d5 373d 8d0b 3f3c 861f 3f3b dd60 dcbc
000002e0: 1d2e 6a3c 019f 0cbd 0649 853a 83c1 e63c
000002f0: ac55 833c 557d 273d 0044 c63b e68b 0d3c
00000300: d3ae 7bbd 23c8 05bd e05f ffbc ba1c 82bd
00000310: de34 86bc c632 eaba 2819 733c efc2 71bd
00000320: e5fa 573d a8f0 de3b 5f60 0c3d 8624 8a3b
00000330: bed9 15bd 7c37 d13c abc1 c4bc 4521 1d3d
00000340: e416 01bd 7a89 883c 5118 2abc 029a 55bb
00000350: 9f13 2c3c e809 a13c 14ba f2bc bffd c73c
00000360: e1f6 2ebd 3088 883c 55c0 88bc 297c bfbb
00000370: 3e88 99bc 6ed8 3e3c 8910 943c 88d1 b4bb
00000380: a5ab 293d 8fd4 cbbc 7aa4 0dbc f8e5 bebb
00000390: a895 173c deb3 bbbc 778c 9f39 f747 093d
000003a0: c719 93bc 903a 443c 6485 edbb f917 3a3d
000003b0: c425 ebbc 85c1 1dbd 698f c13b 5a49 dd3a
000003c0: 415f 9d3c 0a77 273d e9ba 123c 77d2 0c3d
000003d0: 0247 633c 7ca3 25bc 4fc7 16bc 148b 58bc
000003e0: 4abe c1bc b248 b43b 46bd a73c 2040 e33c
000003f0: 7e70 ab3b adc5 913c 0400 dc3c d67e 243c
