IndexNetwork.pt (torch, 849903 bytes, 96 tensors)

token_embedding_table.weight f4 [39, 64]
00000000: 0acb 9f3c 4465 b7bc 2e07 e5bb 119f d6bb
00000010: 4e74 463c 6f49 483b 72ab 0e3d 5104 e73b
00000020: c8b5 293c 57c0 9f3b 45bc ad3c b3ea 5e3d
00000030: ab35 353c 85dd e0bc 9cad 13bd a258 273a
00000040: f606 16bc 0292 b33c 919b 6b3c 3794 a33c
00000050: ccc3 56bc 7d48 35bc b10c 9bba 1511 e0bc
00000060: 7e11 e63c fe49 97bb b0f0 143d 80f4 a6bb
00000070: a6a4 6c3b 5063 413c a699 ac3b 28b7 183d
00000080: bd15 ab3c adcc 1b3c 4da8 993c ae87 ad3c
00000090: e5c4 eb3c c5cf bf3c 945b 7abc 08a6 c1bb
000000a0: 1ecb d13c 55fc 023d bfc9 d73b 3e1d 153a
000000b0: 6fb3 24bb d1f2 a039 5290 b0bb 573a 65bc
000000c0: f1f5 debc dbf8 393c 7626 0b3c 7de3 ab3c
000000d0: cba0 ba3c 6c60 3bbd 7f64 84bc be1f e7bc
000000e0: 0c89 153d b887 cebb 3a8b 513c c150 5bbb
000000f0: 3f11 e0bc cee6 273c 8031 31bc 3dfb 463c
00000100: 5d87 87bc a452 2c3d 9ade c03c 14bd 60bc
00000110: c36e b73b 1d75 67bc 4026 a03c 8699 f7bc
00000120: 0aab 14bb 6a9a bbbc 7bc3 6b3d 44f0 6bbc
00000130: e6ad 1fbc 0417 0d3d c414 0abd d726 91bc
00000140: 9af2 b13c 6266 edba 86dd 873c b10f 123b
00000150: d968 b9bc 0136 6b3c 1f46 1f3c 89e2 b1bc
00000160: 342f 58bc c68b 243c 0fac 75bc 0a8b 813b
00000170: c116 ddbc f73e 833b e977 e6bc 6c67 003c
00000180: 04cd 7cbc ea73 c33c 00cb 52bc 8d23 b2bc
00000190: c876 023b 1743 7c3b 5c2e fe3a e937 3cbc
000001a0: 461d 7b3b 7171 ee3c 6e02 19b8 ac80 353b
000001b0: 97ea a93b fabe 9eb9 575a 09bc ad9b bd3c
000001c0: 15ed af3c 57cd 93bc 24ea 423d 57fb 36bd
000001d0: 6dd3 7cbc 8a35 8c3c 4fe9 aebc 96b6 853a
000001e0: e13e 503c 180f b6bc 07b7 46bd ed0b 70ba
000001f0: 7b18 db3b 32b1 5b3d 1537 9ebb 9b1c 853b
00000200: c8c4 b4bb 566a a0ba 524f 47bc af83 723b
00000210: 6346 293c 8732 adbc 853b 8f3c 6442 f83c
00000220: 72e7 1d3c 86ef 48bc 5070 513c b497 083c
00000230: 5cf0 aa3c 14d3 21bc f424 94ba e5d9 4839
00000240: 1da2 2a3c b444 963c ac8e 02bd 2511 29bd
00000250: 0bab 6dbc 4273 febb 3633 c2bb 1f6a da3b
00000260: 9d8b d73c 6f3e 30bb 64a2 59bc 19da b9bc
00000270: afc7 e83b 638d 16bc b9a5 eabc cc6e e43c
00000280: d14f db3c ebcc 0c3d b0e0 16bd 56be 98bc
00000290: 67f4 ad3c 2d60 c9bc 6fd7 9a3b ffd7 ebbc
000002a0: 58fd 9ebc f25c e2bb 1c98 14bc 355b f13a
000002b0: c150 eabc 11ba 15bd a2f0 e93b 8cc6 f3bc
000002c0: 0d2a 873c bb89 abbb 17c9 10bc 0503 83bc
000002d0: d2fd 52bd c80a c1bb 8e1e 083a c1c4 ce3c
000002e0: f8ff 0e3c 5663 123c d2b1 b43c e649 84ba
000002f0: 42e9 293c 307b f5bc cdc1 24bd 60e3 7a37
00000300: c341 a43c 9745 d33c 7e34 603c 0b21 ca3c
00000310: ec41 0bbc e1b5 3bb9 dda1 12bd b628 e53b
00000320: bc03 173c 2a2e 923b 0363 91bc 07c3 a7bc
00000330: 4dd7 783c f9ab 8d3b 777b c0bc dd31 cc3b
00000340: a5fb 0c3d 69e4 66bc c42b e1bc 7de0 09bc
00000350: 7910 bebc 284d 8dbd 9977 043c 13fd 233c
00000360: cdea 5e3c d341 b63c f562 223c 072e a3bc
00000370: 2c0c c53c dd70 f4ba eef8 b9bc 07d1 37bc
00000380: 3af0 4dbd 27cd 9bbc 32ed 4c3d 4bc6 d13c
00000390: b6b1 9a3b 10c0 273c 5df9 9abc c582 bfbc
000003a0: 5c11 a5bc 51b2 b8bb c025 43bb ee01 b7bb
000003b0: 6c94 f7bb acdf 57bc e44d b2bb 53c4 123d
000003c0: 224d 1b3a f2cc 7b3c d836 62bc 7241 adbc
000003d0: 2c81 bebb b8ea 943b 0aa9 0cbc 1703 9abc
000003e0: 9c76 173d 9f08 9eb9 e6b4 00bd f11e 613b
000003f0: 91b7 b7bc 2d09 933c 21db bfbc 960f e03c
0.019505996 -0.022387154 -0.0069893813 -0.006549724 0.01211269 0.0030561348 0.03483147 0.007050075
0.010358281 0.0048752236 0.021207938 0.054423045 0.011060159 -0.027449379 -0.03605424 0.0006383752
-0.009156933 0.021920208 0.014380352 0.019968135 -0.013108205 -0.011064646 -0.0011829344 -0.027351895
0.028084513 -0.004616975 0.03636235 -0.0050950646 0.003610888 0.011803463 0.0052673398 0.037284046
0.020884389 0.009509248 0.01875701 0.021182861 0.02878041 0.023414502 -0.015280623 -0.005909685
0.02560955 0.031978924 0.0065853293 0.00056882564 -0.0025131365 0.0003069849 -0.005388298 -0.01399096
-0.027216883 0.011350836 0.0084930565 0.020982498 0.02278175 -0.045746252 -0.016161202 -0.028213378
0.03650765 -0.0063028 0.012789542 -0.003346488 -0.027351974 0.010247899 -0.010815024 0.012144861
-0.016544038 0.042071 0.023543645 -0.013716955 0.0055979206 -0.014127043 0.019549489 -0.030224573
-0.0022684955 -0.022900779 0.05755947 -0.0144005455 -0.00974605 0.034445778 -0.03371121 -0.017718716
0.021722127 -0.0018112177 0.016585123 0.0022287185 -0.022633003 0.014356137 0.009721308 -0.021714466
-0.013194848 0.01004309 -0.014994635 0.0039533423 -0.026988389 0.0040053087 -0.02813335 0.007837158
-0.015429739 0.023858983 -0.012865782 -0.021745468 0.0019907225 0.0038492137 0.0019392478 -0.011487939
0.003831701 0.029106827 -3.6480305e-05 0.0027695103 0.005185436 -0.00030278397 -0.008383355 0.023145521
0.021475354 -0.01804225 0.047586575 -0.04467329 -0.015431267 0.017115373 -0.021351485 0.001020151
0.012710304 -0.022223994 -0.048514392 -0.00091570505 0.006686268 0.053635783 -0.0048283436 0.004062248
-0.005516622 -0.0012238722 -0.0121649075 0.003700476 0.010331723 -0.021142257 0.017484436 0.030305095
0.0096377 -0.012264138 0.012783125 0.00833695 0.020866565 -0.009876985 -0.0011302517 0.00019154658
0.010414627 0.018343307 -0.031874344 -0.041276116 -0.014506112 -0.0077652046 -0.005926515 0.0066654827
0.02631169 -0.0026892682 -0.013283346 -0.022687005 0.0071038823 -0.009188983 -0.028643476 0.027884863
0.026771458 0.034375113 -0.036835372 -0.018645447 0.021234704 -0.024581993 0.0047253887 -0.028789518
-0.019407913 -0.0069080526 -0.009069469 0.0018414023 -0.02860296 -0.0365544 0.0071392814 -0.02975776
0.016499544 -0.0052349246 -0.008837006 -0.01599265 -0.051511593 -0.005891178 0.0005192541 0.025240304
0.00872802 0.008934816 0.022057448 -0.0010092824 0.010370554 -0.029965967 -0.040223885 1.4954101e-05
0.020050889 0.025790019 0.01368439 0.02467396 -0.008499604 -0.00017901465 -0.035798896 0.0069933785
0.009217199 0.0044610696 -0.017747408 -0.020478738 0.01518805 0.0043234793 -0.023496373 0.00623153
0.034419674 -0.014092543 -0.02748669 -0.008415339 -0.023201214 -0.06899482 0.008085155 0.010009068
0.013605786 0.022248184 0.0099112885 -0.019919408 0.024053656 -0.0018649359 -0.022701707 -0.01121927
-0.050277926 -0.019018723 0.050030895 0.025607249 0.004720892 0.010238662 -0.018917734 -0.023377785
-0.02014988 -0.0056364913 -0.002977714 -0.005584947 -0.007555535 -0.013175886 -0.005441414 0.03583176
0.00059242744 0.015368687 -0.013807021 -0.02114937 -0.0058137383 0.004544582 -0.008585224 -0.018800301
0.03697835 -0.00030142532 -0.03142252 0.0034350718 -0.022426398 0.017948711 -0.023419918 0.027351182

position_embedding_table.weight f4 [16, 64]
00000000: 09ef 963a 184f 8e3c 09b6 89bc 5551 46bc
00000010: f61f 02bd 1e83 e23a dbad 9cbc c74a 26bc
00000020: 994b 4a3c 807d aebc a8db 10bd c24d a9bc
00000030: 702b ddbb 267e d83c d543 4b3b db45 09bd
00000040: c84a a93c 53c9 c43c 775a a2bb 897b a33c
00000050: e5ec 393c 5bf7 41bb cbe9 0cbb 86fd 353c
00000060: 271b 353c 857d 15bc ffd9 babc eb72 bc3c
00000070: 1c2e f7bc a9ce 34bc 0a6e dfbb 9959 bf3b
00000080: 7d59 dfba 0242 8b3b ccff 9c3b d2fa c9bc
00000090: fed0 3ebc b54f babc fe40 6a3c aa40 afbc
000000a0: 36a9 92bc 6e17 c63b 20d7 0dbd 5ba5 b23c
000000b0: e620 c13c 0a8c 03bd c95a f93c b5b0 17bc
000000c0: 6ab1 763c 6038 1cbc 2414 e13c e2e3 563c
000000d0: 3f78 083d 7b14 19bc de74 8a3c 9b70 cbbc
000000e0: 7abc 5fbc 014f 87bb f6b0 d83c 2b56 00bc
000000f0: fe1a 873c 2a59 013d 725b 38bc 6b8b 07bc
00000100: 0d7f c83b 7ba1 9b3c 1954 26ba fb7c 01bd
00000110: 5305 c1bc ff60 fd3c 9772 bfbb 1873 b73c
00000120: 9a5b 8abc 7e3d a83c b358 bfba aa69 3abd
00000130: d0c8 9abb e6b2 923b a3a1 6c3c 75a3 99bc
00000140: cf6f ce3c 821f 25bc 3620 8a3c 1f9b 303d
00000150: cef3 923c 5d8d 7e3a 83c5 33bc 327b 53bd
00000160: 317a a9ba 8072 d03c a1d3 5cbc 3346 263d
00000170: 590f d93c 3910 553b 7087 bfbc bb2e e53b
00000180: 45e7 833b 1201 523c 8e5b 43bc 25ab a13c
00000190: 5dec 66bb 1948 123d ae53 8cbb ad92 4e3b
000001a0: c152 cd3c 1664 d0bc e8d6 c0bb 7bac 19bd
000001b0: eaeb 823c b5d2 debc aa99 a13c c351 b4bc
000001c0: 78de ff3c e5ee 0b3d b778 15bc 6d28 9ebc
000001d0: 3f28 bfbb 3891 99b9 c4d5 05bc e849 87bc
000001e0: 6333 4ebb 741c 8abc a92a ce3b 2bff 8d3c
000001f0: 1c94 213c bef6 643b 999f 47bb bf99 a93c
00000200: b797 1bbc 789f 2e3c 2c88 383b 9352 b4bc
00000210: bb83 0fbc f2a6 c73b 8249 243d c55f 2abc
00000220: 7d3e 153d 0067 00bd 96be 0e3d debe 073d
00000230: df0a fb3c ec82 f43c 0bc1 973c 213b a03b
00000240: ef45 8ebc 2072 b23c d0cc e13b 1c3f 03bc
00000250: 62d8 01bd 1d2c 94bc 7f23 4ebc e307 7abc
00000260: 4eb8 983c 8e42 473c 45d4 85bc 063b 04bd
00000270: 931f 8e3c 3a94 303c b883 ee39 b44a 4f3c
00000280: 7594 d73b 50c4 c93c 0c6f 813c 456b 3dbc
00000290: 890b d1bc 7fbc 07bc c1ac 2bbb f0cf 973c
000002a0: d6d2 01bd 231f a0bc 54d7 e03c 4f81 6f3b
000002b0: 34d6 82bb 756a d83c ee3e d1bc 3bbd 10bb
000002c0: e10a 30bd 4964 dfba b3b8 383b 75e3 c03b
000002d0: bae9 eb3c 2d5b 883c 26a6 273d 3fc8 dc3c
000002e0: d6cc 67bc 3297 7abc 2bef 143c 2ca9 4dbc
000002f0: c786 0a3d 126b 4cbc e8ab 07bd d637 073d
00000300: ef9f 0cbb 2c1a 3bbb 183f c5bb 5a0a bf3b
00000310: 1c53 58bc 87a0 9c3a c54c fa3c 0082 efbb
00000320: 41bb a73b 99c3 cdbc b1a5 773c 6ef0 a0bb
00000330: 2c9e 4abd 08fc 97bc ad19 6e3c dfd8 153d
00000340: 7b00 b43c 9bc1 09bc 4b27 02bd 478d 8f3a
00000350: 4711 b73c 050e adbb 4e02 7abc a0b5 3cbc
00000360: d266 01ba 1dbe 67bc c16c 11bb ac29 e0bc
00000370: 7a7b aabc a4e1 8a3c 4cd3 6b3c eac9 04bc
00000380: c3f7 5fbb 59ca 9c3b 56b1 17bd 8a6d 4dbc
00000390: 0fc6 ad3a 1be5 fabc f6d7 dd3c 00aa f039
000003a0: 4fb3 9fbc ba6f 4bbc bee9 f63b a7e5 973a
000003b0: 0ba9 0f3d 3432 b43c c35d e63c ddb9 b23c
000003c0: 3466 e83b e0e6 36bb 48a9 63bb 9a1d fdbc
000003d0: 89fc 8a3c 6cc1 f83b 0e87 62bc 4e97 a1bb
000003e0: 350c 73bc 46d6 4d3b 16e7 8b3c bddb e03c
000003f0: c13d 0b3c a15a 553c cfb3 903c 2152 7abc
0.001151533 0.0173717 -0.016810434 -0.012104352 -0.03176876 0.0017281508 -0.01912587 -0.010149664
0.012347125 -0.021300077 -0.03536573 -0.02066696 -0.006749563 0.02642734 0.0031015773 -0.033513885
0.020665541 0.02402178 -0.004954632 0.019956367 0.011347984 -0.0029596898 -0.0021501656 0.011107808
0.011053837 -0.0091241645 -0.022809027 0.023004016 -0.030173354 -0.0110356 -0.0068185376 0.0058395383
-0.0017040219 0.004249812 0.0047912356 -0.024655733 -0.011646507 -0.022743085 0.014297722 -0.021393139
-0.017902952 0.0060452735 -0.034628987 0.021807363 0.023575258 -0.032115974 0.030438798 -0.009258439
0.015056947 -0.009534925 0.027475424 0.013115855 0.0333178 -0.009343262 0.01690143 -0.024833968
-0.013655776 -0.004129291 0.026451569 -0.007833044 0.016492363 0.031579174 -0.011252271 -0.008272986
0.0061186613 0.018997898 -0.0006344929 -0.03161333 -0.02356211 0.03093004 -0.0058425176 0.022393748
-0.016889382 0.020537134 -0.0014598578 -0.045510925 -0.0047236457 0.0044768928 0.014442834 -0.0187547
0.025199799 -0.010078313 0.016861062 0.043116685 0.01793852 0.0009710396 -0.010972383 -0.05163116
-0.0012930093 0.025445223 -0.013478191 0.04059429 0.026496576 0.003251089 -0.023380011 0.006994096
0.004025372 0.012817638 -0.011923684 0.019734928 -0.0035236098 0.03571329 -0.0042824363 0.003152053
0.025063874 -0.02543835 -0.005884994 -0.037518006 0.015981633 -0.027200082 0.019726593 -0.022011643
0.031234011 0.034163374 -0.009123019 -0.019306386 -0.005833655 -0.0002929063 -0.0081686415 -0.016514733
-0.0031463734 -0.01685927 0.0062917066 0.017333588 0.009861972 0.003493711 -0.0030460118 0.020703195
-0.009496621 0.0106581375 0.0028157337 -0.02201203 -0.008759434 0.0060928995 0.040109165 -0.01039881
0.036436547 -0.03134823 0.034849726 0.03314101 0.030644832 0.029847585 0.018524667 0.004889861
-0.017367331 0.021782935 0.0068908706 -0.008010652 -0.0317005 -0.018087441 -0.012581705 -0.015260669
0.01864257 0.012161864 -0.01633657 -0.03228285 0.01734904 0.0107775275 0.00045493036 0.012652088
0.0065789768 0.024629742 0.015800022 -0.01156122 -0.025518196 -0.008284687 -0.0026195499 0.01853177
-0.03169521 -0.019546097 0.027446426 0.003654558 -0.00399282 0.02641795 -0.025542703 -0.0022085446
-0.042979125 -0.0017043437 0.0028186261 0.00588649 0.028797973 0.016645039 0.040929936 0.026950954
-0.014147958 -0.015294837 0.009090225 -0.012552541 0.03381994 -0.012476699 -0.033122927 0.033012234
-0.0021457633 -0.0028549535 -0.0060194843 0.0058300914 -0.013203409 0.0011949696 0.030554185 -0.0073091984
0.005118758 -0.025117682 0.0151151875 -0.004911474 -0.04946725 -0.018552795 0.014532489 0.036583778
0.021972885 -0.008407976 -0.031775754 0.0010952138 0.022347106 -0.0052812123 -0.015259339 -0.011517912
-0.0004936281 -0.014144448 -0.0022190067 -0.02736362 -0.020810831 0.016953297 0.014393639 -0.008104781
-0.0034174777 0.004784864 -0.037034355 -0.012538323 0.0013257879 -0.030626824 0.027080517 0.00045903027
-0.01949468 -0.012416774 0.0075351885 0.0011588827 0.03507332 0.021996595 0.028120881 0.021817142
0.0070922617 -0.0027908608 -0.003473835 -0.030897904 0.016966121 0.007591417 -0.013826145 -0.004931367
-0.014834453 0.0031408234 0.017077964 0.02744853 0.00849861 0.013022096 0.017663864 -0.01527837

type_head.weight f4 [64, 1]
00000000: 6e95 963c ab7b 36bb 6d5d 33bc 0998 51bd
00000010: 8907 83bc abb5 5b3d 8ecd e8bc 9977 433c
00000020: b21c 923c 20d5 993c f6d5 fcbc e90c 5cbd
00000030: a5e7 1dbd bb2d 4f3d 7401 6dbc 93cc 193d
00000040: dfdf 383b 3354 603d 3964 183d 3f56 c0bc
00000050: 588e 7ebd ee29 94bc 1b6c 753b 9388 a23c
00000060: 8459 103c 00b5 b03c 4295 d33c 0460 5dbc
00000070: ea06 f13c 16ea f03c a26c 013d c52e 753c
00000080: e0f4 af3c 0242 c93b 73ec 99bc d80c 12bd
00000090: 8ad0 ddbc 5d93 be3b fd9c 393c cea9 973c
000000a0: 51dc 5a3d 0102 eabb 03d5 5cbd 9c6a de3c
000000b0: 68a7 383d 1a06 273d b4cd a23b 795d 2bbd
000000c0: 2530 dfbc 7348 b6bc ca21 81b8 7cb3 c1bc
000000d0: 62b4 05bc 5699 b73c c997 f0bc affc 21bd
000000e0: 6255 c3bc df4e 00bd a578 093c 4c9e 0bbc
000000f0: 53ef 103c 31e9 25bd 521f 9ebb 50ed c93c
0.0183818 -0.0027844708 -0.010947567 -0.051170383 -0.015994804 0.05364005 -0.028418329 0.01193037
0.017835949 0.018778384 -0.030863743 -0.05372325 -0.03855099 0.05058072 -0.0144656785 0.037548613
0.002820961 0.0547678 0.037204955 -0.023478625 -0.06214747 -0.0180864 0.003744847 0.019840514
0.008810405 0.021570683 0.025828008 -0.013511661 0.029422242 0.029408496 0.03159774 0.014964764
0.02147907 0.006141902 -0.018789506 -0.03565678 -0.027076978 0.005815907 0.011328933 0.018513586
0.053432766 -0.007141352 -0.05391408 0.027150445 0.045081526 0.040777303 0.0049683694 -0.04183719
-0.027244637 -0.022251343 -6.157493e-05 -0.023645155 -0.008160682 0.022411983 -0.029369252 -0.03954762
-0.023844425 -0.031325217 0.00839058 -0.008521628 0.008846122 -0.04050559 -0.004825511 0.024649292

type_head.bias f4 [64]
00000000: 9ae9 13bb 91f3 d9ba 08bf 51ba 55ff d8b9
00000010: 2fca 59bb 7bbc ecba 7c47 ff3a bb26 00bb
00000020: f867 4838 983c 82ba 78df 173a e9e2 38ba
00000030: 4ba7 743a 29b6 ac3a a2d4 95b9 ab09 97ba
00000040: 2ab8 29b9 9942 9e3a 3507 d43a dd7c 3bba
00000050: 1445 b13a eef9 163b 04ef 1a39 c9a6 09bb
00000060: 2a0c e7ba 3b6b 933b d0fb 1336 db5e 5d39
00000070: 3246 3eb9 339f 00b7 99af 85ba 05f7 81bb
00000080: fa83 beba 41d4 7d3a 961c aeba 5abf ffba
00000090: f61a a8b9 ee92 8239 1fa9 5eb8 08d1 1f3a
000000a0: 59eb 463a 7427 1339 5ebe a2ba 0aea 883a
000000b0: 9b5a 28bb 1427 04bb b422 e3ba 8910 e7ba
000000c0: c77a 983b 7623 cdba 52b2 18bb 3e35 81b9
000000d0: f67e 1a3a cdbc abba 02fd b8b8 5979 ec3a
000000e0: c7c4 18bb 54bc f23a 2e1c 4c39 bcf5 57ba
000000f0: 4d49 ed3a 3075 063b 1974 3fba 0cd0 813a
-0.0022569657 -0.0016628375 -0.0008001183 -0.00041388968 -0.0033232083 -0.0018061543 0.001947626 -0.0019554335
4.7780544e-05 -0.0009936271 0.00057934923 -0.0007052855 0.000933279 0.0013176847 -0.00028577918 -0.0011523267
-0.00016185702 0.0012074291 0.0016176464 -0.000715209 0.0013524615 0.0023037153 0.00014775625 -0.0021003953
-0.0017627527 0.004498867 2.205128e-06 0.00021111539 -0.00018145962 -7.666461e-06 -0.0010199427 -0.0039662146
-0.0014535182 0.00096828124 -0.0013283666 -0.0019511983 -0.00032063544 0.00024905003 -5.308643e-05 0.0006096517
0.000758817 0.0001403371 -0.0012416353 0.0010445726 -0.002568877 -0.0020164894 -0.0017329068 -0.0017628829
0.004653308 -0.0015650827 -0.0023299647 -0.00024644466 0.00058935524 -0.0013102532 -8.82093e-05 0.0018041536
-0.0023310648 0.0018519261 0.00019465454 -0.00082382164 0.001810351 0.0020516627 -0.00073033717 0.0009903922

first_block.sa.heads.0.key.weight f4 [16, 64]
00000000: 665c 6b3d 0a96 c53c d173 5bbd dc44 fabc
00000010: c041 033c 35a2 d8bc 8c8d 17bc 10b7 e8bc
00000020: 5a98 113d 4579 063d da50 123c 83df 163d
00000030: 9cae 183d 52c9 203b 4478 c6bd 974f f53c
00000040: 500f 8fbd d349 70bb 82bd 2cbd d52a a5bc
00000050: a005 e5bc 39bd 22bd 1be6 303d 821c 45bc
00000060: 1ddc 013d 4a08 0b3c 96f4 413d a834 24bb
00000070: 4ed9 b2ba deae 543c 34a4 113a 2a81 423c
00000080: 1b93 dc3c 6a40 3f3d 258b 9e3d f814 043d
00000090: 0062 70bc 5f00 0c3d e07b c0bc 484c 24bc
000000a0: 4597 88bc c044 103d 8218 c03c 8148 88bc
000000b0: 7830 57bc 297e 82bc 186c b6bd 6572 bcbc
000000c0: 59f8 4fbd ef19 173d 91d3 143d be7d b73c
000000d0: 3568 9ebd dfa2 ebbc 57e0 2c3d 95c4 f4bc
000000e0: 0fa8 0f3d 1305 88bc dd44 6a3c 9880 1e3d
000000f0: 8c37 3abd fac8 d8bc 973a efbb 8a7e 163c
00000100: b00a 14bd 4a8b 69bd 2b99 db3c 189c 823c
00000110: ff9a e9bc 8955 7e3c ad70 04bd a2d3 c0bc
00000120: ce63 75bd 7c15 e53c 0f4a c5bc 1552 3ebc
00000130: 7734 45bd 2a32 15bb ef6e f23c 16cf 31bc
00000140: d7c5 b73c 486e e2bb 11e5 af3c 0387 293c
00000150: 4d4f e83c 5b95 74ba 17c1 94bb dd7a 4fbb
00000160: c487 19bd c86f dcbc b1d8 edbc 0e5f 28bc
00000170: 0be4 09bd 8d5d 2cbc f5d8 98bc dd98 6ebc
00000180: f7d1 5a3b 7359 cbbc 2d3a 4ebb 39ea 57bd
00000190: fc4b 7c3c 1c3e 1cbd d7aa cb3c 3780 3cbc
000001a0: 156d 7f3d 0cc4 1cbd cbe6 37bc 0751 69bc
000001b0: 9e1c 543d c7f9 ec3b 7a5b 393d 8593 253c
000001c0: 054c 593d 06cb 08bd c097 14bc f02e abbc
000001d0: 1e88 4c3d bc56 47bc d6fd c83b 4920 3f3c
000001e0: 7bab 01bd 8dc5 443d fd22 34bd 1535 1c3d
000001f0: 94d9 293d b88f 543c 1202 8f3b a7b9 f8bb
00000200: cd1a 413b 9943 cfbc 63fd 11bd 5888 d7bc
00000210: f347 a73b 8af1 fabc cdb7 ba3a bb96 d53b
00000220: c97f 7d3b 45b1 303d 98b0 8c3b f66e dc3c
00000230: e0ef 9f3c e9de 133b 7f91 16bd c91f 953c
00000240: 8f0f 80bd 9be3 43bb 6df2 353c 1f23 7cbd
00000250: 5a61 1ebd a28f c7bc c1f4 d73c d9e7 caba
00000260: d00f db3c f7f0 3dbc c589 133d c09e 5aba
00000270: 88c4 d93c e398 e13c 91c1 3bbd 1513 a63c
00000280: 8fc5 f03c 0029 223d b7f2 3c3d 268d 71bc
00000290: 2821 02bd 221b 4c3c 5afe a53a bb33 e7bb
000002a0: 40b4 abbc fda4 0c3d 2225 0d3a 9457 1b3b
000002b0: 1c88 203c e183 ecbc 85a1 67bd f8dd b43c
000002c0: 9b01 a9bd d874 9d3c 4139 5d3d ef30 123d
000002d0: adcf 61bc c845 87bc d7e5 1d3d e00f 08bd
000002e0: c559 1a3d 9044 40bd 1f41 82bc e5a2 22bd
000002f0: b1c6 dabc 8ae5 70bd 9f93 5f3c 44d7 033d
00000300: 9949 3f3d c9b0 c2bb de14 7dbc 64b0 803c
00000310: 1fa1 7cbc 12c9 66bb fc81 b6bc bbdb 1cbd
00000320: 1546 a83b 0c67 e03b 983d 5bbc b35b d03c
00000330: abf5 993d 1fc4 7b3c 17a1 0bbd 498f 32bc
00000340: 558c 4dbd 10bc 8bbb 58cc 1c3c bca1 babc
00000350: d5b5 89bd 53e6 203c 9a00 13bc 77e0 45bc
00000360: c3aa 733d 8ec8 df3b b562 273d 83a6 d5bc
00000370: 8855 dc3c 5803 de3b 1548 353b 4857 e93c
00000380: aa8c 053d cea2 87bb b96b 023d 5168 b63c
00000390: 77cd 09bd 7789 173d 5ee8 15bd 6297 51bd
000003a0: 9529 cf3b 2216 883d 5b80 383c 45b8 3d3c
000003b0: 6753 a1bc 7c38 a23b d268 36bd cca6 67bd
000003c0: cfbf 9fbd 682d 04bd 3001 07bc 63b5 3dbb
000003d0: 83d0 8ebd d716 9f3b e37c 0a3d bca3 45bd
000003e0: aad1 713d fbe3 37bc 0e17 df3c 4aab 0c3d
000003f0: 7f26 bfbc 887d 0f3c f9bb cebc 646c 023d
0.057461165 0.024119396 -0.053577248 -0.030550413 0.0080112815 -0.026444534 -0.009250056 -0.028407604
0.035545684 0.032830495 0.008930409 0.03683425 0.037275895 0.0024534059 -0.096909076 0.029945178
-0.069853425 -0.0036665096 -0.042172916 -0.020162025 -0.027956784 -0.039731238 0.043188196 -0.012030723
0.031704057 0.008485863 0.047352396 -0.00250558 -0.0013645084 0.012981145 0.0005555779 0.011871615
0.026925614 0.04669229 0.077413835 0.03224656 -0.0146718025 0.03418004 -0.023496568 -0.0100279525
-0.016673693 0.035221815 0.023449186 -0.016636135 -0.013134114 -0.015929298 -0.08907336 -0.023003766
-0.050773952 0.036889967 0.036334578 0.022398826 -0.0773472 -0.028764186 0.042206135 -0.029878894
0.035072383 -0.016603982 0.014298645 0.038696855 -0.04546313 -0.02646302 -0.0073006856 0.009185443
-0.036143005 -0.057017602 0.026806435 0.015943572 -0.02851629 0.015523323 -0.03233402 -0.023538414
-0.059909634 0.027964346 -0.024083165 -0.01161625 -0.048145737 -0.0022765496 0.029593913 -0.010852596
0.022433205 -0.006910119 0.021471532 0.010347131 0.028358126 -0.0009330117 -0.0045396197 -0.0031658926
-0.03748299 -0.02690877 -0.02903399 -0.010276569 -0.033664744 -0.010520351 -0.01865814 -0.014562813
0.003338931 -0.024822926 -0.003146778 -0.052713607 0.015398975 -0.03814517 0.024861736 -0.011505178
0.062359888 -0.038272902 -0.011224459 -0.01424051 0.051785104 0.007231924 0.045253254 0.010105972
0.053051013 -0.033396743 -0.009069383 -0.020896405 0.0499345 -0.012166675 0.006133775 0.011665412
-0.031657677 0.04803996 -0.04397868 0.03813656 0.041467264 0.012973718 0.0043642605 -0.007590491
0.0029465437 -0.025300788 -0.03564204 -0.026310131 0.0051050126 -0.030632753 0.0014245451 0.0065182126
0.0038680902 0.043137807 0.0042935126 0.026908379 0.019523561 0.0022563285 -0.03675985 0.018203633
-0.062529676 -0.0029890302 0.011105162 -0.06155693 -0.03866706 -0.024360482 0.026361825 -0.0015480473
0.026740938 -0.011593095 0.03602006 -0.00083396956 0.026582971 0.027538722 -0.045838896 0.02027277
0.029391078 0.039589882 0.04612991 -0.014743125 -0.0317699 0.012457641 0.0012664304 -0.0070557273
-0.020959973 0.034337033 0.00053842564 0.0023703324 0.009798076 -0.028871479 -0.05655052 0.0220785
-0.08252259 0.019220755 0.05400968 0.035691198 -0.013782424 -0.016512766 0.03854927 -0.033218265
0.037683267 -0.046940386 -0.015900193 -0.03970613 -0.026706072 -0.058812656 0.013646035 0.032187715
0.046701048 -0.0059414846 -0.01544687 0.01570911 -0.015419274 -0.0035215062 -0.022278778 -0.03829549
0.0051353076 0.0068482216 -0.013381384 0.02543435 0.075175606 0.015366583 -0.034089174 -0.01089842
-0.05018266 -0.004264362 0.009570204 -0.0227822 -0.06724135 0.009820539 -0.008972311 -0.012077442
0.059489023 0.006829328 0.04086562 -0.026080376 0.026896253 0.006775301 0.0027661372 0.028484002
0.03260485 -0.004139281 0.031841014 0.022266539 -0.033643212 0.03699633 -0.036598556 -0.05116976
0.0063220956 0.066448465 0.011261071 0.011579578 -0.01969309 0.004950581 -0.04453356 -0.056555554
-0.078002565 -0.032269865 -0.008240029 -0.0028947226 -0.06973364 0.0048550176 0.033810508 -0.048251852
0.05903784 -0.011223788 0.027232673 0.03434304 -0.023333786 0.008757956 -0.025236117 0.03184165

first_block.sa.heads.0.query.weight f4 [16, 64]
00000000: 8631 d13b 7380 893d 9fe9 10bc d301 283d
00000010: 8c5a c139 8e4c 6b3a 3526 afbd d402 69bc
00000020: 8380 0bbd b744 c43b 2632 2cbd cadf 8cbd
00000030: 76fc b4bb fae8 8d3c ced8 5f3d f425 f2ba
00000040: 3354 c93b 6847 80bd e149 0fbd 078c f2bc
00000050: 1f73 8b3d afb7 813c d534 78bc fd6e 8c3d
00000060: 1c19 e1bc 23de 2f3d 6e04 46bd b20c da3c
00000070: e3ec e5bc 1779 0e3c a45a 833b c6a8 5bbd
00000080: 63ce 66bc 3b8f 0dbd 9dc7 35bd 21c9 7ebd
00000090: 2d5e c1bc e608 17bc bd11 aa3c 8057 55bc
000000a0: 9b1e 4abd f60a bfbc 2720 623c fe6f 5b3d
000000b0: 5e76 c73c 25ea 043b dbf1 b73c 760e 60b9
000000c0: f901 ee3c c237 0bbd bc01 ccbc 9794 5bbc
000000d0: 33e9 27bd 678a 9f3d 7c6f 133c 8925 093d
000000e0: 578b 72bd 23f5 423c cca2 59bc 6eba 893d
000000f0: 3eae cd3b 9b94 42bc 6170 be3d 68c2 78bc
00000100: b41e 373d a2c2 6fbd 91d0 14bd 21ab d4bb
00000110: fb78 683c 3f02 81bc e015 963d 9a4c c93a
00000120: a892 4c3c 8e45 62bb 0e71 da3c 50da 293d
00000130: 536c 023d 8672 41bd 3d34 10bd e12c 233c
00000140: 2bb4 37bd ed7d 193d aec3 7abc 55e0 7f3c
00000150: e21f 78bd 56aa 383c 665b e73c 97b1 a7bd
00000160: 5659 0e3d a078 06bd a5f0 933c 98e9 fcbc
00000170: 5185 3fbc 63cb 2b3d 7668 743d a861 f23c
00000180: 7c7a ff3c 29fc 803d 04a8 a93b 035c 093c
00000190: 09f0 093d e229 103d 100f a13a 4b8d 783c
000001a0: 7449 e3bb 4a4a 513d 51a7 4abd 0ee8 80bb
000001b0: 04b1 cab9 9e9c f73c 0087 773c d306 21bd
000001c0: 45b4 20bd 5c0b fd3b 0bd5 4c3b 3d6b 1e3c
000001d0: 63b4 523d a48b 86bc 21e3 403c 185a b0bc
000001e0: 7def 753d 5c5c 84bc f447 cf3c adec 66bd
000001f0: 05a1 60bc 95ee 10bc 42a3 0abc a991 91bb
00000200: 53c7 50bb e17b 563c 393c 76bc 10ed bf3c
00000210: 50ce 063c 7812 d03a 31fb 31bd f4b3 8bbc
00000220: fcbc 793b ec64 573c 796b e139 767f 56bd
00000230: 66eb 74bc f2e0 743b 7786 763d 7702 cdbb
00000240: c9b9 e9bb e803 44bd c33c 9abb a9f6 0abd
00000250: 6d6c 2d3d 5dcc b13c ccee afbc 41dc 973c
00000260: c460 76bd 6c17 db3c 6ae9 c43c 37ff f93c
00000270: ae12 99bc 2719 5b3c e410 c1bc dcde cbbc
00000280: 631a 6dbc 3e1d e0b9 d787 febc 59a8 9bbd
00000290: aa82 36bc 739c 6ebd bfe7 b73c 65ca 853b
000002a0: 7476 89bc 90e6 883c 8ce7 ce3c 74df 903c
000002b0: 3537 ee3c a2f2 5dbd 44f0 093d 6b4f dc3b
000002c0: ea1c cb3c 0548 8e3c 2408 f4bc d2df adbc
000002d0: 3188 82bc 9e7e 0c3d e35c 3bbc 67c3 d33c
000002e0: a942 f5bc a092 8abc dcef 26bc 3061 713d
000002f0: 12ad 833c 6197 6f3b bf87 3a3d e283 dc3b
00000300: 804d e2bc bcd7 0f3d b316 8f3b d2c1 d63c
00000310: 795a b43c 91d6 353c 7198 80bd ef99 d2bc
00000320: 25a2 823c bae5 c1bc ebbe 0ebd 8685 15bd
00000330: 171c 95bc aad4 263b b123 8e3d b3c0 8abb
00000340: e118 01bb 58fe 83bd 7556 04bb 99ed 6bbd
00000350: 86fc e63b b0ec 533c 4abe ae3c 077e 1c3d
00000360: ad2f c1bd e552 2f3b 3f85 a7bc 87aa ab3d
00000370: e347 91bc e670 8d3c f9ca 383d ca71 0fbd
00000380: 4b8e 52bc 7ab5 42bc b697 55bd 76f3 66bd
00000390: cea6 30bd f9e9 bbba 686f db3c 643e 183c
000003a0: 9bbc 42bd e367 57bd df16 893c 11ae c53c
000003b0: 5304 58ba da0f 40bd 7184 603c 9c89 c6bb
000003c0: 00c1 bd3c 7ff2 1bbd 50d4 8ebc 72f5 48ba
000003d0: ad58 48bd 15b7 283d 86d0 6a3d 37d3 c33c
000003e0: a88c 94bd f24c a83b e069 16bb 3184 503d
000003f0: a833 cc3b d88a 053d cb20 773d 36c5 05bd
0.0063840775 0.06713953 -0.008844762 0.041017365 0.0003687929 0.0008975946 -0.08552209 -0.014221866
-0.034058105 0.0059896368 -0.042040013 -0.06878622 -0.0055232598 0.017323006 0.05465012 -0.0018474446
0.0061440705 -0.0626362 -0.034982566 -0.029607786 0.06809067 0.015834657 -0.015149315 0.06857107
-0.027477793 0.042936455 -0.04834407 0.026617382 -0.028067058 0.008695862 0.004008608 -0.05362775
-0.014087292 -0.034560423 -0.04437982 -0.06220353 -0.023604477 -0.00921843 0.020760411 -0.01302135
-0.049345594 -0.023320656 0.013801611 0.0535736 0.024348434 0.0020281163 0.022454193 -0.00021367692
0.029053675 -0.03398872 -0.02490317 -0.013402126 -0.04099388 0.0779007 0.008998748 0.033483062
-0.059214916 0.011899265 -0.013283443 0.06725012 0.006276875 -0.011876251 0.09298778 -0.015183069
0.044707015 -0.058535226 -0.036331717 -0.0064901267 0.014189 -0.015748141 0.07328391 0.0015357912
0.012486137 -0.003452632 0.026665237 0.041467965 0.031841587 -0.04722836 -0.03520607 0.00995943
-0.044849556 0.037473608 -0.015305443 0.01561745 -0.06057728 0.01127108 0.028241824 -0.081881694
0.034753166 -0.03282988 0.018059084 -0.030873105 -0.0116895 0.04194201 0.059669934 0.029587582
0.031186335 0.06298096 0.0051774997 0.008383754 0.03367618 0.035196193 0.0012287814 0.015170406
-0.0069362465 0.05109624 -0.04947597 -0.003933913 -0.0003866033 0.030226048 0.01510787 -0.03931315
-0.03923442 0.0077223014 0.0031254913 0.009669122 0.05144156 -0.016424008 0.011772902 -0.021527335
0.060042847 -0.016157322 0.025302865 -0.056378055 -0.013710265 -0.008845945 -0.008461775 -0.004442413
-0.0031857088 0.0130910585 -0.015029007 0.02342847 0.0082279 0.0015874645 -0.043452445 -0.017053582
0.0038107028 0.01314662 0.00042995418 -0.05236765 -0.0149487015 0.0037365523 0.06018683 -0.0062563973
-0.007132743 -0.047855288 -0.0047069504 -0.03392664 0.04233973 0.021703893 -0.021476172 0.018537642
-0.060150877 0.026744567 0.024037082 0.030517204 -0.018685665 0.013372696 -0.023567624 -0.024886541
-0.014471623 -0.00042746397 -0.031070633 -0.07600469 -0.011139551 -0.05825467 0.022449372 0.004082965
-0.016780116 0.016711503 0.025256895 0.017684676 0.02907906 -0.05418647 0.0336764 0.0067233345
0.02479406 0.017368326 -0.029789038 -0.02122489 -0.015934082 0.03430044 -0.01143572 0.025850011
-0.029939013 -0.01691562 -0.010189023 0.058930576 0.016073737 0.0036558735 0.045539614 0.006729589
-0.027624846 0.03511785 0.0043667196 0.026215468 0.022015797 0.01109852 -0.06279076 -0.025708167
0.015946457 -0.023669112 -0.034850042 -0.03650429 -0.01820187 0.0025456348 0.06940401 -0.0042343973
-0.0019698667 -0.064449966 -0.0020193134 -0.057599638 0.007049146 0.012934849 0.021330971 0.038206127
-0.094329216 0.002675229 -0.020449279 0.08382135 -0.017734474 0.017265748 0.045115445 -0.035020627
-0.012851308 -0.011884088 -0.052146636 -0.056384526 -0.043127827 -0.0014336697 0.026786521 0.009292219
-0.04754315 -0.05258931 0.016734539 0.024130853 -0.00082403905 -0.046890117 0.0137034515 -0.006058885
0.023163319 -0.03807306 -0.017435223 -0.0007665969 -0.048912693 0.041190226 0.05732777 0.023904426
-0.072533906 0.0051361257 -0.002295129 0.050907318 0.006231744 0.032603115 0.06033401 -0.032658778

first_block.sa.heads.0.value.weight f4 [16, 64]
00000000: 81b5 e9bb bafc a23a c871 143c f089 293c
00000010: b1e2 753c 3c49 503d b5ee 08bc d312 1239
00000020: 8b6c ccbb eff8 9bbc 5ee4 04bd c5d9 d9bc
00000030: 1227 abba 9ec7 113d 53a9 f93b 82ab 1bbd
00000040: ae1a 693b c278 323c 4309 373c a8e3 f03c
00000050: 7e7e debc 6b0f 5c3c e227 33bc 4b75 91bb
00000060: c47f 0aba 3e1c f93c 9ed6 ab3b 881d 843c
00000070: 9715 fdbb af47 1dbc cce6 223c 8e2c c9bb
00000080: d685 22bc 168e da3c 5650 ec3c 52a9 013d
00000090: 88bd 25bc 82fb f03c bde6 f3bb 3b7e 44bc
000000a0: a15b 6bbc 652f b7bb 8222 56bc 5e73 813c
000000b0: 00af 2fbc d61e b8bc 9795 abbc 351d 16bc
000000c0: 940f 583c 209b 54bd f713 26bc a86b f23c
000000d0: 8279 2e3d f2c2 783c 1f57 fbbc ee83 053d
000000e0: c2c1 2b3d f82d fdbb 95ef 213d 5c57 a0bd
000000f0: a93a a4bb d2fe 17bc 8cff 87bc ea27 3c3c
00000100: fa19 26bc b787 dfbc b50a 0fbc 9b87 22bd
00000110: a272 9e3c 2cb4 453d 2814 b9bc 877b 5abc
00000120: 25b1 d4bc ebae c63c 62ff 583c e3c5 1b3d
00000130: a14b 003d dfba 45bb 3fb6 023c 6a0f 863b
00000140: d763 cbbb 9d32 5ebc a338 ad3c 345e 96b9
00000150: 31fc 4bbc 6b17 b3bc cd45 1abc 03ba 00bc
00000160: fc64 bbbc 10b1 bd3a 5881 913c 20fa b3bc
00000170: c8df 4a3a f2c8 0cbd 1c1e fa3b 5a5b 483c
00000180: a896 16bc 7a3e 8bbd 0af8 2a3c 6412 a1bc
00000190: d2e9 053d c4cd e83a 4830 523d a463 b23b
000001a0: 1342 363b 7654 74bc e4d4 80bd dac4 943b
000001b0: 0d51 443d bad8 0e3b 35f3 523c f7ef 9e3c
000001c0: 5719 0e3b b634 003c cc44 a139 f89b 8d3c
000001d0: 6591 1b3c 0ada 60bc 9491 9c3c 6abc a4bc
000001e0: f904 8abb 5899 133d e3f6 21bc 7334 713c
000001f0: c078 9e3c d9d7 1d3c 6002 873c 5227 963b
00000200: 5558 9b3c 92eb 3b3c 48d5 ddbc b555 80ba
00000210: 4136 433c 0e7d 95bb 0d85 a1bc 4c8c c4bc
00000220: 6eaa dabc de61 c33c dda9 ac3a ddd4 b3bc
00000230: 8975 833b b8bc a93c ae77 9cb9 aa13 ffbc
00000240: caeb 98bc fce1 203d cf98 493c 323d a63c
00000250: dd09 2e3c 0683 d13a a844 a93b e5d8 94bb
00000260: 1143 73bc a8a0 84bc 0854 c23c d68a 813c
00000270: e3d7 45bc a3e2 89bb 8e39 28bb 5fe9 0e3c
00000280: 23aa 4abd 2b15 b83c 7a5c 03bc e121 2c3d
00000290: ff79 02ba 2f90 ee3a 4f2f 09bd f8d4 433c
000002a0: 5770 2f3d 1bda 8c3a 0b22 503d 3d8e 10bc
000002b0: 4c12 ed3c 60f3 1bba 7932 873c 9a6d acbb
000002c0: 9b76 643c 5d29 123b 89a8 c33b 0287 bbbc
000002d0: d390 823c 6daf c8bb 0bdb d73c da81 923c
000002e0: 9825 c23b fc85 e8bc c9a7 6bba 5b0e 153d
000002f0: b462 6ebb df89 6d3c 49d2 003c aba2 97ba
00000300: 7861 e73a e9ac cbbb 81a4 4ebc 0ae1 02bd
00000310: 4699 02bc 4b08 9e3c b016 61b7 e66b a73b
00000320: a984 5f3c 2be3 c43c 2a50 3dbc 54f0 c83b
00000330: c329 d83b ab38 8fbc f5f1 e1bb 2106 c8bc
00000340: 5e70 ac3b aba7 dfbc 29a0 00bd 26cb ef3c
00000350: d59f c8bc 7973 a2bc b4db cabb 110f 913b
00000360: fe68 b43a af1f c33c 910d 6f3d 57ab 2dbc
00000370: 99e2 893c d28f 183d ddf6 a6bb e72c 013c
00000380: edea b83c ade1 483c fdd5 a8bc 44c7 793c
00000390: 4551 0bbc 3d18 b5ba 2ce8 0f3c d5b8 96bc
000003a0: 8df3 7d3c 8182 ed3b 2316 033c e5fc 333d
000003b0: 6e51 dc3b 3cdd beba c0b0 a33b 209f 103d
000003c0: 9566 b43c 10c8 4cbc 9489 213c d5a8 023b
000003d0: e64b c03c ccb2 9a3a ef41 37bd c8e4 163b
000003e0: c76d 53bc 26b3 583d 8975 b2bc 918a 083d
000003f0: 8928 7dbc 745a 963c 331f b6bc 6837 303b
-0.0071322327 0.0012434938 0.009060331 0.010347828 0.015007661 0.05085109 -0.008357693 0.00013930658
-0.0062385253 -0.0190396 -0.03244435 -0.026593098 -0.0013057909 0.03559076 0.007619062 -0.03800536
0.003556888 0.010893049 0.011171642 0.02940543 -0.027159926 0.01343141 -0.010934802 -0.0044390312
-0.0005283321 0.030408975 0.00524409 0.016127363 -0.007723521 -0.00959961 0.009942722 -0.0061393445
-0.009919604 0.02667908 0.0288469 0.031655617 -0.010115989 0.029416803 -0.0074432776 -0.011992986
-0.014365108 -0.0055903667 -0.013069751 0.015802082 -0.010722876 -0.022475641 -0.020945353 -0.009162237
0.013187308 -0.05190575 -0.010136596 0.02959235 0.042596348 0.015183197 -0.030681191 0.03259652
0.04193283 -0.007726427 0.039535124 -0.078291625 -0.0050118756 -0.0092770625 -0.016601346 0.011484126
-0.010138029 -0.027286394 -0.00873058 -0.039680105 0.01934177 0.04826753 -0.022592619 -0.013335115
-0.025963375 0.02425333 0.013244482 0.038030516 0.031322125 -0.0030171198 0.007978021 0.004091193
-0.00620697 -0.013561872 0.02114517 -0.00028680416 -0.012450264 -0.021861752 -0.009416056 -0.007856849
-0.022875302 0.0014472324 0.017761871 -0.021969855 0.00077390345 -0.034371324 0.007632984 0.012228811
-0.009191193 -0.06799026 0.010435114 -0.01966209 0.03269369 0.0017761518 0.051315576 0.005444007
0.002781038 -0.014912715 -0.06290606 0.004540068 0.04792886 0.002179666 0.012875368 0.019401534
0.0021682584 0.007825067 0.0003075957 0.017286286 0.009495114 -0.01372386 0.019112386 -0.020109374
-0.0042120186 0.036034912 -0.009885523 0.0147219775 0.019344687 0.009633982 0.016480625 0.004582324
0.018963018 0.011469739 -0.02707924 -0.0009791168 0.011914791 -0.004562027 -0.019716764 -0.02399268
-0.026692595 0.023850378 0.0013173182 -0.021952087 0.004011814 0.02071987 -0.00029843807 -0.031137306
-0.01866712 0.039278015 0.012304499 0.020292852 0.010622469 0.0015984483 0.005165655 -0.0045424574
-0.014847533 -0.016189888 0.02372171 0.015813272 -0.012075397 -0.0042079254 -0.002566907 0.008722632
-0.04947866 0.022471031 -0.008017654 0.042024497 -0.0004977285 0.0018200929 -0.033492383 0.011952631
0.042831745 0.0010746153 0.050813716 -0.008822975 0.028939389 -0.00059490465 0.01650356 -0.005262089
0.013944293 0.0022302486 0.0059710187 -0.022891525 0.015938198 -0.006124428 0.026349565 0.017884184
0.0059248917 -0.028384201 -0.00089895405 0.036390644 -0.003637475 0.014498203 0.007862636 -0.0011568865
0.0017652949 -0.006215681 -0.012612463 -0.031952895 -0.007971114 0.019291064 -1.3416327e-05 0.005109298
0.0136424685 0.024034103 -0.011554757 0.006132165 0.0065967753 -0.017483076 -0.0068952986 -0.024416985
0.0052624187 -0.02730163 -0.03140274 0.029271673 -0.024490276 -0.019830452 -0.0061907414 0.004426845
0.00137642 0.023818819 0.058362547 -0.010599933 0.016831683 0.037246533 -0.0050953464 0.007884241
0.022572959 0.012260837 -0.02060985 0.0152452625 -0.008503263 -0.0013816428 0.008783381 -0.018398682
0.015499962 0.0072482233 0.008000883 0.04394235 0.0067235744 -0.0014561783 0.0049954355 0.035308003
0.022021571 -0.0124988705 0.009859461 0.0019937058 0.023473691 0.0011802553 -0.044740614 0.0023024548
-0.012904591 0.052905224 -0.02178456 0.033335272 -0.015451559 0.018353678 -0.022231674 0.0026888493

first_block.sa.heads.1.key.weight f4 [16, 64]
00000000: d7a6 49bd aa57 9cbc 08a1 4f3c 79c6 803c
00000010: 73a3 c03c 8611 863c c74a aa3b 91fd 063d
00000020: 9515 e1bc 0bc8 283d f76b fb3c b437 c53b
00000030: 59c5 7b3c 9e56 323c 1583 5bbd e315 d33c
00000040: ee37 cf3b b983 e5bc dfbb 5dbb b2a2 a8bb
00000050: f773 c3bd 3057 45bd e899 a13c 5900 303d
00000060: 2eae 583c 1b8c fb3c be6b 13bd f840 ba3c
00000070: db00 753d 8e8e 13bd e7b8 acbc 5aed 2e3d
00000080: 0de0 b9bb 270e ac3a 6cb9 80bc c1c9 613c
00000090: 1cc9 b6bc a816 893b 1008 d13b 47c5 7abd
000000a0: 92c0 25bd 05ae fcbc 7290 a33d 9d38 143d
000000b0: 5565 673c 76ef 463c 9d66 093c b2b0 eebb
000000c0: 9a29 b4bc ac1d a4bb 869f 383c 7637 1bbd
000000d0: 69e2 1abd 60ce c43c 99a4 fb3c 5b0d 11ba
000000e0: 7ad9 cc3c 2b66 743c a851 26bd 86f0 863c
000000f0: 5e5f 003d 1b46 1e3d aa0a f7bb bea6 1e3d
00000100: e176 1cbd dd63 a4bc a548 c03c e60f f7bc
00000110: b630 c2bc 86df 33bb 0174 59bb 15c5 06bd
00000120: 39df c13c b54c c4bc 7acc e7bb c47b abbc
00000130: 8e06 d8bc e3ec 363d e3f1 873c 1fff bd3c
00000140: 9555 ffbb 7123 bfbb 3f2d c5bc 25cf f23a
00000150: 7375 2c3d b00e 9c3c fc30 033d 8509 213c
00000160: f598 053b 973d 94bd 2e6a 26bd 077f df3c
00000170: 1979 50bd cb26 30bc fcd8 0e3d 3973 84bc
00000180: d640 19bc 4878 a8bc bd6b 10bd 736e 3abd
00000190: 4a41 cfbb ef2b 1bbc 08c7 3cbc ad6c 1c3c
000001a0: 20ed 173d e1a5 8c3b 7b04 83bc 7647 c0b8
000001b0: 5e28 063d 9de0 12bd d4d6 5f3c 6847 6e3c
000001c0: 3a3a c9b8 c541 983b 5876 1fbd 9432 91ba
000001d0: 8a06 2e3c 9d87 b3bb 7369 823c 7c40 88bc
000001e0: 4172 02bd a60e 2cbc b7e0 4dbc 5743 1d3c
000001f0: 41f3 8c3b e254 bebc 2391 323c 5d19 4dbd
00000200: 5110 20bd f658 e3bc 53da 923c aed0 98bd
00000210: b9ee 53bd e8c6 893c a1a1 4f3d 7489 62bd
00000220: 8704 713c 15e3 a6bb 7f8b 96bc 0cc5 eebb
00000230: b9ec 81bb 030c 3f3d 057b e73c 4d19 6b3d
00000240: dac1 2d3c e0a9 083d 6009 44bd 0109 773b
00000250: dee9 6b3c 71a6 273d 4b04 c73c 2343 ae3b
00000260: e678 cd39 6e13 c5bc b358 67bc f9da abbc
00000270: d5e6 0abd 0a69 59bd 1b42 dc3a 2b8c 3dbd
00000280: f62e 023d a262 91bc 0b65 d7bc 5626 d1bc
00000290: bbde 00bc b895 b43c 7db1 453d 098b 553d
000002a0: 7072 7a3d b051 ae3c a2f1 3d3d 7b28 ffba
000002b0: 51ef 773c 97ff 82bc 7e52 b53c 2468 6d3c
000002c0: deab e7bb a137 10bd 54e1 a53c 9239 9a3c
000002d0: eff1 2fbc a788 8cbc f001 b8bb 79ce 1cbd
000002e0: 7a9d 953c abe7 553c 4d32 e43c 0003 10bc
000002f0: bd11 f13c 8c11 4abc f513 153d f63a d1bc
00000300: 843b a8bd 3811 eebc 8a62 c43c 0c19 efbc
00000310: 4a6a a2bc 74de 34bd 4211 9cbc 9739 b5bc
00000320: 6869 e4bb 512a 8b3d 4d17 8fbb 6e4c b93b
00000330: 6a50 81bb 7d53 073c 6abb cabc 319c 173d
00000340: 30bc 14bd ec16 35bb d209 30bd 8ac9 b0bc
00000350: 5ac1 5abd e679 c33b ce97 2e3c f2c7 86ba
00000360: 3a27 acbc 1d1d 0dbc 0066 723c 3636 ddb8
00000370: adf4 9d3c 96ff 27bd ba01 86bc 2bda 683c
00000380: 2259 1bbd c354 673c 20cd f5bc 5701 83bc
00000390: d69a 6bbc a1db 363d 22a6 963d 3731 1d3d
000003a0: 0e17 4c3c a4fb 983c a0f1 813d 3f97 743c
000003b0: 91e0 06bd cab8 8d3d dc05 85bc 0c90 333c
000003c0: aa66 313c 3061 45bc b0fb 193d cbdf a5bc
000003d0: 008a 11bd d3b9 e8bb 7125 9c3c a57c 91bc
000003e0: 7dca a4bc 919c 16bd f22b b5bc df96 313b
000003f0: 9092 183c 819b b939 eb8c 57bb d4a6 ec3c
-0.049231376 -0.01908477 0.01267267 0.01571964 0.023515439 0.016365778 0.0051969024 0.032956664
-0.027476111 0.0412064 0.03069113 0.006018603 0.015366876 0.010884909 -0.053591806 0.025767272
0.006323806 -0.028016912 -0.0033833904 -0.005146348 -0.09543603 -0.04817885 0.019726709 0.04296908
0.013225121 0.030706456 -0.035991423 0.022736058 0.05981527 -0.036024623 -0.021084262 0.042706825
-0.005672461 0.0013126776 -0.015713416 0.013781012 -0.022312693 0.004183609 0.006379135 -0.061223295
-0.040466852 -0.030844698 0.07986535 0.036186803 0.0141232805 0.012142053 0.008386281 -0.0072842473
-0.021992493 -0.00500842 0.011268502 -0.03789469 -0.037813578 0.024024189 0.030718135 -0.0005533301
0.025006045 0.014916937 -0.040605217 0.016472112 0.03134095 0.038641077 -0.007539113 0.038733236
-0.03819931 -0.02006715 0.02347214 -0.030158948 -0.023704868 -0.0027446463 -0.0033180716 -0.032902796
0.023666011 -0.023962358 -0.007073936 -0.02093304 -0.026370313 0.044659507 0.016594833 0.02319294
-0.0077921846 -0.0058330824 -0.024069427 0.0018524869 0.042104196 0.019049972 0.032029137 0.00982893
0.002038536 -0.0723831 -0.040628605 0.027282251 -0.050896738 -0.010751436 0.0348749 -0.016168224
-0.009353837 -0.020565167 -0.035258997 -0.04551549 -0.0063249217 -0.009470924 -0.011522062 0.009547395
0.037091374 0.0042922352 -0.015993347 -9.168584e-05 0.03275334 -0.03585874 0.013662059 0.014543392
-9.5952724e-05 0.004646512 -0.03893122 -0.0011077696 0.010621676 -0.005478813 0.015919423 -0.016632311
-0.031847242 -0.010501539 -0.012565783 0.009598575 0.004301459 -0.023233835 0.010898861 -0.050073016
-0.03907806 -0.02775238 0.01792637 -0.074616775 -0.051741336 0.016818479 0.05069125 -0.055306867
0.014710552 -0.0050929883 -0.018377064 -0.0072866734 -0.003964987 0.046642315 0.028256902 0.057397176
0.0106053 0.03336513 -0.047860503 0.0037694576 0.01439902 0.040930215 0.02429404 0.005318062
0.00039190723 -0.024057116 -0.014120269 -0.020978438 -0.033911545 -0.05307869 0.0016804369 -0.046276253
0.031783067 -0.017747227 -0.026293298 -0.025530975 -0.007865603 0.022044048 0.04826497 0.052134547
0.061144292 0.021279186 0.046373017 -0.001946702 0.015132741 -0.015991015 0.022134062 0.014490161
-0.0070700487 -0.0352093 0.020249046 0.01882628 -0.010738834 -0.017155005 -0.0056154653 -0.038282845
0.018263567 0.013055722 0.027856017 -0.008789778 0.029427404 -0.012333285 0.036395986 -0.02554081
-0.08214477 -0.029060945 0.023972768 -0.029186748 -0.019826073 -0.04415746 -0.019051198 -0.022122188
-0.006970573 0.067951806 -0.0043667913 0.005654863 -0.0039463537 0.008259651 -0.02474757 0.03701419
-0.036312282 -0.002763207 -0.042978115 -0.021580476 -0.05340705 0.005965459 0.01065631 -0.0010282977
-0.021014798 -0.008612898 0.0147948265 -0.00010548199 0.01928171 -0.04101523 -0.016358245 0.014212172
-0.0379268 0.01411933 -0.030005038 -0.01599185 -0.0143801775 0.04464305 0.07355906 0.038377013
0.012456669 0.01867468 0.063449144 0.014928638 -0.032929007 0.06920011 -0.016238146 0.010959636
0.0108277 -0.012047097 0.037593544 -0.020248314 -0.035531998 -0.00710223 0.019060822 -0.01775963
-0.020116085 -0.036770407 -0.022115681 0.0027097983 0.009312287 0.0003540181 -0.003289039 0.028888144

first_block.sa.heads.1.query.weight f4 [16, 64]
00000000: 9ae3 a5bc a6ff dabb 7f45 903c 28bd 883c
00000010: 9f7e 2d3d b2e2 a33c 6a72 83ba ac4b 16bd
00000020: f877 14bd 5f29 39bc 32a6 283d 6a15 90bc
00000030: 2aa1 07bd 9814 dd3c 5810 da3c 6097 7b3d
00000040: ca4d f8bc a5a1 e13a dc24 043d 4214 cebc
00000050: 036e 2d3d 86bd 273d 9f15 79bb d2be ccbb
00000060: 4637 92bd e39f 2dbd 87f6 f83b e093 ad3a
00000070: 21dc 83bc 71d5 283d e4cf d83c 4160 b5bc
00000080: 60da 1d3d 663c 0ebd 187f 93bd d09d 2fbd
00000090: b42c eaba 5f29 8dbc c8f5 083d cbe0 c93c
000000a0: a5f2 3bbd a66a 3c3d 9fc0 cfbb 1dad 2ebd
000000b0: 0206 ed3b 7a08 2cbb 5553 223d 6db0 293d
000000c0: a650 04bc 4f3a 373d 991b 253b 8572 063b
000000d0: 4bbe 253b fca1 a9bc e40f e23c 2cc8 86ba
000000e0: a208 f7bc 482d c4bb aa83 df3c 6fad 923d
000000f0: 6d1e c5ba f202 c53a b72b 333d 377c 123d
00000100: c8e0 1a3c 64d3 9bbc ea67 083c c9f6 98bd
00000110: 6da2 5b3c 4817 f43b 0d36 5a3b 447a 043d
00000120: cc2d 233d b6c1 3a3d 31fd 2dbc ecae 483d
00000130: 440f c53c ccd9 0abc 8b44 26bd 61b9 863b
00000140: d3cb 633d 786a 853c d4d9 02bd 7c60 903c
00000150: 481b b2bc 1c0f 2f3c c0f9 30bc 27d3 04bd
00000160: 2065 a73d 1fa7 bfbb 5832 563d 0588 21bd
00000170: 7691 343d bbf7 10bd d40c 373c 5753 9e3d
00000180: a061 5fbb fccb 693b 3991 1abb 75e5 d238
00000190: 89bf ce3c 1040 bd3a e5c0 89bc 6709 fdbc
000001a0: 10ce a33c 3fbf 773c 6d2c 393d 6248 7bbb
000001b0: b477 49bd 3a87 95bb c00a 013d a117 c5bc
000001c0: fcbb 11bd 95f7 8bbc f017 9c3c feec 353c
000001d0: 02a6 743d f4bb adbd a47c 93bc b1e4 e9bc
000001e0: b54f 92bc 1a4a ca3a a323 ea3b 014b 27bb
000001f0: 92a2 dabc de90 50bc ea10 85bc c686 49bc
00000200: f3b3 ee3c 9b13 c3bc 0615 54bd 89b8 efbb
00000210: 86c6 20bc 9c6d 293d a617 ef3b 5528 943c
00000220: 12e1 053d 9fe8 a63c 6c27 5d3d 2e55 163c
00000230: 6618 65bc 25e2 cfbc df25 7cbd 1dce a43b
00000240: 95eb 233d a304 4f3d f881 53bc 7869 88bc
00000250: 5b57 653c 44db f8bb 613e 57bc db9b a6bd
00000260: afd8 923b 6030 dd3b a2a9 d13c 34a5 d5bb
00000270: 1963 cb3c e999 39bd 1eaf 523b 23ea 163d
00000280: 1782 ce3b 5d71 083b 39b9 543b 3481 e0bc
00000290: 5698 c63c ae4f 033d 14ab 663c 4b17 9bbc
000002a0: 2033 e73c 65a6 67bc 3656 173d ebc7 483d
000002b0: 4200 2cbd 16a8 8b3a 19e4 debb 79c7 04bd
000002c0: 3d36 53bc 15ef 063d 61ae 653c e0a0 703d
000002d0: 1af5 523d 1d96 fa3b f9bf ca3a 4f42 e3bc
000002e0: 613a ad3c d325 2dbd 8bd9 23bb 22a2 c43c
000002f0: c3eb 503c ef5f 363d b5c4 e739 574c 443c
00000300: d9f6 92bd e37b 52bd faf2 f3bc 7702 53bd
00000310: c9b5 55bc f9ce 173c bab4 903c 7c2b 57bd
00000320: aae8 213d 0af3 2e3c 4d45 0a3d 6857 153c
00000330: d789 44bd 1f7a a73c 89f0 d5bc a323 fb3c
00000340: f6ca 08bd 5f60 8e3c cbfb b8bb 9c63 f4ba
00000350: 4459 913c eb83 713c 368b 32bd 8326 b03c
00000360: 005a 40bd 7faa 303c ae97 95bc 102c 28bc
00000370: 859e a0bc ebe9 323c bed6 a73c 9ea2 9dbb
00000380: a650 293d e4f4 dfbc 5ce4 8ebc 3985 0f3b
00000390: e5ea 933c cd49 84bc 0244 343b 0bbd 2b3d
000003a0: 8ece 4abc 99b5 353c 55e0 dcba 0c33 483d
000003b0: bdd0 afbc 3855 34bd 5cb6 9f3b 4790 0dba
000003c0: 3cc8 c93c a975 2e3d 9bcf 283c aa8b cc3c
000003d0: a513 7a3c 33c2 6bbc 854c 00bc 515d 67bc
000003e0: 3d93 8ebc 449b abbb e304 9a3c 1d2c 0e3d
000003f0: 46e4 62bb 50b6 be3c d29f dd3c dc9c 973c
-0.02025013 -0.0066833077 0.017611263 0.01669176 0.042357083 0.020005558 -0.0010028605 -0.03669326
-0.036247224 -0.011301368 0.04117412 -0.017588336 -0.033112682 0.026987359 0.026619121 0.06142366
-0.03031053 0.0017214312 0.032261714 -0.025156144 0.042341243 0.040952228 -0.0038007272 -0.0062483335
-0.07139449 -0.042388808 0.0075977477 0.0013242923 -0.016096177 0.04121918 0.026466317 -0.022140624
0.038538337 -0.03472557 -0.072019756 -0.04287511 -0.0017866106 -0.017231641 0.03343752 0.024643322
-0.0458857 0.046000145 -0.006340101 -0.042645562 0.007233382 -0.002625017 0.039630253 0.04142802
-0.008075869 0.04473334 0.0025193451 0.0020515036 0.0025290425 -0.020707123 0.027595468 -0.0010283045
-0.030155484 -0.0059868433 0.027284462 0.07161986 -0.0015038975 0.0015030785 0.04374286 0.03576299
0.009453006 -0.019021697 0.008325556 -0.074689455 0.013405425 0.0074490644 0.0033296377 0.032343164
0.039838597 0.045594893 -0.010619448 0.048994943 0.02405513 -0.008474778 -0.04059271 0.0041114544
0.055614304 0.01628612 -0.03194602 0.017624132 -0.021741524 0.010684755 -0.010801733 -0.032427933
0.08173585 -0.00584878 0.052294105 -0.03943636 0.044084035 -0.035392504 0.011172492 0.077307396
-0.0034085289 0.0035674563 -0.0023585095 0.0001005632 0.025237815 0.0014438648 -0.016815612 -0.030888272
0.01999572 0.01512128 0.045208383 -0.0038342704 -0.049186423 -0.0045632394 0.031504393 -0.024059119
-0.035579666 -0.01708583 0.019054383 0.011103867 0.05972863 -0.08483115 -0.01800377 -0.028551431
-0.017860273 0.0015433461 0.0071453615 -0.0025526884 -0.026688848 -0.0127298515 -0.016243417 -0.012300199
0.02913854 -0.02381306 -0.051777862 -0.0073156995 -0.009812957 0.041364297 0.0072965203 0.018085638
0.032685347 0.020374594 0.053992674 0.009175582 -0.013982868 -0.025376389 -0.061559554 0.0050294534
0.04001959 0.05054153 -0.012909405 -0.016651854 0.013997878 -0.007594498 -0.013137431 -0.08135196
0.004481397 0.0067501515 0.025593583 -0.006519938 0.024827527 -0.045312796 0.0032147835 0.036844384
0.006302129 0.0020819523 0.0032459034 -0.027405359 0.024242561 0.03205841 0.014078874 -0.018932005
0.02822262 -0.014138793 0.03694745 0.04901878 -0.041992433 0.0010654952 -0.0068020937 -0.032416794
-0.012891349 0.03294285 0.014018626 0.058747172 0.05150328 0.0076472894 0.0015468589 -0.02774158
0.021146001 -0.0422724 -0.0025001492 0.024003092 0.0127515225 0.044525083 0.00044206312 0.011981091
-0.07175989 -0.05138768 -0.029778946 -0.051516023 -0.013043829 0.009265655 0.017664302 -0.052531704
0.039528526 0.010678062 0.033757497 0.009115078 -0.047983017 0.020443974 -0.026115673 0.030656641
-0.033396684 0.017379938 -0.0056452504 -0.0018645409 0.01774276 0.014740924 -0.043589793 0.021502739
-0.04696083 0.010782837 -0.018260803 -0.010264412 -0.019606838 0.010920028 0.02048814 -0.0048106452
0.041336678 -0.027338453 -0.017442875 0.0021899475 0.018056342 -0.016148472 0.0027506356 0.041928332
-0.012378348 0.01109066 -0.0016851524 0.048876807 -0.021461839 -0.044026583 0.004874034 -0.0005400222
0.024631612 0.04259268 0.010303403 0.02496894 0.015263473 -0.014389562 -0.007830744 -0.014121369
-0.017404193 -0.005237015 0.018801158 0.03471004 -0.0034620925 0.023280293 0.027053747 0.018507414
