IndexNetwork.pt (torch, 849903 bytes, 96 tensors)

token_embedding_table.weight f4 [39, 64]
00000000: 16cf a13c ffbb afbc 040d 02bc 45d8 cebb
00000010: ab6e 0f3c e87a 163b e8ff 013d 9716 cb3b
00000020: 478b 2f3c a17c c13b 1330 aa3c 78d1 563d
00000030: 2952 183c 9025 debc 3297 0bbd ff43 2a3b
00000040: 45ea 1dbc 65b6 b13c 9664 683c 96d3 b03c
00000050: 0515 37bc 2efe 3fbc f036 77ba ee27 b6bc
00000060: 30c4 e33c 012d 8abb c98b 083d dea1 d8bb
00000070: 21c0 443b d29b 433c d990 0b3b fce1 103d
00000080: 1326 9b3c b8e7 1a3c 25e7 7d3c 7634 913c
00000090: 78b9 dc3c f61f b23c 79d6 78bc 317c b6bb
000000a0: 6d7f c93c 9e5d fc3c ff6a 973b f24a 173b
000000b0: 0e4b 1b3b 9480 bd3a 32e5 2bbb cfb5 43bc
000000c0: a315 c2bc 89de 483c e835 043c ab65 a73c
000000d0: 51b0 ad3c 112c 33bd a907 5dbc 5228 e9bc
000000e0: 2b1f 003d 02c8 cfbb f8fe 793c 9108 05ba
000000f0: 7bf7 d3bc 0777 6e3c 6c16 e9bb c73f 353c
00000100: 8eef 87bc b8d7 2c3d 5673 c13c 4c69 61bc
00000110: abfb b73b 3f25 68bc 969f a03c 7955 f8bc
00000120: 8c1c 15bb 3c2b bcbc 8777 6c3d 50a4 6cbc
00000130: 3c27 20bc 9c84 0d3d 727e 0abd 6f94 91bc
00000140: 987b b23c 901a eeba 3447 883c 3381 123b
00000150: c1f5 b9bc 0dea 6b3c 75bf 1f3c 876b b2bc
00000160: 98d3 58bc 0609 253c ef67 76bc e4ec 813b
00000170: 0fbf ddbc bba4 833b 0b28 e7bc 46c9 003c
00000180: 628d 7dbc a608 c43c 7a6b 53bc 8bac b2bc
00000190: 91db 023b e102 7d3b 10f2 fe3a bbc8 3cbc
000001a0: 10dd 7b3b 6729 ef3c da77 19b8 b30b 363b
000001b0: c16b aa3b 5038 9fb9 05c4 09bc 7f2c be3c
000001c0: 2972 b03c d93e 94bc e07e 433d 3f88 37bd
000001d0: ec93 7dbc 389f 8c3c 636e afbc 5a1c 863a
000001e0: 5bdf 503c 009c b6bc ad4f 47bd e3c3 70ba
000001f0: c9c0 db3b 8059 5c3d 6bb0 9ebb 5f82 853b
00000200: c64d b5bb ace3 a0ba f8e7 47bc d43b 733b
00000210: 8dc7 293c 9bb7 adbc 1da9 8f3c dc01 f93c
00000220: c860 1e3c 2c88 49bc ca10 523c 6201 093c
00000230: 8671 ab3c 5450 22bc 7696 94ba 8b72 4939
00000240: 4723 2b3c 36b6 963c 69f4 02bd 4f92 29bd
00000250: b760 6ebc f636 ffbb f2c7 c2bb 6d12 db3b
00000260: 0130 d83c 72c4 30bb b24a 5abc 0167 babc
00000270: b57a e93b e5fe 16bc c559 ebbc ee1e e53c
00000280: 1ff8 db3c 833a 0d3d ae54 17bd c233 99bc
00000290: 7b79 ae3c d3f8 c9bc db4c 9b3b 0b8c ecbc
000002a0: ae76 9fbc 2a09 e3bb 9e09 15bc 2b13 f23a
000002b0: cd04 ebbc 932b 16bd aea4 ea3b 6c82 f4bc
000002c0: d18f 873c cf0e acbb af36 11bc c968 83bc
000002d0: 4c9e 53bd 849f c1bb 3c88 083a 7361 cf3c
000002e0: 906d 0f3c d8d4 123c d03a b53c aaaf 84ba
000002f0: 6c6a 2a3c 1037 f6bc 0d3f 25bd 2aa3 7b37
00000300: 6f12 693c 0069 c33c 488d 063c 49e7 ee3c
00000310: 4bda 163b dfbd d93a 497a 09bd 1891 843b
00000320: 5c2b e93b 86d6 1fbb 0d73 adbc 8831 7fbc
00000330: 648f 8a3c 287b 003c b36b 82bc 1905 923b
00000340: 6c54 193d 86df 93bc 1316 c7bc 0624 71bc
00000350: fd57 97bc 46b1 80bd 04ee 3d3c 1406 703c
00000360: b91f 443b ba4e b73c 4a1b 273c 7ab5 88bc
00000370: 8358 bd3c 8d85 75bb b8c4 94bc f898 59bc
00000380: c40f 4fbd 20a5 b7bc 8303 263d e19e ee3c
00000390: baf2 983b a3ac ff3b fbdd a5bc 72ee b1bc
000003a0: 3519 8abc e491 32bc c152 7fbb c204 8e3a
000003b0: 503d 92bb 3682 8bbb d494 c7bb 466f 0d3d
000003c0: b3bb b23a 4dc4 073c 08cb 7cbc 0b8a b7bc
000003d0: 8be2 a5bb af7c d23b ada7 19bc df66 39bc
000003e0: 70d0 943c 66bc 2a3b 5c7d 09bd 208b 943b
000003f0: 2894 b7bc a31c 673c fa32 9dbc 969d c43c
0.019752067 -0.021451948 -0.0079376735 -0.0063124024 0.008754413 0.0022961441 0.03173819 0.0061977613
0.010714359 0.0059047495 0.020774877 0.05244586 0.009296932 -0.02711752 -0.034079738 0.002598047
-0.009638374 0.021693418 0.014184138 0.021585267 -0.011174445 -0.011718316 -0.00094304886 -0.022235837
0.02780351 -0.0042167907 0.033336435 -0.006611093 0.0030021744 0.011939006 0.0021296053 0.035371765
0.018939054 0.00945466 0.015497004 0.01772521 0.026943907 0.021743756 -0.015187853 -0.005569004
0.024596894 0.030806359 0.004620909 0.0023085442 0.002369586 0.0014457875 -0.002622914 -0.011945202
-0.023691958 0.012260088 0.008069493 0.020434221 0.021202238 -0.043743197 -0.013490596 -0.028461609
0.031279724 -0.0063409815 0.015258543 -0.0005074824 -0.025874844 0.0145547455 -0.0071132686 0.011062569
-0.01659372 0.042197913 0.023614567 -0.013758015 0.005614718 -0.014169036 0.019607347 -0.030314194
-0.002275261 -0.022969835 0.057731178 -0.014443472 -0.009774979 0.034550294 -0.033811994 -0.017770974
0.02178745 -0.0018165875 0.016635515 0.002235484 -0.022700192 0.014399064 0.009750237 -0.021779789
-0.013234042 0.010072952 -0.015039428 0.003965007 -0.027068643 0.00401744 -0.028217336 0.007860487
-0.015475603 0.023929905 -0.012904042 -0.02181079 0.0019967298 0.0038606452 0.0019450802 -0.011522467
0.0038431324 0.029194547 -3.6589663e-05 0.002777797 0.0052008335 -0.000303688 -0.008408551 0.023214577
0.02153881 -0.018096374 0.04772842 -0.04480767 -0.015477162 0.017165765 -0.021414941 0.0010231838
0.012748565 -0.022291183 -0.04865997 -0.0009184463 0.0067063314 0.05379629 -0.004842808 0.0040743793
-0.005532953 -0.0012274883 -0.012201302 0.0037114518 0.010362518 -0.021205714 0.017536694 0.030396394
0.009666629 -0.012300532 0.012821386 0.008362146 0.020928156 -0.009906847 -0.0011336345 0.00019211524
0.0104454225 0.018397432 -0.03197137 -0.041399296 -0.014549426 -0.0077885343 -0.0059442455 0.006685546
0.026390078 -0.002697256 -0.013323473 -0.022754194 0.0071252235 -0.009216045 -0.028729329 0.02796885
0.026851712 0.03447963 -0.03694599 -0.018701438 0.02129816 -0.024654781 0.0047393865 -0.028875371
-0.01946577 -0.0069285827 -0.009096531 0.0018468847 -0.028688813 -0.03666265 0.0071607446 -0.029847346
0.01654807 -0.0052507888 -0.008863135 -0.016041176 -0.051664636 -0.0059089083 0.0005208289 0.025315022
0.008754149 0.008961879 0.02212277 -0.0010123153 0.0104013495 -0.030055553 -0.040343333 1.4998755e-05
0.014225586 0.023853779 0.008212395 0.02916302 0.0023018296 0.0016612372 -0.033563886 0.004045617
0.0071157645 -0.002438934 -0.021173025 -0.015575774 0.016914077 0.007841863 -0.015920496 0.004456174
0.037434027 -0.01805092 -0.024302518 -0.014718061 -0.018474573 -0.06283812 0.011592392 0.014649887
0.0029926135 0.022376407 0.010199377 -0.016688097 0.023113495 -0.0037463636 -0.018160209 -0.0132810995
-0.050552145 -0.022417605 0.040530693 0.029128494 0.004667607 0.0078025623 -0.02024745 -0.021720145
-0.016857723 -0.010899041 -0.0038959237 0.0010835158 -0.0044628754 -0.0042574657 -0.0060907397 0.034529947
0.0013636261 0.008286548 -0.015429266 -0.022404691 -0.0050624064 0.006423555 -0.009378356 -0.01131603
0.018165797 0.0026052236 -0.033566818 0.0045331866 -0.022409514 0.014105949 -0.019189347 0.024000924

position_embedding_table.weight f4 [16, 64]
00000000: f832 5739 a2e4 263c 231e 40bc 4f44 75bc
00000010: 9fbc aebc 1925 353b 33f8 6dbc fd14 73bb
00000020: bb0b d23b 550b 90bc 244e dcbc e381 b8bc
00000030: cf28 2cbc 21f9 953c 1287 773b b12a 04bd
00000040: 03e2 9e3c 4bee 9d3c 1304 393a 931f 8d3c
00000050: 16a3 8b3c 4a6d 42bb ef0c 03bc c8d3 db3b
00000060: ca53 0d3c c94b 32bc 257e 8ebc 5d05 893c
00000070: 2a1f d7bc dcbd e3bb 44d0 02bc 289f f53b
00000080: 6343 d63b a4a1 9d3a 379c b63b 7de1 e1bc
00000090: 672c b6bb 620b 9dbc 34f7 843c d53a 71bc
000000a0: f5a8 51bc 7479 b9ba 8515 0dbd 156e 913c
000000b0: 3220 a03c 1fd3 f7bc abbd c03c 9dab a1bb
000000c0: f2fb 973c 893b 24bc 02ed a63c f24d 423c
000000d0: d185 ea3c 19a9 41bc 7517 d53b 0f20 8fbc
000000e0: 1fc5 59bc efbf a4ba 197a a43c 8280 cdbb
000000f0: e540 e03b 814e b03c 7172 0fbc dc82 8abb
00000100: af92 8d3b 07c1 963c 7689 c1bb ffa4 01bd
00000110: d550 08bd 8b19 043d a294 a0bb dc57 c33c
00000120: 3d0b b1bc 90d1 6e3c 5f30 603a ba81 51bd
00000130: e67d 9cba 58b2 8b3b 1b85 753c 25e9 9abc
00000140: 783b 033d 4743 58bc eb39 ad3c b278 2f3d
00000150: 6407 9e3c 31d2 193a b2d0 23bc 593b 41bd
00000160: ecb5 76bb 1619 f53c 91a7 88bc ce16 243d
00000170: a73e e13c d304 da3b e4a2 dfbc 6e78 0d3c
00000180: 8b12 b83b 632b 3a3c edd0 02bc 7e44 a73c
00000190: 1c8b b7b8 8804 1c3d 4112 a1bb 8995 be3b
000001a0: 0b21 b43c 1694 0ebd 8215 37bc 393b 16bd
000001b0: cd64 a13c af2d c9bc 570b 8f3c a511 a1bc
000001c0: dbcf 183d a944 173d 4900 4ebc 078a a9bc
000001d0: 6615 febb 86aa 913b c945 15bc 7ac2 64bc
000001e0: 7ec0 90bb b15c 5dbc 39f0 433b 8bd5 833c
000001f0: e976 863b 29ab 89ba 0d5d 4b3a 11f8 b83c
00000200: 0392 24bc b1a4 463c b3e4 a739 2cd2 88bc
00000210: 8d9d 6fbc d296 a73b e410 113d ce58 50bc
00000220: b068 e63c f48a 0dbd 1b8f f13c 9ddb 9e3c
00000230: 9b63 d33c 81ce 1c3d 05df a23c 0179 693b
00000240: 3634 56bc ce4e 783c d222 1a3c ee1e 8cbb
00000250: c53f d0bc 52d4 acbc 2278 05bc 5186 87b9
00000260: 7573 8b3c 67cb 853c 2cf9 adbc 007e ebbc
00000270: 2fc6 2d3c 06b2 983c e584 97bb 2311 163c
00000280: 9c4e 773b 8b76 c33c b3e7 663c 57b5 28bc
00000290: 2179 4fbc 553b 68bc cc1a b0ba edbd 933c
000002a0: bb90 eebc 41bf 82bc b36f b33c 103e 0e3c
000002b0: bd05 563a 8bee b63c 810f c2bc 070c a5bb
000002c0: 1f6b 0abd 27ca 143b febd 403b ef10 303b
000002d0: 280a d13c f919 9f3c 3d74 0c3d 89c5 c03c
000002e0: e2b9 aebb ec0b 72bc 8b7e d63b 31fe 14bc
000002f0: 7bbb da3c 36ed 03bc c719 b2bc cf02 f33c
00000300: 387a d7bb 40f3 c6ba d37b cabb a071 cb3b
00000310: 2701 0ebc 0325 9a3b 0ebd da3c 0c68 45bc
00000320: d1c5 9b3b df4d cdbc 9968 7e3c 11e9 1a3b
00000330: 865c 47bd 9a74 97bc f678 4f3c 6b4e 0e3d
00000340: 4427 c53c f416 2abc d9ca 0dbd 2d69 153b
00000350: bca9 9c3c 9e64 8dbb b985 1abc a6e5 4bbc
00000360: 517a aa39 79ff 48bc c062 37ba 52b0 02bd
00000370: 9f1c b3bc 2358 633c 8774 593c 450f bbbb
00000380: d2a4 50bb 2776 b23b d6e0 32bd cb4a 33bc
00000390: 8685 3ebb e0cf d6bc 49e9 ea3c b8c6 0bbb
000003a0: 9b0c 8fbc cb18 8dbc 50d7 113c 3321 213b
000003b0: 852c 143d c7d6 a23c 4fb8 d53c eb15 b03c
000003c0: 119e 2a3c 2d8b 97bb e6fc 4a3a b95b f6bc
000003d0: 7551 8d3c e583 d63b 00bb 24bc 7897 c7bb
000003e0: dcbc 50bc 7366 8a3b 05de 2d3c d5d7 f13c
000003f0: c045 513c f94a 7e3c 939f a73c 331d 67bc
0.00020522985 0.010186346 -0.011725935 -0.014969899 -0.021330176 0.002764052 -0.014524507 -0.0037091367
0.00641009 -0.017583529 -0.02689273 -0.022522872 -0.010507776 0.01830727 0.0037769717 -0.032267276
0.01939488 0.019278666 0.0007057797 0.01722697 0.017045539 -0.0029667192 -0.007998689 0.006708596
0.008625934 -0.010882326 -0.017394135 0.01672619 -0.026259977 -0.0069501232 -0.007984225 0.0074957795
0.006538795 0.0012026322 0.0055728215 -0.027573342 -0.0055594924 -0.019170467 0.016231157 -0.014723499
-0.01279663 -0.0014150576 -0.03444435 0.017752687 0.019546602 -0.030252038 0.02352794 -0.004933788
0.018552754 -0.01002396 0.020376686 0.011859404 0.028628262 -0.011820101 0.0065030404 -0.017471341
-0.013291626 -0.0012569408 0.020077752 -0.006271423 0.0068436735 0.021521809 -0.008755312 -0.0042270254
0.0043204646 0.01840259 -0.005906279 -0.031651493 -0.033280212 0.032250922 -0.004900531 0.023845606
-0.021611804 0.014576331 0.000855213 -0.051149108 -0.0011939376 0.0042632036 0.014985348 -0.01891
0.032039136 -0.013199634 0.021145782 0.042839713 0.019290633 0.0005867808 -0.009998487 -0.04717574
-0.0037645055 0.029919188 -0.016681464 0.04006081 0.027495695 0.006653407 -0.027299352 0.00863467
0.005617445 0.011362883 -0.007984382 0.020418402 -8.752031e-05 0.03809026 -0.004915506 0.005816166
0.021988412 -0.034809195 -0.011174561 -0.036677573 0.019701386 -0.024557916 0.017461462 -0.019661734
0.0373076 0.036930714 -0.01257331 -0.0206957 -0.0077540157 0.004445377 -0.009110876 -0.013962382
-0.004417478 -0.013510869 0.0029897823 0.016093036 0.0041035307 -0.001050328 0.0007757701 0.022579225
-0.0100445775 0.012124226 0.00032023116 -0.01670178 -0.014624965 0.0051144147 0.0354165 -0.012716485
0.02812609 -0.034556344 0.029487183 0.01939183 0.025804332 0.038282875 0.019881735 0.0035625102
-0.0130739715 0.015155507 0.009407716 -0.004276148 -0.025421033 -0.021097336 -0.008146318 -0.0002584928
0.017022828 0.016332341 -0.021236978 -0.028746605 0.010606333 0.018639576 -0.0046239966 0.009159359
0.0037736064 0.023860237 0.014093327 -0.010297141 -0.012663157 -0.014174302 -0.001343572 0.0180349
-0.029121747 -0.015960338 0.021903848 0.008681789 0.0008164307 0.022330543 -0.023689033 -0.005036834
-0.033793565 0.00227035 0.002941012 0.0026865562 0.025517538 0.019421564 0.03429054 0.023531692
-0.0053322176 -0.01477335 0.006545847 -0.009093807 0.026700726 -0.008052161 -0.021740807 0.029664425
-0.006575849 -0.0015178695 -0.006179312 0.0062086135 -0.008667267 0.004704119 0.026701476 -0.0120487325
0.004753806 -0.025061546 0.015527868 0.0023637454 -0.04867222 -0.018488217 0.012663117 0.034742754
0.024066575 -0.010381449 -0.03461728 0.0022798285 0.019123904 -0.004314973 -0.009431296 -0.012444889
0.0003251606 -0.012267941 -0.0006995611 -0.031906433 -0.021864234 0.013875994 0.013272411 -0.0057086074
-0.0031836522 0.0054462138 -0.04367145 -0.010943125 -0.0029071285 -0.02622217 0.028675692 -0.0021328162
-0.017462065 -0.017223736 0.008901432 0.0024586439 0.03617527 0.019877804 0.026088862 0.021494826
0.0104136625 -0.0046247453 0.0007743373 -0.030073034 0.017250756 0.006546485 -0.01005435 -0.0060910545
-0.01274034 0.0042236387 0.010612016 0.029521862 0.012772977 0.015520805 0.020461833 -0.014106083

type_head.weight f4 [64, 1]
00000000: 2f2a ab3c 85fb 6bba 6b4c 21bb 8ca6 05bd
00000010: d990 853a 3807 153d 1352 5cbc 290d 0c3c
00000020: fbd8 113c f2ac 913a c632 ffbc d797 0abd
00000030: 511d 15bd 76be 253d 0d6a 10bc 35ee e93c
00000040: 0d1d 533b 7290 243d 4904 9e3c 8191 4bbc
00000050: d21f 5cbd 888b a1bb 09fb 96bc f62d 163c
00000060: 6dff f93a 706a f83b ac1a 9b3c 2eff f2bb
00000070: d189 803c 4329 a23c a2c4 b93c 4e07 a63b
00000080: a66d ad3c f7f6 0c3c cb3e 0cbc f1d5 03bd
00000090: b7e7 8ebc 3537 cd3a b03d b53b 6acb c53b
000000a0: ef17 193d 0a5d 77bb c0f5 30bd d389 c33c
000000b0: ec90 123d 79af df3c 1ebd cf3b d547 e4bc
000000c0: ab76 74bc 2543 3ebc 0ded 7fbb 63be adbc
000000d0: bbb8 49bc 9298 053d 6165 b2bc 932a a3bc
000000e0: 0732 8fbc 8f29 b4bc 4232 993b 685e 3a3c
000000f0: 9e2a 263b 100b ecbc b9e8 42bc 56bd 8e3c
0.020894138 -0.0009002018 -0.00246122 -0.032629535 0.0010190263 0.036383837 -0.013447302 0.0085480595
0.00890183 0.0011114164 -0.03115214 -0.033836212 -0.03640491 0.04046484 -0.008814347 0.028555969
0.003221336 0.040176816 0.019289153 -0.012424828 -0.053741284 -0.0049299635 -0.01843025 0.009166231
0.0019073315 0.0075810477 0.018933617 -0.0074156737 0.015690716 0.019795066 0.02267677 0.0050667888
0.021170449 0.008603803 -0.008559893 -0.032186452 -0.017444475 0.0015656712 0.0055310354 0.0060362117
0.03737634 -0.0037744665 -0.043203115 0.02386943 0.03578274 0.027305352 0.006339683 -0.027866283
-0.014920871 -0.011612688 -0.0039051205 -0.021208948 -0.01231211 0.032616206 -0.021776857 -0.019917762
-0.01747991 -0.021992473 0.0046751807 0.011375047 0.0025354992 -0.028813869 -0.011896306 0.017424267

type_head.bias f4 [64]
00000000: 2485 acba 18da fcb9 2c5a c6ba f94e d739
00000010: 6980 63bb c533 f9ba 7369 163b 32fe 77ba
00000020: fd8f 9337 0837 3cbb fa65 a63a c35d 2bb9
00000030: 95e8 b03a fd62 91b9 182a 9bba fbe6 86b8
00000040: f41d 2db9 2f81 94b8 0126 ed39 01f1 e4b7
00000050: 2028 4eba 0b0e 893a d036 a73a 9f71 1bba
00000060: 70fe c1ba 7e60 d63a 6366 9fba ac99 3a39
00000070: 06a4 09b9 03d7 0839 b1a0 aeba 72d8 04bb
00000080: 231b 6dba d2bf 05ba 14cf aaba 5e29 a6b9
00000090: ff03 a1b9 bf45 23ba 7295 003a 0f35 c239
000000a0: 9366 df39 ecd6 173a 0c45 c33a 5a88 f6b9
000000b0: aa6d 12bb ea72 8cba 645f 7f39 5c57 07ba
000000c0: 3628 113b 92a8 20bb 3ab3 b5ba 12fd 41ba
000000d0: ca3b e0b9 6680 0cbb 7339 c139 947a 2c3b
000000e0: 4a57 f6ba 6f12 2f3b 0dc0 283a 9719 8e39
000000f0: 1466 083b abc7 5d3b 3c29 8bb8 d89d 703a
-0.0013162238 -0.00048227678 -0.0015133074 0.00041066835 -0.003471399 -0.0019012621 0.0022951036 -0.00094601803
1.7590815e-05 -0.0028719325 0.0012695186 -0.0001634276 0.0013497049 -0.00027730307 -0.0011838106 -6.4326414e-05
-0.00016509724 -7.081252e-05 0.00045232478 -2.7291944e-05 -0.00078642555 0.0010456456 0.0012757424 -0.00059297116
-0.001480056 0.0016355661 -0.0012161251 0.0001779559 -0.00013126442 0.00013050069 -0.0013323036 -0.0020270613
-0.0009044876 -0.0005102131 -0.0013031685 -0.00031692808 -0.0003071129 -0.00062283495 0.00049050816 0.00037042095
0.00042610298 0.0005792219 0.0014897897 -0.00047022366 -0.0022343197 -0.0010715399 0.00024354231 -0.0005162859
0.0022149212 -0.0024514538 -0.0013862618 -0.0007400076 -0.00042769156 -0.0021438836 0.00036854632 0.002631818
-0.0018794325 0.0026713868 0.0006437309 0.00027103417 0.0020812796 0.0033840935 -6.635717e-05 0.0009178794

first_block.sa.heads.0.key.weight f4 [16, 64]
00000000: b6fa 4d3d 1f83 ba3c b4b9 41bd 76ff f4bc
00000010: 62ee cdbb 7689 85bc a6ed 25bc 5547 1bbd
00000020: 60b0 283d 361a 193d bc02 1e3c d103 c13c
00000030: d363 a13c 59f3 c83a 7d18 a8bd 71c2 0f3d
00000040: 41bc 6ebd 3aae 9a3b 83fe 35bd 5de5 5ebc
00000050: 71a8 aabc 6712 0bbd c479 293d 111e cdbc
00000060: 0557 473c 8928 ca3b f058 2e3d 4e8a babb
00000070: 16fd 7db9 ddf9 bf3b f604 073c 7a6a 6b3c
00000080: 0cb5 a33c 4944 313d a037 933d cf5d d53c
00000090: 469e bebc 6952 b43c d5c0 92bc 41f6 4dba
000000a0: b869 59bc d161 803c 1aad 823c f9a8 93bc
000000b0: feec 20bb 825b c0bc b3f7 99bd 60ad 24bc
000000c0: fcf3 c2bc 87b3 303d ce93 ba3c e7ed 5f3c
000000d0: f5d4 80bd 43cc dbbc e591 023d 334e dfbc
000000e0: ce16 ee3c a5a7 35bc 84a4 733c e43c 163d
000000f0: 448d 16bd 0832 c3bc 4b54 0abc b548 9d3c
00000100: c5cc d7bc a37e 4ebd 5b86 a23c 880c 693c
00000110: 45da 3dbc 1240 0e3b db6a debc d131 66bc
00000120: bf29 62bd 162c ae3c a67d 8dbc f8f5 193b
00000130: 7d1f e7bc 5552 8fbb edaf 703c d715 77bc
00000140: f755 5f3c 3b64 adbc 76db b93c 7eb3 91ba
00000150: e808 c83c a88f 22bc 2a6d cfbb 476e c33b
00000160: 8545 97bc b936 aebc 23b3 c8bc 948b 11bc
00000170: 7a0d d7bc a5ad d93a 8748 dcbc 4add a9bc
00000180: 3c9f 9f3b 34cf bbbc 768c d83a e9e1 3bbd
00000190: 75b8 ca3c 5816 e9bc d593 753c 1ed4 a9bc
000001a0: dc49 643d 4e0a 96bc 1546 8039 9591 7ebc
000001b0: 9c83 223d d09d a83c fb1d 023d 4200 91bb
000001c0: d811 d73c 437d 1dbd f4f4 b53b 1aa0 94bc
000001d0: e55b 0d3d b43e 4bbc 5c3a 4c3c ef64 433c
000001e0: ddc4 dbbc ad80 2d3d 2130 43bd 29fc 2e3d
000001f0: 3b7d 093d 11ec 103c 1613 783b a6f3 8abc
00000200: 0fe2 73bb 7450 cabc 3f78 d9bc 08d6 d9bc
00000210: 7ed2 8fbb 0a71 8ebc 5fb4 e13a fa46 d1ba
00000220: 37b1 513c f1c0 423d b7c2 4e3b 797d 883c
00000230: 017c 733b 9d22 e73a 7d9c c3bc ef6e c63c
00000240: 120d 46bd afe8 f53b 4605 dc3b e939 59bd
00000250: b6d2 10bd b8b1 88bc f460 d23c 32dd 8abc
00000260: 4528 cc3b 9d02 3fbc 43d9 153d d129 e1bb
00000270: e7d2 c53c 33a2 983c c883 12bd 9f06 d63c
00000280: 7524 c23c 32ad 053d 92b1 303d 64a9 9bbc
00000290: 7617 14bd 114b 8d3b 196b c73b 1000 b0ba
000002a0: d765 5abc 6397 813c 0468 ebbb 0a53 ed3a
000002b0: 8e0f 773c fa84 13bd 4550 2fbd 99f7 0b3d
000002c0: 09dc 6bbd c783 b13c 21eb 233d 2e1c e13c
000002d0: 4773 8dbb d472 aabc 5c8d d33c ab78 ebbc
000002e0: d0f8 043d 2f32 21bd 8904 a1bc 6c24 29bd
000002f0: a314 85bc 51b1 6fbd 00fb 5e3c 8a47 1a3d
00000300: f126 253d 1e38 b6bb fa1a 02bc 2a03 853c
00000310: e4d0 d5bc 0724 cf3b c25c b8bc 1dd9 4dbd
00000320: 21eb 823c cf35 123c ce0c 32bc a80d 523c
00000330: a4f1 6a3d c1db 6e3c 5e6a 82bc febc 9fbb
00000340: 81f9 20bd dc65 ab3b 9eb1 0f3c 2426 88bc
00000350: 1e61 74bd b0c8 723c 2dd8 2fbc 0ce1 d5bc
00000360: 9002 163d 3805 833b 9d40 173d 7de7 f4bc
00000370: e457 e83c 61a2 273b 922f 3e3c bb59 fa3c
00000380: 7781 be3c eec2 e8bb 41a7 e63c 70f8 843c
00000390: 3884 2dbd 8b8b 953c d8d4 07bd 572b 24bd
000003a0: be05 343c b15e 443d 798b 8f3b 225d 233c
000003b0: bccd 37bc 644d 69bb 6870 e5bc 1831 30bd
000003c0: 0988 5cbd d9a5 cbbc 0951 acbc bceb 4ebc
000003d0: a74b 5bbd 5997 ac3b 813f c33c eec7 2ebd
000003e0: eea2 563d b0a7 cebb 1b4a f43c a309 f73c
000003f0: b6ff 83bc 08ae 453c 6691 d9bc 9d5e 263d
0.050287925 0.022767602 -0.04729624 -0.02990697 -0.006284521 -0.016300898 -0.010127461 -0.037909824
0.04118383 0.037378512 0.009644207 0.02356139 0.01970092 0.0015331312 -0.08207796 0.035097543
-0.058285 0.0047204765 -0.044432174 -0.013604489 -0.020832272 -0.033953097 0.04137589 -0.02503875
0.012166743 0.006169383 0.042565286 -0.0056927567 -0.00024222242 0.0058586434 0.008240929 0.014368648
0.01998379 0.043278012 0.07188344 0.026045708 -0.02326883 0.022011952 -0.017914215 -0.0007856824
-0.013269834 0.015671642 0.015951682 -0.018024908 -0.002455532 -0.023481134 -0.07517948 -0.010051101
-0.023797981 0.04313996 0.022775557 0.01366756 -0.06290618 -0.026830798 0.031877417 -0.027258968
0.029063608 -0.011087333 0.014870767 0.036679164 -0.036755815 -0.023827568 -0.008442949 0.019199708
-0.026342759 -0.05041374 0.019839456 0.014224179 -0.011587684 0.002170567 -0.027150562 -0.014049963
-0.055215593 0.021261256 -0.017271828 0.0023492556 -0.028213257 -0.0043738284 0.0146903815 -0.015080891
0.013631335 -0.021165958 0.022687655 -0.0011116115 0.02441831 -0.009921946 -0.006330152 0.005964074
-0.018465767 -0.021266328 -0.024499482 -0.008883376 -0.026251543 0.0016607536 -0.026890052 -0.020735402
0.004871277 -0.02292595 0.0016521353 -0.04586974 0.02474616 -0.028453037 0.014988859 -0.020731028
0.0557345 -0.01831546 0.00024466278 -0.015537639 0.039676294 0.020583063 0.031766873 -0.0044250796
0.026253626 -0.038449537 0.0055528823 -0.018142749 0.034511466 -0.012405086 0.012465086 0.01192592
-0.02682727 0.042359043 -0.04765332 0.042720947 0.033566695 0.008845345 0.0037853173 -0.016961884
-0.00372136 -0.024696566 -0.026546596 -0.026591316 -0.0043891063 -0.017387886 0.0017219892 -0.0015966587
0.012798599 0.047547285 0.0031549165 0.016661393 0.003715277 0.0017634217 -0.02387833 0.02422282
-0.04835231 0.0075045447 0.006714496 -0.053033743 -0.0353572 -0.016686305 0.025680996 -0.016951177
0.0062303864 -0.011658338 0.03658415 -0.00687144 0.024148418 0.01863203 -0.035770208 0.026126204
0.023699025 0.032635875 0.043138094 -0.01900167 -0.036155187 0.004311927 0.006085765 -0.0013427753
-0.013329945 0.015819257 -0.0071840305 0.0018106413 0.015079392 -0.03601549 -0.04280116 0.034171674
-0.05758289 0.021669282 0.04001916 0.027479257 -0.0043167206 -0.020806707 0.025824241 -0.028744062
0.03246385 -0.0393545 -0.019655483 -0.0412945 -0.016245192 -0.05851871 0.013609648 0.03766588
0.04032034 -0.005560889 -0.007941002 0.01623686 -0.026100583 0.0063214335 -0.022505168 -0.050255883
0.015981259 0.008923962 -0.010867311 0.012820639 0.057359353 0.014578761 -0.01591986 -0.0048748245
-0.039300445 0.0052306484 0.008770375 -0.01661975 -0.05966293 0.014818355 -0.010732693 -0.026108287
0.036623538 0.003998425 0.036926854 -0.029895538 0.028362222 0.0025578963 0.011608021 0.030560365
0.023255093 -0.0071033156 0.028155925 0.016231745 -0.04236242 0.018255016 -0.033161968 -0.040080395
0.010987697 0.047941867 0.00438064 0.009970935 -0.0112184845 -0.0035599107 -0.028007701 -0.04301557
-0.05384067 -0.024859356 -0.021034734 -0.012629446 -0.053538945 0.0052670655 0.023833992 -0.042671137
0.052401476 -0.006306611 0.029820492 0.030155962 -0.016113143 0.012065418 -0.02655859 0.040617574

first_block.sa.heads.0.query.weight f4 [16, 64]
00000000: 100a b63c c63f 5e3d 961f 5ebc f88b 9c3c
00000010: 30b0 1cbc 426e acbb 0106 53bd fad9 0bbd
00000020: 6398 edbb 8412 243c 5559 fabc 7766 5fbd
00000030: da3a ddb9 358b 033c 466c 203d 5272 d53b
00000040: a5f6 f0bb bdfa 35bd 7d33 08bd aaa5 80bc
00000050: 1271 303d 95be 5b3c 8999 64bc c6a9 433d
00000060: 0e08 15bc c297 2f3d 01c2 1fbd d344 a53c
00000070: f3c2 87bc bc17 843c 9ed2 4e3c 4906 32bd
00000080: 8ec1 3bbc efb5 abbc 481f f6bc 6392 46bd
00000090: 72a1 9dbc 7d4e 0cbc 4578 923c 55cb 86bc
000000a0: 3835 0fbd 2dcc 80bc 06eb 1abb 6571 133d
000000b0: 48e1 813c a582 b43c b361 193c bdcd a7bb
000000c0: 2848 283c 991a 0abd 0604 fdbc 8c7f 463b
000000d0: ce94 58bc 18d1 883d d6d6 06bb 0cab 9a3c
000000e0: 06f9 58bd a466 b03c 6f9a 25bc 6757 3b3d
000000f0: e4bd 243c 5c19 e5bc a63a 9a3d f69f a7bb
00000100: ea58 033d b1e1 2bbd a814 acbc 7e22 063c
00000110: de95 773c 3636 55bc 4f6f 403d 9d2d 093d
00000120: b93b 18bc 5020 dcba d59a b73c 1c99 ca3c
00000130: 3497 eb3c 38b5 34bd a72c bbbc fef7 2a3c
00000140: 03bc d5bc f828 833c 06c7 71bc 53f4 8c3a
00000150: 4f0f 0dbd 876e fd3b 5f97 db3c 5351 83bd
00000160: 16c4 ab3c 0636 09bd e50f 463c 2476 01bd
00000170: fa4f 9cbc fc45 053d 7391 3b3d 488b c33c
00000180: fd71 e53c 6466 403d eb11 8bbb fbb8 93bb
00000190: 9a49 fd3c fc3a 0c3d 34e3 c73a 11a2 9c3c
000001a0: a3e0 6cbc f151 1e3d 83b9 e9bc b786 ad3b
000001b0: 36da dcbb bdee 923c 7b13 c13c ab7e ccbc
000001c0: 411f 9cbc 7517 653c beb5 d03b cdf6 07bc
000001d0: 53ad f13c 3bd5 f8bb acf9 263c dcb1 c3bb
000001e0: 43fd 513d 2b5b b4bc e1ad 8f3c 9f8e 22bd
000001f0: 0399 8bbc 5eea 143c b85f c039 28d1 86bc
00000200: 6e09 ba3b dd4c cc3b 3bf1 33bc afc6 383c
00000210: e442 a0ba c861 1e3b 5302 42bc 66ed e9bc
00000220: e3bd 0d3d ad16 3c3c 265f d83a 2b07 30bd
00000230: 5870 55bc f8a7 813a e26e 463d 8036 bcb8
00000240: 51f8 82bc 5db4 10bd 21db 5dbb 0659 dabc
00000250: 9324 963c 9d0a a23c 68e9 8abc 4a0c 8a3b
00000260: f669 46bd 57b3 0a3d 7580 d33c 8e64 083d
00000270: 22d3 ecbb 84a6 833c abc0 b7bc 821c 7abc
00000280: c399 73bc 691c 5f3b 9178 85bc 2e0f 70bd
00000290: ba21 01bc 512c 3dbd 947f bb3c acb0 c93b
000002a0: cb8e aabb 0fae a53c c9a6 4b3c 5d4c 5c3a
000002b0: 9a9c b53c e350 e9bc e62a 983c d9e5 a5b9
000002c0: 9b0e 043c fbde 8f3b 151e 27bd be10 01bc
000002d0: caf8 5a3b 64d8 e83c 61ed 85bc c9d9 773c
000002e0: 67ef f6bc 4309 e739 5216 87bc bbfb 1b3d
000002f0: f7b0 c23c fb7e b2bc a209 c23c e67b f63b
00000300: 8f14 52bc 490e 603c bd3e 013c 66f8 0b3c
00000310: 75a6 b33c 40bb 8d3b 639f 05bd 60ce 14bd
00000320: cf18 ee3c 702c 4fbc 6b81 a5bc f1f3 95bc
00000330: 5456 88bc 8681 48bc 7e16 453d 3a3d f63a
00000340: e6cf 87bc 4ad3 3abd 8ea4 6bb8 be11 2bbd
00000350: a08b 5fbc 72f0 ae3b 005b 5e3c cc2b 443c
00000360: 9edc 97bd e38c b3ba 8dec 37bc 05d1 8d3d
00000370: cbed e6bb e574 db3c e1c4 463d bcbc abbc
00000380: f2c6 83bc 3c58 11bb e80f 0cbd ba89 27bd
00000390: 11e2 03bd 8246 b2bb d416 ea3c a941 3f3b
000003a0: f1cd 03bd 7d19 24bd 23a9 643b 33ea 413b
000003b0: 4c58 41bc 9aa5 ffbc 2844 4fb9 0a5d aebb
000003c0: 5dee e43a d5fd 06bd c52a 8bbc fc14 5e3c
000003d0: 746f d2bc d8bc c23c 9a14 273d 7f90 213c
000003e0: 85be 74bd f66e 6c3c ea8b 673b bd86 0a3d
000003f0: c07b 4d3a a6ca 953c 061a 3f3d 316a 5cbc
0.022221595 0.054260038 -0.013557335 0.019109711 -0.009563491 -0.005262167 -0.051519398 -0.034143426
-0.007250832 0.01001418 -0.030560175 -0.054541077 -0.00042196253 0.008028795 0.039165758 0.006513872
-0.007353621 -0.044428576 -0.033252228 -0.015703995 0.043076582 0.0134121375 -0.013952621 0.04776933
-0.009096159 0.042869337 -0.039003376 0.02017442 -0.016572451 0.016124599 0.012623457 -0.043463025
-0.011459721 -0.020960776 -0.030044213 -0.04847945 -0.019242022 -0.008563635 0.017879615 -0.016454378
-0.034962863 -0.015722359 -0.002363862 0.035996813 0.015854493 0.022034952 0.009361672 -0.0051209615
0.01027111 -0.03371677 -0.030885708 0.0030288426 -0.013219072 0.066805065 -0.002057483 0.01888039
-0.052971862 0.021533318 -0.010107621 0.04573765 0.010055039 -0.027966194 0.075307176 -0.0051155044
0.032067217 -0.041963283 -0.021005943 0.0081869345 0.015111415 -0.013013413 0.046981152 0.033490766
-0.009291583 -0.0016794298 0.022412697 0.024731211 0.028758623 -0.044118136 -0.02284844 0.0104351025
-0.026090628 0.016010746 -0.014756924 0.0010753967 -0.034438428 0.007734123 0.026805578 -0.06411996
0.020967524 -0.033498786 0.0120887505 -0.03160681 -0.019081105 0.032537445 0.045793008 0.023870125
0.028008455 0.046972647 -0.0042440793 -0.0045081354 0.030918885 0.03423594 0.0015250207 0.019120248
-0.014457854 0.038652364 -0.028530842 0.0052956003 -0.00673988 0.017936105 0.02356886 -0.024962744
-0.019057872 0.013982643 0.0063693216 -0.008298588 0.029501593 -0.0075937784 0.010191362 -0.00597213
0.05126692 -0.022016129 0.017538967 -0.039686795 -0.017040735 0.009089081 0.0003669241 -0.016457155
0.0056773936 0.0062347488 -0.010982807 0.011277839 -0.0012226966 0.002416717 -0.011841374 -0.028555583
0.03460492 0.011480016 0.0016507849 -0.042975586 -0.013027273 0.0009891978 0.04844559 -8.97469e-05
-0.015987547 -0.035328258 -0.0033852535 -0.026653778 0.018327987 0.019780451 -0.016957 0.0042128908
-0.048440896 0.033862438 0.025818089 0.03329902 -0.0072273174 0.016070612 -0.022430738 -0.015265586
-0.014868203 0.0034044033 -0.016292842 -0.058608226 -0.007881576 -0.04618484 0.022887982 0.006155094
-0.0052050105 0.0202246 0.012429901 0.0008403713 0.0221694 -0.028480953 0.018575143 -0.00031642502
0.008060123 0.004390595 -0.040800173 -0.007877527 0.003341245 0.028423496 -0.016348543 0.015127608
-0.030143453 0.00044066654 -0.016490135 0.038081866 0.023766024 -0.021789065 0.023686234 0.007522094
-0.012822284 0.013675281 0.007888493 0.0085431095 0.021929959 0.0043253005 -0.032622706 -0.036329627
0.029064564 -0.012644872 -0.020203313 -0.018304797 -0.016642727 -0.012237912 0.048117153 0.0018786557
-0.016578626 -0.045611657 -5.618162e-05 -0.041764967 -0.013644129 0.005338722 0.013571501 0.011973333
-0.07415126 -0.0013698604 -0.011225832 0.06924633 -0.00704739 0.026789138 0.048527602 -0.020964019
-0.016086075 -0.0022177836 -0.034194857 -0.04090283 -0.032198016 -0.005440534 0.028575338 0.0029183424
-0.032178823 -0.04006337 0.0034890852 0.0029589057 -0.011800837 -0.031206895 -0.00019766449 -0.0053211497
0.0017466057 -0.032956917 -0.016988168 0.013554808 -0.02568791 0.023771688 0.04079113 0.009861111
-0.059752006 0.014430752 0.0035331198 0.033819903 0.00078385696 0.018285107 0.046655677 -0.013453052

first_block.sa.heads.0.value.weight f4 [16, 64]
00000000: d6d1 32bc 9356 4fbc a97f 193c 86cd 2f3c
00000010: d9ad a73c 00fa 543d 351c 14bc f4af 733a
00000020: 86da acbb 313c 2dbc 96d4 f2bc a9fe bcbc
00000030: 0596 98bc cc60 1d3d 8aca c23b 0166 11bd
00000040: 9a78 8b3a 3908 a73c 9d3d 133c aa2a 003d
00000050: fd83 8cbc 6a6f cd3c 0643 9abc b129 09bc
00000060: 89c0 13bc 34dd 063d e0a6 81bb e7d6 373c
00000070: 6e70 e8bb fc20 6dbc 16f5 303c 95fa 32bc
00000080: bc7e 40bc 89e3 d33c 7101 d53c ddc6 d73c
00000090: 3667 53bc 0a02 cc3c 7d4e a53b fee5 b2bc
000000a0: bcb6 07bc 0ee0 57bb 2dc4 40bc 2fc0 633c
000000b0: 40f7 32bc 6b3f ccbc 3666 11bc b1cf 92bc
000000c0: 9f90 b83c 5e0d 5abd b674 7cbc 60c6 233d
000000d0: 6f17 0c3d 02ad 5d3c b13d 0dbd 1546 d33c
000000e0: f6f5 053d dfbc 823b f66f 1e3d 9aa6 8cbd
000000f0: 2fac 72ba 0530 39bc 4e66 28bc 34a8 853c
00000100: d88f 43bc 6f65 8fbc b84a 8fbb ff5b 0ebd
00000110: 3440 ac3c 19dd 473d 4f4f b9bc 0d22 7fbc
00000120: 2c98 bdbc 501e b03c 9d21 853c 16c1 163d
00000130: 4b8c d13c e9d2 8aba d2d3 0c3c 514e 003c
00000140: 3973 f6ba f874 8cbc e6a0 5f3c 6901 ceba
00000150: 3be9 aabb f37e cbbc 82c9 95ba 0bb1 69bb
00000160: f9fa aabc 62be e23b 88cf 143c 1b72 e4bc
00000170: 9a30 b6bb 42bd 04bd de68 84b9 3c6b 503c
00000180: b5cf c6bc cabe 7fbd 068e 863c 623a a6bc
00000190: 896b 173d a00e 2fbb dfb6 573d 8efc 703b
000001a0: 33c6 d23b e305 53bc 4de7 5dbd e1a5 893a
000001b0: ec83 523d 7662 873b 26f7 4a3c cd8e 713c
000001c0: e2b9 303a 519e 4d3c f02e 34bc 99be 1e3c
000001d0: 15ea 613c f158 8dbc 95b8 9b3c ee0a 88bc
000001e0: 0952 b3ba 0323 1c3d 4dc9 36bc dbe7 0b3c
000001f0: cad4 b93c 29c5 873b bc8a 883c eb95 123b
00000200: 05b6 b63c 0eef c33a b561 c2bc d0e9 3b3b
00000210: b804 b93c 5a8c b9bb c560 83bc fbaf a7bc
00000220: e579 cfbc 5315 003d 78af 6e3b ced2 8bbc
00000230: 5b0b bc3a 3c55 b93c a8cd 07bb a337 20bd
00000240: 5a2c a1bc c579 293d fa47 653c 02de 913c
00000250: a2d2 553c 500d e83b 4f4a 1c3c e894 c4bb
00000260: 9721 79bc 5572 94bc 8778 bb3c a6b2 8d3c
00000270: 6d40 0bbc 0cb5 05bc 1f6a 273b 4593 c03b
00000280: f16e 50bd fe25 a93c c6fb 19bc 9b18 443d
00000290: b151 95bb 05f1 533b 6248 0bbd 3786 e23b
000002a0: e7e4 3d3d 8d96 1a3a b807 553d 7881 b9bb
000002b0: 6c77 353c cf6f a03a 1597 9e3c d922 21bc
000002c0: 503f 823c 02bb 8fbb 0dcb e83b 5aa4 18bc
000002d0: 3ca2 0b3c 88ce e7bb efb1 e43c de09 763c
000002e0: eebb 5c3b 0277 d6bc 6d92 e4bb 9b65 163d
000002f0: bf48 52bb 90a3 713c 058b d63b 0299 86bb
00000300: 9a89 0abb 4e4f 00bc f6fe 7fbb 20ce a2bc
00000310: 9ff1 c63a 28f8 b03c e698 e33b c063 373b
00000320: d3cd 643c d4fa c03c dc57 39bc 995f d03b
00000330: 353c a0bb 2f78 9abc 62ea b1bb db79 95bc
00000340: 8e4a b13b 149c f4bc 6d2c 1bbd fc96 e63c
00000350: 2911 8bbc 51fa 99bc 4df0 103c f235 6f3b
00000360: 23df b63a afa5 9a3c dacc 483d 4eb3 32bc
00000370: ddc6 713c 1881 0e3d bf72 4bbb c759 ba3b
00000380: 1369 4a3c 45f9 013c 4f13 a6bc d4de a83c
00000390: f870 22bc aeb5 f63a dffa 693c 9c30 83bc
000003a0: 75d0 8f3c 6c54 0e3c fdfc 963c 6dfa 343d
000003b0: 5ab5 fc3b 11fc 0a3c bb84 7e3b 4a0e fd3c
000003c0: 46a9 a73c fe9c a2bc 1fc1 73bb 19eb 0dbb
000003d0: c950 b53c 5e8f 2cbb 6e79 15bd df64 7e3b
000003e0: b53a 55bc 8bb1 563d 0662 b5bc 613b ab3c
000003f0: 80dd 38bc e391 403c dd4b cfbc 04e7 9abb
-0.010914287 -0.012654918 0.009368815 0.010730153 0.02046864 0.05199623 -0.009039928 0.00092959334
-0.0052750735 -0.010573433 -0.029642384 -0.02307065 -0.018626222 0.03842239 0.0059445547 -0.03549767
0.00106408 0.020389663 0.008986858 0.031290688 -0.01715278 0.02507754 -0.018830787 -0.008371756
-0.009018072 0.0329258 -0.0039566606 0.01122067 -0.007093481 -0.014473196 0.010800621 -0.010924001
-0.011748966 0.025865333 0.026001664 0.026339943 -0.012903025 0.024903316 0.005044757 -0.021838184
-0.008283313 -0.0032939943 -0.011765522 0.013900801 -0.010923207 -0.024932584 -0.008874467 -0.0179213
0.022529898 -0.053235404 -0.015408685 0.039984107 0.034202036 0.013530018 -0.03448266 0.025790254
0.03270527 0.0039898003 0.038680993 -0.06867714 -0.0009257225 -0.011302953 -0.010278298 0.016315557
-0.0119361505 -0.017504422 -0.004372921 -0.034755703 0.021026708 0.04879484 -0.022620825 -0.015572083
-0.02314385 0.02149883 0.01625138 0.036805235 0.025579592 -0.001059142 0.008595424 0.007831172
-0.001880265 -0.017145619 0.013649201 -0.0015716973 -0.0052157915 -0.024840808 -0.0011427852 -0.0035658504
-0.020871626 0.006919668 0.009082682 -0.027886441 -0.005559993 -0.032407053 -0.00025255134 0.012720879
-0.024268964 -0.06243781 0.016425144 -0.020291511 0.036967788 -0.0026711598 0.052664634 0.0036771628
0.0064323186 -0.0128798215 -0.054175664 0.0010501706 0.05139534 0.0041316105 0.012388026 0.014743519
0.0006741566 0.012549953 -0.010997519 0.009688997 0.01378872 -0.017254325 0.019008914 -0.016606774
-0.0013681065 0.038119327 -0.011156392 0.008539165 0.022684474 0.0041433764 0.016667716 0.002236719
0.02230359 0.0014948563 -0.023728231 0.0028673299 0.022585258 -0.005662483 -0.016037354 -0.020469656
-0.025326679 0.031270336 0.0036420505 -0.017068293 0.0014346646 0.02262365 -0.0020721946 -0.03911556
-0.019674469 0.041375894 0.013994211 0.017806057 0.013050707 0.007081665 0.009539201 -0.0059991963
-0.015205762 -0.018120924 0.02288462 0.0172971 -0.008499247 -0.008160841 0.002554543 0.005876931
-0.050887052 0.020647999 -0.009398406 0.047875028 -0.0045568575 0.0032339704 -0.034004577 0.0069129723
0.046360876 0.00058970676 0.052009314 -0.005661186 0.011075836 0.0012240353 0.01935915 -0.0098349685
0.01589933 -0.0043863067 0.0071042837 -0.009316528 0.008522566 -0.007074181 0.027916877 0.015017001
0.003368135 -0.026179794 -0.006975463 0.036717992 -0.0032086817 0.014748469 0.006547334 -0.0041075954
-0.0021139146 -0.007831408 -0.003906188 -0.019873679 0.001517821 0.021602705 0.006945717 0.002798304
0.013965088 0.023557104 -0.011312451 0.0063590524 -0.0048899897 -0.018856136 -0.005429552 -0.018246582
0.005410499 -0.02985958 -0.037884165 0.028148167 -0.016975956 -0.018796118 0.008846355 0.003650066
0.0013951998 0.018877832 0.049023487 -0.010907007 0.014756885 0.034791082 -0.0031043736 0.005686972
0.012354153 0.007932966 -0.020272879 0.020614065 -0.009914629 0.0018822455 0.014281004 -0.01601439
0.017555455 0.00868712 0.018431181 0.044184137 0.0077120485 0.008482949 0.0038836438 0.030890603
0.020466458 -0.01985025 -0.0037193967 -0.0021655022 0.022133248 -0.002633057 -0.036492757 0.0038817448
-0.013014485 0.052415412 -0.022141468 0.020902338 -0.011283278 0.011753532 -0.02530473 -0.0047272462

first_block.sa.heads.1.key.weight f4 [16, 64]
00000000: 69e3 2ebd aa6c b9bc bd6d 053c 86b8 aa3b
00000010: d163 e23c 174b a13c 82d4 0f3c 2f0d 0e3d
00000020: 4bb9 c6bc 7019 313d 37f4 c33c 01df bc3b
00000030: be16 5a3c a923 a13c 27e5 0bbd fd43 a83c
00000040: 4c87 ad3c 8e20 58bc 86a7 27bc b64a 8e3b
00000050: 83cb a4bd 1ebe 2dbd ae0f 823c 927c f33c
00000060: 270b 0e3c 4f98 b93c e233 01bd 1a42 ab3c
00000070: bd67 343d 7a6b 33bd cd96 82bb 03c4 f93c
00000080: 7117 bf3a 8d9f b8bb 0597 b4bc 7418 513c
00000090: 213d a3bc 681d 133c 1182 ad3b fb12 81bd
000000a0: 5ec5 e9bc b27e 03bd fe51 873d de00 083d
000000b0: bc75 273c 6315 e03b 4263 5a3c 4108 a2bb
000000c0: b8d7 d0bc 4017 cebb 9f92 113b d1ef f1bc
000000d0: e216 14bd c7af 553c 81ef d13c 9018 683b
000000e0: 943c e33c d4b6 843c 1a91 21bd a5e7 5f3c
000000f0: 2cef b93c 9951 d83c 3ac5 093b 8690 173d
00000100: c1cc 11bd bf3c e3b8 e4ad c73c d02d f3bc
00000110: a246 51bc 9409 313b ab27 6abc 8c52 b5bc
00000120: 720b 893c dbe9 bdbc 6f0e 1cbc 2b22 bfbc
00000130: 8b17 86bc 094e 1e3d 091e c23b e305 a73c
00000140: c2a0 32bc f867 2ebc eafd 95bc 192a d33a
00000150: 0d55 fb3c 8d12 2a3c dea2 973c 841f b03c
00000160: fde9 883b 86e4 82bd c11c e8bc d9ed d53c
00000170: e99d 07bd 5920 1ebc 98eb d63c 2ab0 e3bb
00000180: 470a 8ebc 1404 0cbd 872b d7bc ebcc 2fbd
00000190: dc10 29bb 8447 17bc 267a f7bb 0e57 27bc
000001a0: d884 673c 244f 293c 7364 81bc 1337 ecbb
000001b0: 050d fd3c 1c85 11bd 5d55 debb 680f 353c
000001c0: d55b 8aba cdaf 28bb f38d e2bc a1c6 2dbb
000001d0: 7bbc 44bb 22b5 533b 8b97 433c 6b8a b0bc
000001e0: acf9 05bd 72c8 d2bb 5d17 85bc 7c3a 963c
000001f0: 28b6 143c 175a b5bc 17d6 3e3c c785 28bd
00000200: fb94 eebc e942 c73a 1607 963c 949c 9abd
00000210: 3fc0 2ebd 1c18 9f3c 048b 073d d3c3 26bd
00000220: 3394 483b 6c48 2cbb f294 aebc 6603 50bc
00000230: d9cb 103c aaf3 2b3d d1c9 993c fbe3 453d
00000240: 9ca0 153c c57f e73c 72b2 26bd 8ab8 093c
00000250: d0cf 123c c655 ea3c 8162 cf3b 81bb 593c
00000260: 6056 773b 5194 8ebc be60 02bc be33 98bc
00000270: f042 78bc 37cb 46bd cfda 0bbc b95f 27bd
00000280: 4611 ae3c a06c debc 1f6d 9cbc a722 93bc
00000290: be18 88b8 6b99 d33c 3fc8 463d 7ae5 d03c
000002a0: 0b93 203d 3bbc f83c cefe 3e3d 9686 7bbc
000002b0: a34c 7a3c 513e bbbc b8e0 8f3a b645 0d3c
000002c0: eaa0 fabb 2153 0ebd 6a3f 0a3d d668 5d3c
000002d0: c120 f1bc 2e0b 23bc f469 3ebc 3d79 32bd
000002e0: 81cc ae3c 0b36 563c d18e dc3c 80b7 ff3a
000002f0: cce4 033d ecbb b4bb e3a2 1a3d ce8d 6bbc
00000300: 4492 99bd ca9d 77bc bb10 853c 105e ebbc
00000310: 95fa 12bc 5ffb 0bbd 384a 01bd 0903 6cbc
00000320: 9f0f 07bc 9678 753d 81b8 2cbc db57 3f3b
00000330: cca5 8d3b 97fe b83c bd21 7abc 8e4a 693c
00000340: 1442 2cbc 38cd 9a3b 01f5 44bd c904 4fbc
00000350: 2517 39bd d207 003c a876 043b 38e7 3c3a
00000360: 747b c9bc 4ad4 aeba c9c9 773c f586 86bb
00000370: 70ef 623c 35d3 52bd 6dde 45bc 75da b63b
00000380: 87e5 47bd cf08 293c d3c3 e8bc b2ac 4bbc
00000390: 7518 8dbc 46db 2b3d 3ebf 993d e2d8 813c
000003a0: 2bcb ef3b cf9a 933c edeb 573d 995c 053c
000003b0: 6152 00bd 0cfa 593d 3772 8cbc 788a 743c
000003c0: 2075 2c3c 0f27 48bc 1751 1c3d b023 8fbc
000003d0: aad6 4abd 6282 e8bb 27af 623c 63c4 52bc
000003e0: 2802 68bc c894 fabc ca56 debc 81db 603c
000003f0: 7ab0 893b df2d b0bb 2843 253c cd56 053d
-0.042697344 -0.022634823 0.008143839 0.005209985 0.027635487 0.019689126 0.008778693 0.03468054
-0.024258276 0.04323715 0.023920162 0.005763889 0.013311086 0.019670324 -0.034154084 0.020540232
0.021182679 -0.013191355 -0.010232812 0.0043424023 -0.08046629 -0.042417638 0.015876617 0.029722486
0.008669651 0.022655634 -0.03154362 0.020905543 0.044044245 -0.04380367 -0.003985262 0.030488973
0.001457913 -0.0056342543 -0.022044668 0.012762178 -0.01992661 0.008979179 0.005295046 -0.06302448
-0.028536495 -0.032103248 0.06607436 0.033203952 0.010220941 0.006838487 0.013329329 -0.0049448316
-0.025493488 -0.0062893927 0.0022212637 -0.029533299 -0.036154635 0.013042397 0.0256269 0.003541503
0.027738847 0.01620046 -0.03944502 0.013666068 0.022697054 0.026406096 0.0021022097 0.037003063
-0.03559566 -0.00010835518 0.02437491 -0.029684931 -0.012773188 0.0027013766 -0.014291684 -0.022134088
0.01672909 -0.0231828 -0.009524926 -0.023331722 -0.016368648 0.03864864 0.0059239906 0.02038855
-0.010902585 -0.010644905 -0.018309552 0.0016110569 0.030680204 0.010380399 0.018510278 0.021499403
0.004178284 -0.06391244 -0.028334023 0.026114391 -0.03310958 -0.009651267 0.026235387 -0.0069484906
-0.017338885 -0.034183577 -0.026265873 -0.042920034 -0.0025797402 -0.009233359 -0.007552403 -0.010213627
0.0141307935 0.01033381 -0.015794968 -0.007208714 0.030889997 -0.035527334 -0.0067850784 0.011051036
-0.0010555933 -0.002573955 -0.027655577 -0.0026516097 -0.003001957 0.0032304008 0.011937986 -0.021550378
-0.03270881 -0.0064325863 -0.016246492 0.018338434 0.009076633 -0.022137685 0.011647723 -0.041143205
-0.029123774 0.0015202436 0.018313926 -0.07549396 -0.04266381 0.019420676 0.03309156 -0.040714096
0.0030605912 -0.0026288284 -0.021311257 -0.012696123 0.008837664 0.041980423 0.018772991 0.048313122
0.009132531 0.028259167 -0.040697522 0.008405814 0.008960679 0.028605353 0.0063288813 0.013289333
0.0037740692 -0.017404707 -0.007957635 -0.01857936 -0.015152678 -0.048533645 -0.008536055 -0.040862773
0.021248471 -0.027151406 -0.019095002 -0.01796086 -6.489594e-05 0.025829991 0.048530813 0.025500048
0.03920273 0.030363193 0.04662972 -0.015351912 0.015277061 -0.022856863 0.0010977006 0.008622577
-0.007648577 -0.034747247 0.033751883 0.013513764 -0.029434564 -0.009951396 -0.011621941 -0.043572653
0.02133775 0.013074408 0.026923569 0.0019509643 0.03220062 -0.005515566 0.037752997 -0.014377071
-0.07498601 -0.015113303 0.01624333 -0.028731376 -0.008970876 -0.034175273 -0.03156492 -0.0144050205
-0.00824347 0.059929453 -0.010542036 0.0029196653 0.004322743 0.022582335 -0.015266833 0.014238967
-0.010513801 0.004724171 -0.048085216 -0.012635418 -0.045188088 0.0078143645 0.0020212326 0.0007206085
-0.024595 -0.0013338414 0.015123793 -0.0041054436 0.013851032 -0.051470954 -0.012076956 0.0055802413
-0.04880288 0.010317042 -0.028413689 -0.0124313105 -0.017223576 0.041957162 0.0750718 0.015850488
0.0073179207 0.018018154 0.05271523 0.008139753 -0.031328563 0.05321698 -0.017144306 0.014925592
0.010525972 -0.012216344 0.03816327 -0.017473072 -0.049521126 -0.007095621 0.013835705 -0.012864205
-0.01416067 -0.030588523 -0.027140994 0.013724209 0.004201946 -0.005376562 0.010086812 0.032553483

first_block.sa.heads.1.query.weight f4 [16, 64]
00000000: 1d3f fcbb 4bbc 58bb 9746 513c 336d f5bb
00000010: 0b61 e43c deb4 633c 12a4 1a3c daf7 1cbd
00000020: 5db2 52bc 039e 93bc efe9 383d 6261 1ebc
00000030: 17d8 82bc 4709 083d 22db 7e3c da7f 873d
00000040: f8ec a3bc 4bc9 e23b f6c3 d33c 0c2a b6bc
00000050: ffde c93c 89a2 193d 6b5b b1b9 23e0 7cbc
00000060: 5e87 52bd 5b96 f9bc 9a1d aa3c 2b94 8dbb
00000070: fc85 9cbc 6d90 213d c898 843c bb1b 60bc
00000080: 9615 ef3c 8a93 e1bc f491 5dbd 6789 38bd
00000090: 72a9 c43b 170e 9abc 03a0 eb3c 7bba 3b3c
000000a0: bf4d 29bd 4ca0 4b3d 09e0 39bc 3e50 34bd
000000b0: 0fd8 c1bb 9da7 8cbb 026a 1f3d 2bc0 223d
000000c0: 832c c4bc 7a85 393d 3807 883c e900 993c
000000d0: a92a 173c f8dc ddbc 051b 403c 318d 08bc
000000e0: d795 adbc 02b6 383c 5470 e13c be21 763d
000000f0: 4de2 023b 7fa9 89bb 8aac 1b3d 011c c83c
00000100: b9a1 07ba 601a 2ebc 5b78 893b 2a3a 62bd
00000110: f034 813c 16af 543c 47c1 56bc e0b4 fd3c
00000120: b31f 1c3d 7676 1b3d a9a5 a9bc ffee fe3c
00000130: 9e4e bf3b 7351 adbb db5f c6bc 8a1b 113c
00000140: 9569 593d d97c 913b 6496 26bd 189c 6e3c
00000150: b83b 11bc ba62 6a3c 872a 093b 0ab2 91bc
00000160: abd6 813d e0db 16bc 77d5 133d a217 aebc
00000170: 8a5a 103d 0684 01bd ab5a bc3b f088 843d
00000180: 51e2 323a fdb1 323a 181e 02bc 0b2c e53b
00000190: a84f 193c c1b0 b93a bb16 85bc 9c44 00bd
000001a0: 74f4 913b 6efc 463c 3f25 3e3d aa85 f1bb
000001b0: 73bc edbc 5ac4 37bc 6dd5 223d 2e2a 91bc
000001c0: 9eb5 a7bc 7b06 9ebc 6d2c e83b 0231 0fba
000001d0: 73be 103d b082 86bd cdf4 8938 c22e cbbc
000001e0: 5db8 0ebd 6b3b 183b dc81 413c 19cb 923c
000001f0: fe5b 9bbc 0f1b 3bbc 942a 4b39 df7e 50bc
00000200: d051 e13c f671 44bc a6f6 4cbd 7dfd b5ba
00000210: 279b 943a b261 2f3d 00a5 8dbb f566 7f3c
00000220: 37b9 003d a3cc a13c f0d1 453d 69c7 99ba
00000230: 5b1d bbbc 9ca4 d5bc 7ecd 58bd 5082 2b3c
00000240: 97b4 213d 6483 3e3d 4e9c 9bbc 6f18 3fbc
00000250: a358 bc3c 7d38 d8ba 5bf3 f43b 793d 98bd
00000260: 00cb 64bb d79b 803a a170 a23c 4255 b13b
00000270: 4e54 a03c 7710 30bd 2da2 ee3b dd4b 013d
00000280: bd1e 4a3c 76bb 04bc 7ce4 423b 8ff8 cfbc
00000290: c3b8 7b3c 1c5d ea3c a95e 3e3c 0658 e1bc
000002a0: a53f be3c eb40 2fbc 7a65 f73c af69 1c3d
000002b0: 3667 20bd 719c 0eba bc62 25bb cb11 e7bc
000002c0: 6c12 fabb 266a f93c 7768 0f3c cb84 703d
000002d0: 7ad6 153d 689f 543c d223 d53b 87f8 cfbc
000002e0: 80cf 203c 14f2 13bd bb57 793b a4aa 003d
000002f0: 7618 823c 3dfa 273d 4742 623c e9b9 e93b
00000300: 4cfc 5cbd 8e4c 08bd 9566 e1bc e75a 84bd
00000310: 9175 47bc 392f 2e3b db1b 653c 1692 53bd
00000320: 0c37 3f3d 0809 a73b 68e3 fc3c 0c0c ef3b
00000330: 40b4 05bd 3088 cd3c 7774 d0bc 1681 0d3d
00000340: 9b22 d4bc 9720 963c 01ad 18bc feb0 193b
00000350: eb3a 003c 7043 a33c bd8e 0cbd c631 ac3c
00000360: 1306 21bd 1266 6b3c d3aa 5cbc 8bd4 14bc
00000370: fbdd aabc 5c51 fd3b a045 9f3c 9683 9ebb
00000380: f34a 233d 5c3e cfbc 36e7 b7bb 2c19 81ba
00000390: c8e9 133c 74de 99bc bf45 2d3a daa9 be3c
000003a0: 97b7 82bc bb07 2e3c 7da4 0bbc eaf1 263d
000003b0: c005 febc 0081 1cbd b3fe 523b 4c6c 063b
000003c0: 48d8 843c 5b86 0e3d ee4e 5e3c 9ee3 143d
000003d0: 1849 073c bc2e 57bc 9a66 10bc 5ba3 60bc
000003e0: 2571 9abc 74cd c03b 4d30 a73c aa72 e73c
000003f0: 74eb 3e3b 8586 773c 897a f33c 132d bf3b
-0.0076979534 -0.0033071216 0.012773178 -0.007489824 0.027878305 0.013898103 0.0094385315 -0.038322307
-0.012859908 -0.018019682 0.04514497 -0.009666773 -0.01597218 0.033211973 0.015555175 0.066161826
-0.020010456 0.0069209686 0.025850277 -0.022236846 0.024642466 0.03750852 -0.00033828182 -0.015434298
-0.051398627 -0.030467203 0.020766068 -0.0043206415 -0.019106857 0.039444376 0.016186133 -0.013678486
0.029185098 -0.027536172 -0.05409427 -0.045052912 0.006001645 -0.018805547 0.028762823 0.011458035
-0.04133391 0.049713418 -0.011344918 -0.044021837 -0.005915649 -0.004292442 0.038919456 0.039734047
-0.023947006 0.04529331 0.016605005 0.018677192 0.00922648 -0.027082905 0.011725192 -0.008334444
-0.021189613 0.011273863 0.027519383 0.060090773 0.0019971312 -0.0042011137 0.038006343 0.024427416
-0.000517394 -0.0106264055 0.0041952557 -0.05523125 0.015772313 0.012981197 -0.013107604 0.030970037
0.03811617 0.03795477 -0.020708876 0.031119822 0.0058382293 -0.0052892505 -0.02421563 0.0088566635
0.053079206 0.004439932 -0.040670767 0.014563583 -0.008864336 0.014305765 0.002092989 -0.017785091
0.06339773 -0.009207696 0.036092248 -0.021251503 0.035242595 -0.031620048 0.005748113 0.06471431
0.0006823885 0.00068166835 -0.007941745 0.0069937757 0.00935737 0.0014167057 -0.01624619 -0.03131543
0.00445419 0.012145145 0.04642224 -0.0073706703 -0.029020524 -0.011216247 0.03975432 -0.017720308
-0.020472344 -0.0192902 0.007085374 -0.000546232 0.035337877 -0.065678954 6.578267e-05 -0.02480257
-0.03484379 0.0023228775 0.011810746 0.01791911 -0.018964764 -0.0114200255 0.0001937545 -0.012725561
0.027504832 -0.011990061 -0.05003991 -0.001388475 0.0011337743 0.04281778 -0.004322648 0.015588512
0.031426635 0.019750899 0.048295915 -0.0011732402 -0.022841146 -0.026079468 -0.052930348 0.010468081
0.039478865 0.046512023 -0.01899543 -0.01166354 0.022991484 -0.0016496327 0.0074752993 -0.074336
-0.0034911036 0.0009812069 0.019829096 0.005411775 0.01957145 -0.042984452 0.0072825165 0.03156649
0.01233643 -0.008101335 0.0029738238 -0.025387077 0.015363875 0.028608851 0.011619248 -0.027507793
0.023223707 -0.01069663 0.030199755 0.038186725 -0.03916093 -0.00054401817 -0.0025235852 -0.028206727
-0.0076315906 0.030446123 0.008752934 0.05872039 0.036581494 0.012977459 0.0065045143 -0.025387062
0.009815097 -0.036119536 0.0038046676 0.031412736 0.015880805 0.04101013 0.013809747 0.007132758
-0.053951547 -0.033276133 -0.027514735 -0.06462651 -0.012174026 0.002657844 0.013983692 -0.05165299
0.046683356 0.005097512 0.030870155 0.0072951373 -0.032642603 0.025089353 -0.02544616 0.034546934
-0.025895407 0.018326087 -0.009318591 0.0023451443 0.007826547 0.019929618 -0.034315813 0.021019828
-0.039312433 0.014367597 -0.013468462 -0.009083877 -0.020857802 0.007730646 0.01944238 -0.0048374636
0.0398664 -0.02529829 -0.0056122793 -0.0009849421 0.009027906 -0.018782832 0.0006609819 0.02327435
-0.015956683 0.01062196 -0.008523104 0.04075805 -0.031008601 -0.03820896 0.003219527 0.0020511327
0.016216412 0.0347961 0.013568623 0.036349885 0.008257173 -0.013133701 -0.008813525 -0.013710822
-0.01885278 0.005883867 0.020408774 0.028252918 0.002913204 0.015107756 0.029721515 0.0058342307
